MHIM/pretrain/redial/1-epoch.pth (torch, 594192 bytes, 4 tensors)

weight f4 [8, 128, 128]
-0.05570909 0.14301868 0.10058812 -0.03447246 -0.17927921 -0.022632947 0.11359378 0.0488237
-0.03697537 0.068884194 0.08011624 -0.11084343 0.06536993 0.0780365 0.08093731 0.03747783
0.045832984 0.110877216 0.04010097 -0.13481186 0.1271306 -0.10493052 0.09675904 -0.016389698
-0.021145592 -0.15032062 -0.15721163 0.15313604 -0.09502311 -0.06281656 0.05515254 -0.038306747
0.106385715 -0.073381394 0.021892712 -0.08671562 -0.08846079 -0.111146554 0.059137017 0.04767916
-0.00417152 0.15652406 0.111015804 0.060154542 -0.03968236 -0.1419189 0.063055605 -0.0013699936
0.1160135 0.14006083 -0.14734894 0.13220792 -0.08020469 0.07754798 0.016482273 0.066638045
-0.044376366 0.0053802575 0.044700302 0.14380348 0.0042364453 0.14044487 0.016437454 0.005657823
0.112137616 0.15338601 0.05696589 0.04652257 -0.057375796 -0.11189911 0.04699041 0.071872376
0.017180366 -0.14994137 -0.118974455 -0.07219304 -0.022641877 0.0120451525 -0.14491723 -0.023383712
0.12532848 0.13111217 0.11280771 -0.0987441 0.15901698 -0.048265792 -0.15542904 -0.110031635
-0.020664068 -0.05568972 -0.122651756 -0.11212474 -0.02200699 -0.019893454 -0.036980845 -0.111621454
0.01437251 -0.14147949 0.1844415 0.13560982 0.10155517 0.13436611 -0.06299351 0.11980114
-0.07025839 -0.014998934 -0.061972316 0.13245155 0.015731307 -0.11248239 -0.10787255 0.16225024
0.08595255 0.036080983 -0.1336205 -0.17801371 -0.086646095 -0.16690017 0.1270735 -0.093666665
-0.094499245 -0.14468177 0.014296288 0.0094336625 -0.029867524 -0.08448374 0.14150123 -0.027297914
0.1249956 0.108708695 -0.019060675 0.015786655 -0.115122035 0.15029803 0.054661896 -0.0049308687
-0.016369218 -0.07830943 0.12940124 -0.087687545 0.07241045 0.10186488 0.043717135 -0.14375137
0.09436307 0.054341316 -0.04413769 -0.08648101 -0.018542742 -0.015353089 0.12786204 -0.096901484
0.10565622 -0.00862803 0.05859896 0.010850495 -0.03660059 0.027258545 0.0019203931 0.14313707
-0.13535514 -0.09130272 0.051442392 0.0018594037 0.06879092 0.07764249 0.0039872224 -0.014712456
-0.121511705 0.14713317 -0.009283674 0.09692266 -0.032104693 0.1474186 -0.14207608 -0.12026051
-0.087141946 -0.00669067 -0.04618011 -0.13428159 0.092763186 -0.1390925 0.08263807 -0.005093698
0.12458118 -0.1302588 -0.15273719 0.10537659 -0.0966645 0.0027440004 0.08992811 -0.013812138
0.07463928 -0.13548113 -0.14166662 0.1444489 -0.13696787 0.013112365 -0.0028906087 0.07936395
0.12839554 -0.04019691 -0.017410759 -0.054495238 -0.08014168 -0.045377873 0.1241668 -0.15839581
-0.1471432 -0.10092676 -0.026483852 -0.028148267 0.038618203 0.014892579 -0.09945589 0.055308335
0.17295182 -0.06647967 -0.0006976776 0.17380449 0.0243653 -0.050680302 0.0038997827 -0.0593576
-0.015417872 0.09832539 -0.088330045 -0.03877595 2.5198444e-05 -0.12068419 -0.064719684 0.08831169
0.08345894 -0.14823598 -0.03714741 0.022981498 -0.04837498 0.14874932 -0.124628484 -0.15105769
0.041108496 -0.14692634 -0.12172608 0.108910844 0.106742546 -0.10799327 -0.0708354 -0.004399351
0.14293009 -0.0902683 0.0038579276 0.17585786 0.03400441 -0.09654938 -0.13839981 -0.046009
00000000: 372f 64bd 7d73 123e 2501 ce3d ff32 0dbd
00000010: f894 37be bb68 b9bc dba3 e83d 5cfb 473d
00000020: 7c73 17bd 2813 8d3d fc13 a43d e101 e3bd
00000030: abe0 853d 9ad1 9f3d 76c2 a53d 5a82 193d
00000040: 5ebb 3b3d 9813 e33d ea40 243d 1f0c 0abe
00000050: 862e 023e d0e5 d6bd 9b29 c63d b043 86bc
00000060: 8539 adbc a6ed 19be 16fc 20be b2cf 1c3e
00000070: 7a9b c2bd f8a5 80bd a1e7 613d 89e7 1cbd
00000080: c1e0 d93d fc48 96bd 5858 b33c f597 b1bd
00000090: ee2a b5bd cea0 e3bd a839 723d 394b 433d
000000a0: 3fb1 88bb d847 203e 415c e33d 9c64 763d
000000b0: f889 22bd 3053 11be 4c23 813d 5b91 b3ba
000000c0: 7c98 ed3d 1b6c 0f3e a4e2 16be 8361 073e
000000d0: 5b42 a4bd 7ad1 9e3d d505 873c 8779 883d
000000e0: fec3 35bd df4c b03b aa17 373d 3841 133e
000000f0: e1d1 8a3b c8d0 0f3e d7a7 863c 4265 b93b
00000100: 68a8 e53d 3911 1d3e 1155 693d 738e 3e3d
00000110: e202 6bbd 5c2b e5bd 0479 403d d331 933d
00000120: d7bd 8c3c 3b8a 19be e1a8 f3bd f2d9 93bd
00000130: 757b b9bc 0859 453c 2f65 14be 338f bfbc
00000140: 1c56 003e 4542 063e bb07 e73d 593a cabd
00000150: 59d5 223e 5ab2 45bd ca28 1fbe 4458 e1bd
00000160: b147 a9bc e71a 64bd d830 fbbd a8a1 e5bd
00000170: 0148 b4bc 99f7 a2bc 3a79 17bd ca99 e4bd
00000180: ad7a 6b3c 00e0 10be 3cde 3c3e 4ddd 0a3e
00000190: 28fc cf3d 4597 093e be02 81bd 4d5a f53d
000001a0: a1e3 8fbd 17be 75bc afd6 7dbd 61a1 073e
000001b0: f1de 803c 2b5d e6bd 49ec dcbd ed24 263e
000001c0: e407 b03d a7c9 133d d0d3 08be 3a49 36be
000001d0: 8273 b1bd e1e7 2abe 8e1f 023e 4fd4 bfbd
000001e0: d288 c1bd 7527 14be fa3a 6a3c a68f 1a3c
000001f0: bdac f4bc d005 adbd b3e5 103e e09f dfbc
00000200: b1fd ff3d aaa2 de3d 2225 9cbc 0453 813c
00000210: 1ac5 ebbd bae7 193e 27e5 5f3d 2093 a1bb
00000220: bd18 86bc b260 a0bd c281 043e 8795 b3bd
00000230: ee4b 943d 899e d03d bd10 333d 8f33 13be
00000240: 6d41 c13d 0095 5e3d b9c9 34bd f51c b1bd
00000250: f3e6 97bc 868b 7bbc 44ee 023e 4974 c6bd
00000260: 4a62 d83d 955c 0dbc 7705 703d 46c6 313c
00000270: 80ea 15bd 504d df3c b3b5 fb3a 8692 123e
00000280: 8a9a 0abe ecfc babd 42b5 523d 3cb7 f33a
00000290: 41e2 8c3d 0703 9f3d 3fa7 823b 830c 71bc
000002a0: 21db f8bd 14aa 163e 8d1a 18bc 637f c63d
000002b0: 3680 03bd e7f4 163e 647c 11be 244b f6bd
000002c0: 7a77 b2bd 683d dbbb 5b27 3dbd 1d81 09be
000002d0: a0fa bd3d 446e 0ebe 263e a93d 09e9 a6bb
000002e0: 6b24 ff3d 9062 05be 2367 1cbe aecf d73d
000002f0: 0af8 c5bd b0d4 333b 3b2c b83d 4e4c 62bc
00000300: 7bdc 983d 91bb 0abe 0e11 11be 6aea 133e
00000310: 4e41 0cbe 3fd5 563c 5e70 3dbb 9189 a23d
00000320: 1f7a 033e 84a5 24bd 02a1 8ebc 6636 5fbd
00000330: 5221 a4bd 26de 39bd 2a4b fe3d 8332 22be
00000340: b5ac 16be b0b2 cebd aaf4 d8bc 3297 e6bc
00000350: 1f2e 1e3d 0100 743c 88af cbbd fe8a 623d
00000360: 481a 313e 7e26 88bd 5ae4 36ba cef9 313e
00000370: bd99 c73c 2696 4fbd 7f93 7f3b f420 73bd
00000380: 3e9b 7cbc d25e c93d 62e6 b4bd 88d3 1ebd
00000390: 3f61 d337 4629 f7bd c18b 84bd c2dc b43d
000003a0: 85ec aa3d 2ccb 17be e227 18bd b243 bc3c
000003b0: d824 46bd be51 183e 383d ffbd deae 1abe
000003c0: 6261 283d dc73 16be 864b f9bd a60c df3d
000003d0: d69b da3d 932b ddbd 2612 91bd 6e28 90bb
000003e0: 445c 123e 96de b8bd 49d5 7c3b 1514 343e
000003f0: 3548 0b3d aebb c5bd aeb8 0dbe ef73 3cbd

comp f4 [39, 8]
-0.14721356 0.29583138 0.052795414 0.016449612 -0.04986211 -0.1719481 0.21645685 -0.28311127
0.29983988 -0.35644376 -0.35801145 -0.24697985 0.32129204 -0.25008336 -0.34920484 -0.33696172
-0.29556894 -0.3674754 -0.031852227 0.1400182 -0.20935121 -0.048218224 -0.26982316 -0.18131262
-0.2431821 0.22929823 0.2253328 -0.3029264 0.18962812 -0.36444658 0.23036005 -0.15425447
-0.25415283 -0.16907428 0.2549039 -0.09148214 0.27396974 -0.35082996 -0.113742225 0.32955647
0.2204523 -0.048188545 -0.0066072256 -0.3428955 0.11159752 0.015143459 0.3172969 0.18787073
-0.10613738 0.0861122 -0.27040613 -0.3911733 -0.10190832 -0.23861991 0.2604554 -0.075344525
-0.3684677 0.14135373 0.33670303 0.34966832 0.15810698 0.0032093313 -0.100168385 0.079832435
0.31672132 -0.2250806 -0.29363662 -0.36521453 0.18824372 0.14527509 -0.1583853 -0.009052908
0.24735281 0.3381419 0.2397845 -0.12070041 -0.10342825 0.3525943 0.3459317 -0.18271145
-0.034757953 0.20704852 -0.027420823 0.26785088 -0.1401102 0.298997 -0.369815 -0.08177098
-0.094466135 0.13715687 -0.22780144 0.30040988 0.0776565 -0.21457975 0.051505663 0.019293362
0.17270726 0.034372915 0.08637025 0.3400387 0.33624497 -0.3709202 0.30342916 0.39310473
0.03948551 -0.26487452 -0.1087342 0.06460342 0.11398524 0.20501177 0.09323529 -0.2588179
0.22264563 -0.272722 0.1922224 -0.31912985 0.24009898 0.21319501 0.37768626 -0.29861674
0.37874442 -0.23118858 -0.22593987 -0.18888703 0.37133208 -0.059150845 -0.026858212 0.11217963
-0.38749886 -0.03673058 0.034019247 -0.30195865 -0.0031704612 0.23603946 -0.27015486 0.06641274
-0.1423038 -0.2263776 -0.10178558 -0.13118818 0.39311594 0.3102796 -0.21717915 -0.3443203
-0.020530684 0.28743866 0.15894671 0.032935124 0.33963504 -0.05000775 0.03965636 -0.16201279
0.29029566 0.029681245 0.2640549 -0.18045372 -0.27766123 0.117989086 -0.06742589 -0.15602913
0.1571615 -0.3375016 -0.019793555 -0.08908754 -0.10258581 0.10135999 0.10828679 0.09124947
-0.07045113 -0.15231583 -0.13634358 0.015211067 -0.32295632 0.38403824 0.29774526 0.029592974
0.060179442 -0.22647135 -0.3610012 -0.05308672 -0.07972962 0.13011928 -0.24273004 0.3409062
-0.07607383 -0.24433145 -0.32019284 0.21091054 0.19341207 -0.29712033 0.16655605 0.038422357
-0.19240887 0.2763175 -0.3293245 0.09814625 0.29220697 0.03977096 -0.22240408 -0.25829694
-0.12966403 -0.047157355 0.0378496 0.12050736 -0.3791633 0.33339265 -0.3689099 0.14611809
-0.22322232 0.3270387 -0.2554991 -0.298336 0.21519358 -0.3804648 0.37474874 0.2741946
0.25841373 0.15111719 0.011382492 0.1038285 -0.24142747 0.34713694 0.27663356 0.17352377
-0.24975768 -0.2263039 0.07288827 -0.31386104 -0.029619139 -0.22017881 -0.12507941 0.0070601986
0.21466196 0.20251347 0.05081139 -0.34298342 -0.2954512 -0.367928 0.2549693 0.08979866
-0.36050758 -0.33147597 0.25246772 -0.11507912 -0.030781142 -0.22121558 0.2158788 0.02337089
-0.06569816 -0.2980134 -0.21933255 0.232539 -0.046368983 -0.30114228 -0.31666544 0.15403748
00000000: 27bf 16be 3677 973e 0140 583d 56c1 863c
00000010: 363c 4cbd 2a13 30be dda6 5d3e f6f3 90be
00000020: 9d84 993e cc7f b6be 474d b7be 49e8 7cbe
00000030: 6480 a43e ed0a 80be faca b2be 3f86 acbe
00000040: d054 97be bc25 bcbe 7b77 02bd ee60 0f3e
00000050: 2a60 56be 7980 45bd 4326 8abe 04aa 39be
00000060: ba04 79be 28cd 6a3e a4bd 663e 2b19 9bbe
00000070: e02d 423e be98 babe 81e3 6b3e e2f4 1dbe
00000080: 5220 82be cf21 2dbe c482 823e fd5a bbbd
00000090: c345 8c3e fc9f b3be aff1 e8bd a0bb a83e
000000a0: 3fbe 613e 5a61 45bd 6d81 d8bb 0090 afbe
000000b0: 3e8d e43d 451c 783c bd74 a23e 2f61 403e
000000c0: 8e5e d9bd 985b b03d ac72 8abe de47 c8be
000000d0: 4fb5 d0bd c758 74be 695a 853e 3b4e 9abd
000000e0: cca7 bcbe 08bf 103e 5764 ac3e ba07 b33e
000000f0: cce6 213e a553 523b 1525 cdbd 307f a33d
00000100: 4c29 a23e 877b 66be 8a57 96be 66fd babe
00000110: f6c2 403e fec2 143e c22f 22be a652 14bc
00000120: 0e4a 7d3e ef20 ad3e 118a 753e c731 f7bd
00000130: 31d2 d3bd 3d87 b43e f61d b13e b618 3bbe
00000140: 5b5e 0ebd 8704 543e a2a1 e0bc c023 893e
00000150: 0c79 0fbe 2316 993e 6458 bdbe 8b77 a7bd
00000160: 7677 c1bd da72 0c3e c844 69be 53cf 993e
00000170: 5f0a 9f3d cbba 5bbe 9af7 523d 1d0d 9e3c
00000180: 2cda 303e 9dca 0c3d e3e2 b03d 8d19 ae3e
00000190: 4d28 ac3e 41e9 bdbe 115b 9b3e 0645 c93e
000001a0: 8fbb 213d a29d 87be 09b0 debd cc4e 843d
000001b0: 1871 e93d 9bee 513e 25f2 be3d c883 84be
000001c0: 37fd 633e 38a2 8bbe f3d5 443e fd64 a3be
000001d0: 82dc 753e cb4f 5a3e 1860 c13e 4be4 98be
000001e0: caea c13e b3bc 6cbe c85c 67be 9a6b 41be
000001f0: 3d1f be3e 2848 72bd c105 dcbc 6fbe e53d
00000200: 4066 c6be ce72 16bd c457 0b3d 539a 9abe
00000210: 83c7 4fbb 54b4 713e bd51 8abe 6703 883d
00000220: 16b8 11be 88cf 67be f574 d0bd 3256 06be
00000230: 7e46 c93e f8dc 9e3e 3664 5ebe c04a b0be
00000240: f72f a8bc 292b 933e edc2 223e fbe6 063d
00000250: a5e4 ad3e edd4 4cbd b56e 223d aee6 25be
00000260: a2a1 943e 1526 f33c 3432 873e dcc8 38be
00000270: 9d29 8ebe 43a4 f13d 9616 8abd 1ac6 1fbe
00000280: f2ee 203e 02cd acbe 1826 a2bc 8773 b6bd
00000290: 8218 d2bd d495 cf3d 77c5 dd3d 01e1 ba3d
000002a0: af48 90bd aef8 1bbe a79d 0bbe d737 793c
000002b0: 885a a5be a9a0 c43e 1172 983e f76c f23c
000002c0: b87e 763d 1be8 67be 26d5 b8be 7671 59bd
000002d0: 4849 a3bd fd3d 053e 398e 78be 428b ae3e
000002e0: 99cc 9bbd 0632 7abe 51f0 a3be eff8 573e
000002f0: d00d 463e 2820 98be ab8d 2a3e c360 1d3d
00000300: d506 45be 7d79 8d3e 399d a8be e700 c93d
00000310: 279c 953e e0e6 223d e5bd 63be 7f3f 84be
00000320: a6c6 04be 1228 41bd 2f08 1b3d 90cc f63d
00000330: b121 c2be 71b2 aa3e c2e1 bcbe fb9f 153e
00000340: 6494 64be 9e71 a73e c7d0 82be 7fbf 98be
00000350: b55b 5c3e 48cc c2be 11df bf3e 3c63 8c3e
00000360: ce4e 843e 77be 1a3e a27d 3a3c 09a4 d43d
00000370: c338 77be efbb b13e eaa2 8d3e 37b0 313e
00000380: 7ac0 7fbe 36bc 67be 7246 953d 65b2 a0be
00000390: d6a3 f2bc 8e76 61be d114 00be 3d59 e73b
000003a0: 58d0 5b3e b15f 4f3e 9b1f 503d 869b afbe
000003b0: 6145 97be 0f61 bcbe 568b 823e 5ce8 b73d
000003c0: 7394 b8be 38b7 a9be 7343 813e 9aae ebbd
000003d0: bc28 fcbc 5686 62be 550f 5d3e 4f74 bf3c
000003e0: c28c 86bd 3695 98be b698 60be b41e 6e3e
000003f0: 67ed 3dbd 522f 9abe f921 a2be 00bc 1d3e

root f4 [128, 128]
-0.15324274 0.040865034 -0.021458438 0.061609097 -0.048401777 0.050834194 -0.025572877 0.021211293
-0.034497995 -0.046461634 0.11188457 0.05489711 -0.05997113 0.041931193 0.14246014 0.12231951
-0.092694975 0.110499986 0.025373273 0.015024086 -0.15411249 0.0064710034 -0.12478092 0.06630881
-0.042901035 -0.072804525 -0.05948537 0.11350261 -0.015331667 -0.01331962 0.12380038 -0.1431248
-0.084828205 -0.043462396 -0.1037433 -0.12968318 0.09888959 -0.12798478 0.012843664 0.10405517
0.14760032 0.048447568 -0.055928834 0.0020317838 -0.15972887 0.17079401 -0.038358938 0.1495489
0.13603331 -0.10445821 -0.07916139 -0.07150409 0.112441435 0.12723072 -0.0052309968 0.10770174
0.047424946 -0.14481434 -0.031784188 -0.06280942 0.10090586 0.18699607 0.049511265 0.04285574
-0.02226074 -0.045798484 0.14963308 -0.106064804 -0.0018303896 -0.08808736 0.0063288887 -0.035671156
0.10488897 0.0371491 -0.051555682 -0.11058208 0.14426811 0.031375796 0.08121666 0.11703856
0.053141497 0.0957336 0.041926365 -0.14563532 -0.13946272 -0.1634297 0.1316909 0.021518957
-0.089694604 -0.07069438 -0.092269644 -0.001977163 0.0468548 -0.005426787 -0.065510556 0.13316303
0.1101398 -0.08383865 0.09489573 0.07177716 0.16976185 -0.14075918 0.027886277 -0.106878534
0.034170747 0.03543157 0.12580031 0.014065006 -0.1326617 -0.003539947 0.071141586 0.07140656
-0.11573609 0.048429623 0.01834785 -0.021194654 -0.12499763 0.048126727 -0.003989027 -0.07532914
0.14111634 0.091371946 -0.0103531 -0.082840286 -0.14014915 0.09127456 0.093204245 0.12553264
-0.086233504 -0.08264594 -0.086931914 0.13986136 -0.08679097 -0.12224989 -0.006606276 -0.009741324
0.050054803 0.12028312 0.09356106 -0.1219551 -0.11424481 0.13098912 0.033365842 0.12182861
-0.04766844 0.060363203 -0.10598614 -0.002495306 0.133724 0.010136974 0.04844473 0.013130272
-0.13756144 -0.023752265 -0.018226868 0.092061706 0.06505657 -0.086944915 0.08954399 0.14356062
-0.10290925 -0.031362794 -0.023389326 0.079700954 -0.108218335 0.08952984 -0.10005949 0.018862262
0.026535362 -0.024107112 0.06965878 -0.0005277874 -0.07087356 0.14767957 -0.07652179 0.01697355
0.062118515 -0.046208393 -0.09251922 0.09374015 0.13601378 -0.09831199 -0.06606302 0.024562607
0.057553116 -0.032936364 0.10009896 0.13773984 0.08761779 -0.13291186 0.12549905 -0.09559637
0.012535664 0.04446765 0.049939103 -0.087098464 0.03536605 -0.111918084 -0.051622935 0.14422886
0.111505374 -0.038431358 0.12364235 0.021099783 0.072024986 -0.020799942 0.1332192 -0.10894134
-0.05342138 0.12540859 -0.05441557 0.07696772 -0.064787775 -0.10781588 -0.03254654 -0.06277863
-0.10185092 0.15025686 0.0362542 0.104518145 0.06774755 0.08026086 0.08453326 0.021624044
0.07612196 0.08124338 0.045841556 -0.07573823 -0.02047209 0.14931999 -0.10668652 -0.09467946
-0.099888116 0.061006915 -0.014472208 0.13048065 -0.03750132 -0.1022048 0.06738575 0.06698694
-0.056234542 -0.12934521 -0.08193804 -0.00048065226 0.060678862 0.12795447 0.09107793 -0.10449156
0.13566683 0.12782721 0.15063211 0.06466661 0.087055124 0.03718704 0.07322051 0.08356141
00000000: aaeb 1cbe 1862 273d 9bc9 afbc d259 7c3d
00000010: f140 46bd 8437 503d 367e d1bc 4ec3 ad3c
00000020: c54d 0dbd 8e4e 3ebd bd23 e53d cbdb 603d
00000030: 4aa4 75bd 0bc0 2b3d 12e1 113e a782 fa3d
00000040: ddd6 bdbd d14d e23d 9cdb cf3c 9627 763c
00000050: aacf 1dbe b60a d43b 248d ffbd eacc 873d
00000060: ffb8 2fbd 8a1a 95bd eea6 73bd 0e74 e83d
00000070: ac31 7bbc 893a 5abc 0e8b fd3d 4f8f 12be
00000080: 69ba adbd a005 32bd 5e77 d4bd abcb 04be
00000090: a086 ca3d 710e 03be 3b6e 523c e11a d53d
000000a0: 8a24 173e f570 463d a215 65bd ad27 053b
000000b0: f78f 23be a0e4 2e3e 431e 1dbd 5923 193e
000000c0: 514c 0b3e 30ee d5bd 5e1f a2bd bd70 92bd
000000d0: b247 e63d c548 023e c868 abbb bb92 dc3d
000000e0: a940 423d 364a 14be 2330 02bd 3aa2 80bd
000000f0: bba7 ce3d e67b 3f3e 53cc 4a3d 8089 2f3d
00000100: 285c b6bc 3197 3bbd 6a39 193e 8138 d9bd
00000110: afe9 efba 2567 b4bd 9162 cf3b eb1b 12bd
00000120: 07d0 d63d a829 183d 0d2c 53bd dc78 e2bd
00000130: 05bb 133e e883 003d ec54 a63d eab1 ef3d
00000140: e6aa 593d fa0f c43d fbba 2b3d 6d21 15be
00000150: 51cf 0ebe 1e5a 27be fbd9 063e 8648 b03c
00000160: ceb1 b7bd 37c8 90bd def7 bcbd 4a93 01bb
00000170: d2ea 3f3d 30d3 b1bb 662a 86bd e45b 083e
00000180: fa90 e13d 99b3 abbd b158 c23d e7ff 923d
00000190: 0dd6 2d3e 2d23 10be c371 e43c 22e3 dabd
000001a0: a0f6 0b3d b220 113d ccd1 003e e970 663c
000001b0: 78d8 07be 75fe 67bb aeb2 913d 9a3d 923d
000001c0: 0b07 edbd 245e 463d 3b4e 963c 69a0 adbc
000001d0: c2fe ffbd 8820 453d 62b6 82bb 2a46 9abd
000001e0: cd80 103e 3721 bb3d 0ca0 29bc 2ba8 a9bd
000001f0: 4283 0fbe 28ee ba3d dee1 be3d a18b 003e
00000200: 319b b0bd 4642 a9bd 5c09 b2bd d137 0f3e
00000210: 77bf b1bd 265e fabd 7679 d8bb 139a 1fbc
00000220: 4406 4d3d ff56 f63d f19c bf3d 98c3 f9bd
00000230: 2ff9 e9bd 0322 063e 9faa 083d 4781 f93d
00000240: fb3f 43bd 683f 773d 430f d9bd 4a88 23bb
00000250: f2ee 083e 8d15 263c fb6d 463d 5a20 573c
00000260: e8dc 0cbe 1c94 c2bc 8350 95bc d98a bc3d
00000270: 613c 853d 2d10 b2bd d762 b73d 8e01 133e
00000280: 16c2 d2bd 4676 00bd f99a bfbc 413a a33d
00000290: 93a1 ddbd 6c5b b73d fdeb ccbd 0885 9a3c
000002a0: b060 d93c 477c c5bc 43a9 8e3d 365b 0aba
000002b0: 2826 91bd 5039 173e 75b7 9cbd 1d0c 8b3c
000002c0: fc6f 7e3d 0345 3dbd b87a bdbd d6fa bf3d
000002d0: 3247 0b3e cc57 c9bd 0c4c 87bd 8537 c93c
000002e0: d1bc 6b3d 48e8 06bd af00 cd3d ac0b 0d3e
000002f0: f570 b33d 0c1a 08be d382 003e 08c8 c3bd
00000300: 6362 4d3c b623 363d f28c 4c3d ae60 b2bd
00000310: fedb 103d 4f35 e5bd 9272 53bd bbb0 133e
00000320: ee5c e43d 336a 1dbd 3338 fd3d 74d9 ac3c
00000330: d681 933d a464 aabc 9d6a 083e a31c dfbd
00000340: 61d0 5abd 1c6b 003e dce2 5ebd 41a1 9d3d
00000350: 74af 84bd 92ce dcbd 854f 05bd 1592 80bd
00000360: 3797 d0bd efdc 193e 497f 143d 9c0d d63d
00000370: 3abf 8a3d ce5f a43d c61f ad3d e824 b13c
00000380: d5e5 9b3d ee62 a63d 5bc4 3b3d a51c 9bbd
00000390: 16b5 a7bc 57e7 183e 767e dabd 4ee7 c1bd
000003a0: 2492 ccbd 63e2 793d d71c 6dbc b89c 053e
000003b0: fc9a 19bd c050 d1bd 8a01 8a3d 7330 893d
000003c0: 3156 66bd 1273 04be 22cf a7bd 0e00 fcb9
000003d0: 668a 783d 7f06 033e 1187 ba3d acff d5bd
000003e0: 3fec 0a3e 23e5 023e 4e3f 1a3e ed6f 843d
000003f0: f549 b23d 7051 183d a2f4 953d 3f22 ab3d

bias f4 [128]
0.004175115 0.0008641894 -0.0028036148 0.0027475606 0.001367452 0.0025504564 0.0027624564 -0.0013225714
-0.00051399024 -0.0074187885 0.0052099144 0.0033754485 -0.00037854363 0.00039830248 0.011909966 0.0029440213
0.0038391375 -0.0026047174 -0.0033277818 -0.0036621268 0.002184845 0.00162196 0.0017566681 0.0024556478
-0.0053714733 0.00044145412 -0.00036566393 -0.0035543577 0.004097296 0.0038859476 0.0020819774 -0.0032504646
-0.0010810719 0.0013439495 -0.0047117006 0.0013797937 0.001547376 0.0035203947 0.005952584 0.0073868297
0.0041950815 -0.0026473003 0.0037393277 -0.0019156236 0.002046751 0.0020225246 0.00356695 -0.0004414054
0.008582236 -0.0036824218 -0.0022235876 -0.0061230008 0.010844531 -0.0036598223 -0.00514173 -0.003133992
0.0026427042 -0.0035646958 0.00051196286 0.0032335485 -0.007623807 -0.008623074 0.004710847 0.0008332732
0.0028361818 -0.0015623193 -0.0003349569 0.0064170933 -0.0015647869 -0.0033529284 -0.0011457496 -0.0036727265
0.0054610027 -0.002503414 0.004964147 -0.0054325378 -0.0032460706 0.000120139404 0.004922401 -0.0019756611
-0.0018540948 0.0045780446 -0.004162122 0.009757256 0.007905522 -0.00039314252 -0.0049566356 -0.0025482264
0.0073287995 -0.002764893 0.0015180467 0.0096622165 0.0022407037 -0.00060054497 -0.0026049134 -0.001258175
0.0005583009 0.0042321035 0.0040390473 0.0021683672 0.003116277 -0.0047861487 0.0013301724 0.004807008
-0.0020159865 0.005117933 -0.0015456968 0.0014280074 -0.0036398054 -0.0020685075 -0.003802522 0.0024093243
0.0028503095 0.0024586504 0.0002230006 -0.0025701497 -0.007912353 -0.005854008 -0.0025288214 -0.0027633565
0.013242926 0.0046438444 -0.0023593237 -0.003973294 -0.0011957947 0.007204907 0.002384058 0.0023433382
00000000: 67cf 883b c58a 623a dabc 37bb 6b10 343b
00000010: 133c b33a 8f25 273b 540a 353b 225a adba
00000020: 4dbd 06ba 4f19 f3bb eeb7 aa3b a136 5d3b
00000030: 4477 c6b9 41d3 d039 0522 433c 7bf0 403b
00000040: 0a9a 7b3b e8b3 2abb ea16 5abb 4b00 70bb
00000050: 9e2f 0f3b f297 d43a 0040 e63a efee 203b
00000060: 2f03 b0bb f872 e739 95b6 bfb9 3af0 68bb
00000070: 9c42 863b 62ab 7e3b c971 083b bf05 55bb
00000080: c1b2 8dba 7627 b03a 9c64 9abb 32da b43a
00000090: 53d1 ca3a 6cb6 663b e50d c33b 380d f23b
000000a0: e576 893b 547e 2dbb 820f 753b a915 fbba
000000b0: c922 063b 558c 043b 7ec3 693b 6e6c e7b9
000000c0: 829c 0c3c c954 71bb 9cb9 11bb 74a3 c8bb
000000d0: 42ad 313c a1d9 6fbb f57b a8bb a963 4dbb
000000e0: 3831 2d3b ac9d 69bb 3f35 063a f1e9 533b
000000f0: 21d1 f9bb cb47 0dbc 735d 9a3b 0570 5a3a
00000100: 3cdf 393b bdc6 ccba 279d afb9 7b46 d23b
00000110: 8919 cdba cebc 5bbb fa2c 96ba 20b2 70bb
00000120: 36f2 b23b 5110 24bb 49aa a23b 6e03 b2bb
00000130: 07bc 54bb 5af3 fb38 184c a13b 187a 01bb
00000140: 1905 f3ba 6c03 963b 6962 88bb e6dc 1f3c
00000150: 2a86 013c b21e ceb9 466b a2bb 2500 27bb
00000160: 6d26 f03b 3533 35bb 32f9 c63a 464e 1e3c
00000170: c5d8 123b e46d 1dba 32b7 2abb 59e9 a4ba
00000180: f05a 123a 75ad 8a3b fc59 843b 2a1b 0e3b
00000190: 743a 4c3b 20d5 9cbb 2e59 ae3a 1b84 9d3b
000001a0: a41e 04bb 55b4 a73b fa98 caba fa2b bb3a
000001b0: cd89 6ebb cc8f 07bb bc33 79bb c1e5 1d3b
000001c0: 42cc 3a3b 4f21 213b 45d5 6939 f56f 28bb
000001d0: d0a2 01bc fad2 bfbb 95ba 25bb 6e19 35bb
000001e0: dcf8 583c 642b 983b e29e 1abb 6832 82bb
000001f0: 36bc 9cba 2417 ec3b db3d 1c3b b192 193b
