MHIM/pretrain/redial/10-epoch.pth (torch, 594328 bytes, 4 tensors)

weight f4 [8, 128, 128]
-0.031327818 0.16487415 0.1258726 -0.033602703 -0.16716737 -0.0003233803 0.08247822 0.09859346
0.0031300772 0.04949311 0.078245625 -0.123570845 0.065821834 0.10229969 0.09816569 0.026118344
0.055618424 0.09796048 0.03850635 -0.16349708 0.16820075 -0.12644991 0.13586123 -0.0015205883
-0.035050917 -0.12698606 -0.2177113 0.14019027 -0.12098461 -0.06931168 0.057009272 -0.04550962
0.09390072 -0.104950465 0.050108243 -0.12974498 -0.07756045 -0.16317885 0.072249666 0.04501752
0.016622914 0.14870799 0.13317089 0.05101785 -0.036416654 -0.19615494 0.08621587 0.027779398
0.124644086 0.14702441 -0.12790336 0.15295935 -0.11405787 0.062152702 -0.013666398 0.100335866
-0.04116048 -0.024665192 0.038234156 0.16175035 -0.016515655 0.15281902 -0.045152366 -0.014445474
0.15846488 0.17555138 0.07027712 0.060735192 -0.04714314 -0.1130202 0.08583346 0.08198533
0.003305972 -0.1980074 -0.15655577 -0.08477675 -0.048188217 0.04943865 -0.17584209 -0.030778756
0.1301043 0.14099634 0.112362586 -0.07963847 0.17877619 -0.036531057 -0.17890453 -0.13914348
0.007795823 -0.08207061 -0.123147964 -0.10894914 -0.03818412 -0.081538364 -0.015483468 -0.11661198
0.008043328 -0.13591522 0.18263191 0.20381857 0.11849674 0.15728351 -0.039630566 0.14161544
-0.042342216 -0.038693722 -0.057972804 0.14011618 0.025387514 -0.117688656 -0.08272285 0.17032686
0.10462896 0.046203174 -0.13335155 -0.19537584 -0.07995656 -0.17554216 0.13970147 -0.112662986
-0.06912726 -0.1815451 0.026827378 0.011959983 -0.03555228 -0.09590473 0.11025545 -0.042859223
0.10638011 0.09932174 -0.036214806 0.025003623 -0.15790246 0.1746484 0.065420456 0.020228755
-0.0031461024 -0.078768305 0.15609454 -0.09539803 0.083314106 0.113098085 0.01747617 -0.1494554
0.10684276 0.04180483 -0.06623637 -0.09071368 -0.00879632 -0.035740383 0.1439326 -0.11327694
0.12624788 -0.02764012 0.07159134 0.025174363 -0.037193988 0.01918525 0.0041409815 0.16249181
-0.16445999 -0.08901158 0.009714677 -0.01725277 0.1050112 0.092117995 -0.014182891 -0.0226492
-0.1277775 0.15713097 -0.020930206 0.110986464 -0.03862665 0.13318929 -0.13054517 -0.14000708
-0.07725406 0.02370591 -0.046273448 -0.14372173 0.08617553 -0.16926648 0.096505105 0.021401212
0.12216249 -0.13634354 -0.1632259 0.11228456 -0.123038985 0.014892227 0.09864519 -0.0031994144
0.07432063 -0.16759986 -0.120833255 0.1524283 -0.12997463 -0.00023705517 -0.028005492 0.07072378
0.10886772 -0.026251702 -0.026253602 -0.05007701 -0.12359313 -0.030889263 0.17165856 -0.1668231
-0.15112925 -0.124188066 -0.028148327 -0.07700709 0.030580156 -0.0044993265 -0.11675963 0.09078952
0.17708337 -0.04046245 -0.009670849 0.13706501 0.0004469522 -0.056294408 0.0274374 -0.07843398
-0.03896868 0.093232185 -0.10518403 -0.04899647 0.011216903 -0.13780677 -0.073489055 0.1062233
0.06155057 -0.19508396 -0.0319348 0.048141487 -0.07940907 0.16097842 -0.099218264 -0.14597942
0.030818505 -0.14163008 -0.094475284 0.1457041 0.074847125 -0.10631823 -0.047911853 0.0036036945
0.14835224 -0.10284276 0.03811369 0.17099 0.007129548 -0.117554225 -0.14079389 -0.07244737
00000000: 9951 00bd c5d4 283e bfe4 003e fda2 09bd
00000010: ec2d 2bbe 5f8b a9b9 57ea a83d 5eeb c93d
00000020: fb21 4d3b 4ab9 4a3d 3e3f a03d b612 fdbd
00000030: 99cd 863d 8082 d13d 180b c93d 23f6 d53c
00000040: 25d0 633d 819f c83d d6b8 1d3d c76b 27be
00000050: d13c 2c3e 167c 01be 351f 0b3e 7a4e c7ba
00000060: 8d91 0fbd a208 02be b6ef 5ebe 0a8e 0f3e
00000070: c7c6 f7bd 48f3 8dbd 8e82 693d 4c68 3abd
00000080: 054f c03d 45f0 d6bd 4d3e 4d3d dedb 04be
00000090: 03d8 9ebd 5b18 27be a2f7 933d 4b64 383d
000000a0: c72c 883c e846 183e f35d 083e 18f8 503d
000000b0: a129 15bd d7dc 48be f291 b03d 9f91 e33c
000000c0: 6645 ff3d 918d 163e 19f9 02be 60a1 1c3e
000000d0: 2c97 e9bd d593 7e3d 07e9 5fbc e47c cd3d
000000e0: e497 28bd a80e cabc 6b9b 1c3d e2a1 253e
000000f0: d74b 87bc 977c 1c3e b0f1 38bd b6ac 6cbc
00000100: 9e44 223e bec3 333e 73ed 8f3d 77c5 783d
00000110: 2a19 41bd 2277 e7bd 74c9 af3d ede7 a73d
00000120: 02a9 583b 74c2 4abe 2850 20be 6f9f adbd
00000130: 0261 45bd 2f80 4a3d f30f 34be bb23 fcbc
00000140: 103a 053e 5861 103e 5b1e e63d 7f19 a3bd
00000150: 1b11 373e 97a1 15bd c032 37be a17b 0ebe
00000160: 1a74 ff3b a314 a8bd 0035 fcbd ba20 dfbd
00000170: f466 1cbd 96fd a6bd 5fae 7dbc 43d2 eebd
00000180: 2ac8 033c 5c2d 0bbe dc03 3b3e d1b5 503e
00000190: 6bae f23d ee0e 213e a953 22bd a303 113e
000001a0: 086f 2dbd 4f7d 1ebd e474 6dbd 9e7a 0f3e
000001b0: 7af9 cf3c c006 f1bd 996a a9bd 2a6a 2e3e
000001c0: b547 d63d 8a3f 3d3d 4f8d 08be 9b10 48be
000001d0: 44c0 a3bd 53c1 33be e70d 0f3e dabb e6bd
000001e0: 9892 8dbd f5e6 39be 17c5 db3c cef3 433c
000001f0: 449f 11bd b369 c4bd 9ccd e13d 278d 2fbd
00000200: d1dd d93d 3269 cb3d fa55 14bd 66d4 cc3c
00000210: 2fb1 21be 08d7 323e 29fb 853d c6b6 a53c
00000220: d72e 4ebb 4751 a1bd 3fd7 1f3e 0b60 c3bd
00000230: 96a0 aa3d f89f e73d 2f2a 8f3c d60a 19be
00000240: 61d0 da3d 8b3b 2b3d efa6 87bd 18c8 b9bd
00000250: 711e 10bc 8264 12bd 1163 133e befd e7bd
00000260: 2047 013e 886d e2bc 7b9e 923d 773a ce3c
00000270: b958 18bd 632a 9d3c 12b1 873b 4164 263e
00000280: 3368 28be b44b b6bd 4f2a 1f3c ae55 8dbc
00000290: 1d10 d73d 5ca8 bc3d 5b5f 68bc d18a b9bc
000002a0: 1bd8 02be f1e6 203e d375 abbc df4c e33d
000002b0: fa36 1ebd c662 083e a2ad 05be 045e 0fbe
000002c0: 6037 9ebd e632 c23c 3a89 3dbd ca2b 13be
000002d0: cc7c b03d 3154 2dbe 78a4 c53d 9851 af3c
000002e0: 5430 fa3d a49d 0bbe b124 27be 73f5 e53d
000002f0: ddfb fbbd 87fe 733c 7d06 ca3d 44ad 51bb
00000300: 6a35 983d 4c9f 2bbe 6d77 f7bd 2a16 1c3e
00000310: 1218 05be 0392 78b9 c66b e5bc a1d7 903d
00000320: 0af6 de3d cf0d d7bc cb11 d7bc 8d1d 4dbd
00000330: 651e fdbd 7b0b fdbc 43c7 2f3e add3 2abe
00000340: a0c1 1abe 5056 febd 5297 e6bc e5b5 9dbd
00000350: 3c83 fa3c 166f 93bb ac1f efbd dbef b93d
00000360: 5855 353e f4bb 25bd 7b72 1ebc c55a 0c3e
00000370: e954 ea39 f794 66bd 66c4 e03c ffa1 a0bd
00000380: 9f9d 1fbd 84f0 be3d ba6a d7bd 86b0 48bd
00000390: 1ac7 373c 381d 0dbe 6e81 96bd 9a8b d93d
000003a0: 731c 7c3d 17c4 47be 11ce 02bd 0230 453d
000003b0: 39a1 a2bd 87d7 243e f232 cbbd a17b 15be
000003c0: 1777 fc3c 7a07 11be 427c c1bd 7533 153e
000003d0: 7349 993d 5fbd d9bd 383f 44bd f62b 6c3b
000003e0: a6e9 173e 3a9f d2bd 1a1d 1c3d 0118 2f3e
000003f0: fc9e e93b 45c0 f0bd 462c 10be 495f 94bd

comp f4 [39, 8]
-0.1346687 0.25686628 0.08134577 0.05140264 -0.08798758 -0.114325404 0.19823375 -0.21247615
0.3232051 -0.38616103 -0.37998566 -0.24265546 0.31585705 -0.25067413 -0.37727603 -0.3594255
-0.3154844 -0.35887423 0.008677558 0.14508674 -0.1798765 -0.079132855 -0.23043877 -0.16811958
-0.324938 0.27621022 0.23923145 -0.37175065 0.17155266 -0.45663667 0.23771635 -0.24397825
-0.28029627 -0.18694459 0.2920654 -0.08481304 0.31752208 -0.4094278 -0.14508526 0.39397174
0.33832073 -0.04507304 0.0257599 -0.42761287 0.15983778 0.008924778 0.48193243 0.24552597
-0.088661835 0.112890325 -0.30120736 -0.42872566 -0.016935386 -0.28831804 0.3334729 -0.2236154
-0.43919596 0.19525914 0.4200519 0.46955717 0.26045054 -0.021336764 -0.15294218 -0.0043110484
0.29606342 -0.18598796 -0.2682137 -0.2892329 0.17255989 0.10702368 -0.1466366 -0.0018205394
0.30730292 0.4160947 0.26090854 -0.12173576 -0.07035119 0.40428665 0.40495655 -0.27441472
-0.03746231 0.35728404 -0.019479482 0.4211424 -0.17890304 0.40796003 -0.53886443 -0.17767291
-0.18012607 0.258243 -0.3633483 0.47076184 0.18524078 -0.36896145 0.14939885 -0.0833904
0.21299306 0.01795666 0.06776688 0.38593528 0.3910716 -0.41685674 0.34992462 0.43996283
0.057591043 -0.41144332 -0.12155084 0.096766144 0.20343378 0.28835478 0.20067823 -0.43860558
0.2904294 -0.39544553 0.30871415 -0.39691186 0.3422805 0.27106583 0.54007906 -0.43628377
0.5120721 -0.28244665 -0.2548971 -0.20241578 0.53770435 -0.12023446 0.01752218 0.1833489
-0.5010458 0.008831928 0.01794466 -0.35938588 0.04517579 0.24862581 -0.3400209 0.12210712
-0.23860188 -0.312687 -0.07373256 -0.14991489 0.5799174 0.45791343 -0.30340126 -0.55203074
-0.040112477 0.46732658 0.283438 0.06290777 0.5143433 -0.15067524 0.07741611 -0.3356257
0.40537 0.072647035 0.40277788 -0.2194604 -0.38918436 0.08903364 -0.06244677 -0.26077154
0.21943972 -0.43795574 -0.010531225 -0.067250565 -0.085241996 0.13418587 0.15801167 0.07435243
-0.13957037 -0.20041826 -0.15526332 0.09147359 -0.45638984 0.56491274 0.46917224 -0.025254596
0.032267496 -0.20737793 -0.38767308 -0.048583098 -0.050606802 0.11956886 -0.22901723 0.4192572
-0.079348825 -0.2236056 -0.2551603 0.18356489 0.1498556 -0.2563971 0.15632468 0.02458156
-0.20547193 0.36331153 -0.39778674 0.1248448 0.3291454 0.0351189 -0.25916457 -0.31784013
-0.12322201 -0.025349548 0.06955542 0.08703225 -0.32013497 0.2842217 -0.35956994 0.11953861
-0.19584732 0.3058543 -0.23807637 -0.24654676 0.16315372 -0.33967212 0.3227707 0.24233362
0.20491086 0.23983812 0.10683269 0.24443877 -0.15059538 0.34001124 0.3244117 0.13946268
-0.39575458 -0.22226578 0.13526778 -0.4333309 -0.044498667 -0.3321873 -0.13972726 -0.07389338
0.2339306 0.21114233 0.025377745 -0.37369868 -0.3283257 -0.4239669 0.26583895 0.091168925
-0.4038377 -0.38883942 0.30475935 -0.092739984 0.018490192 -0.23333263 0.23996817 -0.044934303
-0.115392976 -0.3687041 -0.24353881 0.30260593 -0.035899036 -0.43923753 -0.39137718 0.14834821
00000000: 97e6 09be fa83 833e 9c98 a63d 938b 523d
00000010: d532 b4bd 7023 eabd cafd 4a3e 5993 59be
00000020: 247b a53e e6b6 c5be 7b8d c2be ac7a 78be
00000030: 04b8 a13e 5c58 80be 532a c1be 9e06 b8be
00000040: 2c87 a1be 5dbe b7be 512c 0e3c 9e91 143e
00000050: 8c31 38be 6810 a2bd 24f8 6bbe 8a27 2cbe
00000060: 465e a6be 6d6b 8d3e 17f9 743e 1a56 bebe
00000070: 80ab 2f3e 48cc e9be ea6b 733e 6fd5 79be
00000080: fe82 8fbe 676e 3fbe 9989 953e 76b2 adbd
00000090: 4192 a23e 85a0 d1be 3b91 14be aab6 c93e
000000a0: 6038 ad3e 829e 38bd 6d06 d33c 13f0 dabe
000000b0: 84ac 233e 3b39 123c d9bf f63e 296b 7b3e
000000c0: 5694 b5bd 0b33 e73d da37 9abe ee81 dbbe
000000d0: 14bc 8abc 6c9e 93be f6bc aa3e 6ffb 64be
000000e0: 4bde e0be 03f2 473e 0b11 d73e cc69 f03e
000000f0: c659 853e 70ca aebc e09c 1cbe b243 8dbb
00000100: a095 973e a173 3ebe 4e53 89be 5616 94be
00000110: 8ab3 303e 3b2f db3d e827 16be 2a9f eeba
00000120: cf56 9d3e 5d0a d53e ce95 853e 9950 f9bd
00000130: 4914 90bd a9fe ce3e 7756 cf3e 1680 8cbe
00000140: 1472 19bd efed b63e 6f93 9fbc fa9f d73e
00000150: 5c32 37be 23e0 d03e 05f3 09bf e3ef 35be
00000160: f872 38be 6d38 843e ca08 babe b207 f13e
00000170: c2af 3d3e 84e8 bcbe 03fc 183e 96c8 aabd
00000180: da1a 5a3e d819 933c 5dc9 8a3d 4f99 c53e
00000190: 893a c83e 3f6e d5be 5229 b33e cf42 e13e
000001a0: 96e4 6b3d b3a8 d2be a6ef f8bd 542d c63d
000001b0: f250 503e 3da3 933e 987e 4d3e e990 e0be
000001c0: 2ab3 943e d677 cabe c80f 9e3e 0838 cbbe
000001d0: 643f af3e 24c9 8a3e 9f42 0a3f 9660 dfbe
000001e0: 2817 033f d99c 90be df81 82be 1546 4fbe
000001f0: fea6 093f 7c3d f6bd ad8a 8f3c d0bf 3b3e
00000200: 8a44 00bf cab3 103c ae00 933c 6d01 b8be
00000210: 400a 393d c497 7e3e 3817 aebe 4c13 fa3d
00000220: 0d54 74be 8318 a0be 1901 97bd 4a83 19be
00000230: 7775 143f a173 ea3e 6957 9bbe e351 0dbf
00000240: fb4c 24bd 6e45 ef3e c91e 913e cad5 803d
00000250: 01ac 033f 9c4a 1abe 568c 9e3d 22d7 abbe
00000260: a88c cf3e f8c7 943d e738 ce3e 3aba 60be
00000270: 2c43 c7be 4557 b63d 2fc8 7fbd d983 85be
00000280: ceb4 603e bc3b e0be 298b 2cbc aaba 89bd
00000290: 5b93 aebd 0568 093e d0cd 213e 1646 983d
000002a0: 89eb 0ebe 723a 4dbe 59fd 1ebe 8156 bb3d
000002b0: eeab e9be 1f9e 103f 5837 f03e bae2 cebc
000002c0: ec2a 043d e15a 54be 167d c6be 12ff 46bd
000002d0: 1449 4fbd 85e0 f43d 7e83 6abe e1a8 d63e
000002e0: a381 a2bd def8 64be 5fa4 82be 6ff8 3b3e
000002f0: bf73 193e 7b46 83be 9413 203e 455f c93c
00000300: 3c67 52be f803 ba3e b4aa cbbe a1ae ff3d
00000310: bf85 a83e d6d8 0f3d 38b1 84be f1bb a2be
00000320: d25b fcbd dba9 cfbc 1273 8e3d f73d b23d
00000330: bbe8 a3be 8285 913e 8d19 b8be a9d0 f43d
00000340: 338c 48be ef98 9c3e 4bca 73be c176 7cbe
00000350: c511 273e 81e9 adbe 3442 a53e 4e26 783e
00000360: 27d4 513e 2098 753e 19cb da3d 284e 7a3e
00000370: ad35 1abe f415 ae3e 4a19 a63e 4ecf 0e3e
00000380: 58a0 cabe a499 63be a383 0a3e 8cdd ddbe
00000390: 3c44 36bd 7414 aabe aa14 0fbe 6a55 97bd
000003a0: 818b 6f3e b235 583e fde4 cf3c 6f55 bfbe
000003b0: 4e1a a8be 3112 d9be 0b1c 883e c6b6 ba3d
000003c0: d1c3 cebe f615 c7be 6b09 9c3e 76ee bdbd
000003d0: be78 973c c0ee 6ebe 37ba 753e 080d 38bd
000003e0: 2753 ecbd c9c6 bcbe 3d62 79be 2aef 9a3e
000003f0: de0a 13bd bee3 e0be 9762 c8be 98e8 173e

root f4 [128, 128]
-0.13929442 0.034353495 -0.079317875 0.08369289 -0.018870356 0.06831301 -0.038605727 0.07983084
-0.01145972 -0.021074468 0.07417763 0.0778032 -0.06877289 0.026510367 0.14382292 0.07656965
-0.11897684 0.11162005 0.02952842 0.06568785 -0.13996509 0.004734726 -0.1275264 0.042945243
-0.033420987 -0.06737871 -0.042098295 0.09027797 -0.02027698 -0.047377322 0.14606655 -0.13874671
-0.07502838 -0.022804882 -0.14789969 -0.08577018 0.1032843 -0.11616217 0.0104361 0.0675436
0.120517924 0.03385432 -0.07442063 0.017520348 -0.11999342 0.1366704 0.006925496 0.13074043
0.08755604 -0.09246535 -0.070361435 -0.10445287 0.1015578 0.14637166 0.0012140132 0.0792731
0.04266307 -0.1019884 -0.020268397 -0.07148148 0.12736508 0.13256924 0.031119289 0.015331396
-0.035839316 -0.06574953 0.17924103 -0.09828612 0.010004437 -0.05682313 0.019597763 -0.03660619
0.0899619 0.017461028 -0.05207746 -0.091594934 0.11953636 -0.0033581436 0.10060176 0.11043117
0.055563632 0.0441825 0.06402173 -0.13597222 -0.15218768 -0.119589075 0.1120616 0.03286688
-0.039996814 -0.06832365 -0.07842247 0.05608851 0.06307499 0.010460148 -0.062007654 0.14230014
0.11483818 -0.06857986 0.07835286 0.05088035 0.14527631 -0.14493953 0.010483037 -0.14774972
0.04961216 0.09737649 0.10336832 0.020476641 -0.09671794 0.0025983215 0.10157999 0.07914429
-0.15595548 0.005769742 0.005472344 -0.04149191 -0.11040462 0.031094411 -0.0037840134 -0.03924719
0.1412956 0.06859468 0.01559634 -0.060246266 -0.09867983 0.06099924 0.031447574 0.09727391
-0.09218929 -0.082820386 -0.079398766 0.13866681 -0.07759859 -0.12062171 -0.011130002 -0.00044197994
0.054638505 0.12267866 0.08879171 -0.11597625 -0.11174175 0.13521732 0.023062197 0.11317745
-0.048341338 0.06413481 -0.1053311 -0.0051560034 0.12809648 0.0072310464 0.047934905 0.008455853
-0.1324593 -0.027702864 -0.01702793 0.091891885 0.060435954 -0.081274256 0.08209867 0.1549265
-0.10536632 -0.032824833 -0.020125318 0.07406593 -0.107590415 0.08709839 -0.10606867 0.012128725
0.014818886 -0.021615297 0.062174577 0.0025376666 -0.07776579 0.14114435 -0.081054114 0.013504048
0.06446294 -0.042585254 -0.097599596 0.0868559 0.13892047 -0.09166057 -0.061375987 0.029201983
0.058172148 -0.029891945 0.10484429 0.13381805 0.08925954 -0.13327773 0.122402355 -0.09765468
0.004110156 0.052178264 0.056104098 -0.0956854 0.042616427 -0.108161345 -0.05373468 0.14358754
0.11555055 -0.030462256 0.113216065 0.026512884 0.077259354 -0.017492697 0.13321407 -0.10575149
-0.04572875 0.12137001 -0.049310658 0.06858202 -0.05947922 -0.10934842 -0.03779126 -0.051980447
-0.09844767 0.15188797 0.030923842 0.10511751 0.06583375 0.07985984 0.08965964 0.02944775
0.07960078 0.07238124 0.036153097 -0.079455055 -0.022677794 0.14846566 -0.10916376 -0.09421847
-0.0912716 0.058799755 -0.018625023 0.12842436 -0.032022025 -0.09413643 0.07026889 0.06343465
-0.061858255 -0.13168572 -0.08581977 0.0029143952 0.062617235 0.12912089 0.09264136 -0.105138436
0.13863981 0.11873743 0.14386143 0.06366792 0.09005058 0.030528415 0.07455956 0.078183636
00000000: 32a3 0ebe 40b6 0c3d 6971 a2bd 2e67 ab3d
00000010: 0196 9abc b1e7 8b3d 0a21 1ebd 5a7e a33d
00000020: 8dc1 3bbc 5da4 acbc 71ea 973d 4957 9f3d
00000030: cdd8 8cbd 452c d93c 5146 133e 8cd0 9c3d
00000040: 21aa f3bd 0e99 e43d 96e5 f13c 5a87 863d
00000050: 0253 0fbe c325 9b3b 4896 02be 5ae7 2f3d
00000060: 72e4 08bd d9fd 89bd 436f 2cbd a8e3 b83d
00000070: e91b a6bc b90e 42bd 7892 153e 9e13 0ebe
00000080: 7ba8 99bd 4ed1 babc 0473 17be 47a8 afbd
00000090: b886 d33d 6fe6 edbd 2dfc 2a3c 4d54 8a3d
000000a0: 1ad2 f63d d4aa 0a3d d869 98bd d586 8f3c
000000b0: 1cbf f5bd 53f3 0b3e 45ef e23b d2e0 053e
000000c0: 9550 b33d 795e bdbd a819 90bd 63eb d5bd
000000d0: 89fd cf3d 74e2 153e 861f 9f3a ef59 a23d
000000e0: 79bf 2e3d 4bdf d0bd e909 a6bc e264 92bd
000000f0: fe6b 023e 3bc0 073e e1ed fe3c 8930 7b3c
00000100: 3fcc 12bd b1a7 86bd f68a 373e 3c4a c9bd
00000110: a6e9 233c 5fbf 68bd 7d8b a03c 5ff0 15bd
00000120: f23d b83d 6e0a 8f3c 2d4f 55bd 2096 bbbd
00000130: 7bcf f43d 4d14 5cbb 4c08 ce3d bd29 e23d
00000140: b196 633d b6f8 343d d31d 833d 4d3c 0bbe
00000150: 16d7 1bbe 1eeb f4bd 8d80 e53d 6c9f 063d
00000160: b3d3 23bd 45ed 8bbd f69b a0bd 11bd 653d
00000170: 762d 813d 0a61 2b3c bdfb 7dbd 21b7 113e
00000180: 4830 eb3d 9973 8cbd 7777 a03d ea67 503d
00000190: 50c3 143e 076b 14be 0bc1 2b3c b44b 17be
000001a0: 1f36 4b3d 536d c73d c5b2 d33d a1be a73c
000001b0: 0e14 c6bd 9a48 2a3b 2b09 d03d 6716 a23d
000001c0: cbb2 1fbe 1b10 bd3b 5951 b33b 6cf3 29bd
000001d0: d11b e2bd b5b9 fe3c 36fd 77bb a9c1 20bd
000001e0: cbaf 103e 5e7b 8c3d cb87 7f3c cac4 76bd
000001f0: a718 cabd 57da 793d 2ccf 003d 8b37 c73d
00000200: bdcd bcbd bc9d a9bd d29b a2bd acfe 0d3e
00000210: 02ec 9ebd 8408 f7bd 9d5a 36bc 8bb9 e7b9
00000220: a0cc 5f3d f33e fb3d 6ed8 b53d f584 edbd
00000230: dcd8 e4bd 6976 0a3e efec bc3c 94c9 e73d
00000240: 9101 46bd 1c59 833d d5b7 d7bd b1f3 a8bb
00000250: b92b 033e 6af2 ec3b 6457 443d 6b8a 0a3c
00000260: 69a3 07be 1ef1 e2bc 287e 8bbc d031 bc3d
00000270: b18b 773d 1e73 a6bd 5923 a83d 0da5 1e3e
00000280: 4cca d7bd 5573 06bd dadd a4bc e1af 973d
00000290: 5d58 dcbd a460 b23d 883a d9bd 8fb7 463c
000002a0: eaca 723c 9012 b1bc c5aa 7e3d fb4e 263b
000002b0: ac43 9fbd 2588 103e b3ff a5bd 1540 5d3c
000002c0: 2505 843d e06d 2ebd 4ce2 c7bd 82e1 b13d
000002d0: 2b41 0e3e 89b8 bbbd 6365 7bbd ff38 ef3c
000002e0: eb45 6e3d f4df f4bc 9ab8 d63d 9907 093e
000002f0: b5cd b63d f579 08be 16ae fa3d 2dff c7bd
00000300: 7dae 863b e0b8 553d 69cd 653d b5f6 c3bd
00000310: 908e 2e3d b283 ddbd e518 5cbd 9d08 133e
00000320: c4a5 ec3d fb8b f9bc d3dd e73d 8c31 d93c
00000330: 273a 9e3d d84c 8fbc 4569 083e 3d94 d8bd
00000340: 124e 3bbd d790 f83d f9f9 49bd bb74 8c3d
00000350: 7ca0 73bd 10f2 dfbd 02cb 1abd 73e9 54bd
00000360: ef9e c9bd 8588 1b3e ff53 fd3c d947 d73d
00000370: d8d3 863d 8e8d a33d 799f b73d 683c f13c
00000380: bc05 a33d 9e3c 943d 4515 143d 55b9 a2bd
00000390: c8c6 b9bc 6207 183e 4091 dfbd 9df5 c0bd
000003a0: 9bec babd 03d8 703d 8193 98bc ad81 033e
000003b0: 8729 03bd 9aca c0bd 23e9 8f3d 07ea 813d
000003c0: 155f 7dbd 9fd8 06be 47c2 afbd 70ff 3e3b
000003d0: 773d 803d 4438 043e c1ba bd3d d252 d7bd
000003e0: 98f7 0d3e 9c2c f33d 6950 133e 5464 823d
000003f0: 706c b83d ba16 fa3c afb2 983d be1e a03d

bias f4 [128]
0.0007146092 -4.6358473e-05 -0.00045454374 0.0028003787 -0.00031008307 -0.0015574783 0.00095834 -0.009315841
-0.0066061406 0.0010274485 0.007962332 -4.937106e-05 -0.0035688502 -0.0032986098 0.015751522 0.0077714887
0.004361532 -0.0020547786 -0.0027440817 -5.5756882e-05 0.0025534856 0.00019456467 0.0013483247 0.0019509915
-0.011450446 3.953963e-05 -0.0005965862 -0.00480683 0.010123847 0.0051774504 0.005219783 -0.008588949
0.00025042947 0.00789193 -0.00739945 -0.0013153123 -0.0002960134 0.003103106 0.005257874 0.010956364
0.004440299 -0.0034604375 0.005199047 -0.0037253231 0.0031707115 -0.0013699648 0.00075293775 0.0036176147
0.004929161 0.0006362018 -0.00285048 0.0029181642 -0.00025439492 -0.008380296 -0.004157919 -0.00818455
0.0022484744 -0.0046038497 -0.007385755 0.0083892 -0.006522879 -0.0024218333 0.006077144 -0.0024408696
0.0085303625 -0.0016765634 -0.0044141957 0.013077435 0.0013388674 -0.0029081756 0.0029142785 0.00140269
0.001905249 -0.0094672255 0.005490004 -0.0081079565 -0.0072376686 0.0006346752 0.006473031 0.00052291795
-0.008927821 0.0063703125 -0.0038368988 0.011934093 0.0069314977 0.0077564833 -0.0017684654 -0.010630679
-0.0037100138 4.6891582e-05 0.00075267337 0.0026369293 0.0011700449 0.003688737 -0.0041709235 -0.0013191414
0.005674301 0.0054036886 0.003160499 -0.0026911707 0.00080115884 -0.005201308 0.004666574 0.003116615
-0.0026033781 0.0029146136 -0.0035686244 -0.00092357735 -0.0041583194 -0.0049333484 -0.0048361802 0.000634339
0.0062768785 -0.00033294802 0.004872487 5.951376e-05 -0.0068186806 -0.0014903714 0.004885174 0.0037020666
-0.0015349562 0.0141016515 -0.004021178 -0.0020165918 -0.00065696816 0.0077505764 0.001038001 0.005259738
00000000: 9d54 3b3a 0871 42b8 d44f eeb9 8f86 373b
00000010: a592 a2b9 4d24 ccba 1c39 7b3a 78a1 18bc
00000020: 5378 d8bb 73ab 863a 7174 023c c613 4fb8
00000030: 5fe3 69bb 7d2d 58bb 5609 813c f9a7 fe3b
00000040: 2feb 8e3b 77a9 06bb 0dd6 33bb 7fdc 69b8
00000050: 6158 273b 0e04 4c39 45ba b03a 69b8 ff3a
00000060: a79a 3bbc 5bd7 2538 3964 1cba 9d82 9dbb
00000070: 7ede 253c 9aa7 a93b b70a ab3b aab8 0cbc
00000080: 134c 8339 274d 013c 1677 f2bb 8f66 acba
00000090: 3f32 9bb9 7b5d 4b3b 3e4a ac3b 5282 333c
000000a0: ed7f 913b 82c8 62bb c45c aa3b 8d24 74bb
000000b0: b6cb 4f3b 6490 b3ba cc60 453a 8115 6d3b
000000c0: cd84 a13b c8c6 263a 1ecf 3abb ac3e 3f3b
000000d0: 4f60 85b9 824d 09bc 273f 88bb 7e18 06bc
000000e0: 245b 133b e4db 96bb 3404 f2bb db72 093c
000000f0: e0bd d5bb 9fb7 1ebb c722 c73b fff6 1fbb
00000100: efc2 0b3c 22c0 dbba f5a4 90bb bd42 563c
00000110: ef7c af3a 1797 3ebb 7bfd 3e3b 77da b73a
00000120: 8cb9 f93a 6c1c 1bbc 7ee5 b33b 3cd7 04bc
00000130: f729 edbb 5560 263a b81b d43b 6e14 093a
00000140: ff45 12bc 0ebe d03b 7b74 7bbb 3787 433c
00000150: 9e21 e33b 192a fe3b dacb e7ba 4d2c 2ebc
00000160: b423 73bb 74ad 4438 0e4f 453a 55d0 2c3b
00000170: 315c 993a bdbe 713b 3eac 88bb 0ae7 acba
00000180: 7def b93b 6d11 b13b 6020 4f3b 5a5e 30bb
00000190: dc04 523a bc6f aabb 0fea 983b 1f40 4c3b
000001a0: 709d 2abb 1a03 3f3b 95df 69bb 3a1c 72ba
000001b0: 8342 88bb eda7 a1bb d278 9ebb c549 263a
000001c0: 46ae cd3b 878f aeb9 62a9 9f3b 6a9e 7938
000001d0: 3d6f dfbb 9158 c3ba cf13 a03b 5f9e 723b
000001e0: 9530 c9ba 9d0a 673c 16c4 83bb cc28 04bb
000001f0: 6338 2cba 8cf8 fd3b 890d 883a e159 ac3b
