MHIM/pretrain/redial/4-epoch.pth (torch, 594192 bytes, 4 tensors)

weight f4 [8, 128, 128]
0	0xbd0510e4	-0.03248681
1	0x3e2f0f3f	0.1709566
2	0x3ddf6d5b	0.1090953
3	0xbcc639b6	-0.02419744
4	0xbe34e993	-0.17667226
5	0xbbe4d275	-0.0069830962
6	0x3d9ac07a	0.07556243
7	0x3db1c5ae	0.086802825
8	0xbb610b29	-0.0034338927
9	0x3d661461	0.05617178
10	0x3d58b648	0.052908212
11	0xbdf66056	-0.12030093
12	0x3d597449	0.053089414
13	0x3dca9268	0.09891206
14	0x3dad82b8	0.08472198
15	0x3cfee069	0.031112866
16	0x3d6285f2	0.05530352
17	0x3dbaaf3a	0.09115453
18	0x3d085398	0.033282846
19	0xbe19a72a	-0.15005174
20	0x3e309d7a	0.17247573
21	0xbdf592bc	-0.11990878
22	0x3e0c48f9	0.13699712
23	0x3aed95be	0.0018126292
24	0xbbcae09c	-0.0061913263
25	0xbdf9fbf0	-0.122062564
26	0xbe5c56da	-0.21517506
27	0x3e1a1491	0.15046908
28	0xbdfc210a	-0.12310989
29	0xbd5427c0	-0.05179572
30	0x3d5a10ee	0.0532388
31	0xbd7b4b87	-0.061351325
32	0x3daa0a96	0.083028
33	0xbdd2e57f	-0.10297679
34	0x3ce1b6c0	0.027552962
35	0xbe012ebb	-0.12615483
36	0xbd93b56c	-0.07212338
37	0xbe2a3cf2	-0.16624811
38	0x3dae1ad3	0.0850121
39	0x3d40b9dd	0.047052253
40	0x3ba2281f	0.0049486305
41	0x3e0be76d	0.136625
42	0x3dfc929f	0.12332653
43	0x3d5c43ab	0.05377547
44	0xbd66d383	-0.056354057
45	0xbe45b7f9	-0.19308461
46	0x3da0b096	0.07846181
47	0x3cff4f57	0.031165762
48	0x3deada7a	0.11467452
49	0x3e1793c4	0.14802462
50	0xbe1cf1fd	-0.15326686
51	0x3e125d31	0.14293362
52	0xbdb91897	-0.09037893
53	0x3da7c82c	0.08192477
54	0x3b473f5c	0.0030402755
55	0x3da947cb	0.082656465
56	0xbcc2cb73	-0.023778653
57	0x3bf453c2	0.007456274
58	0x3d6a3ed7	0.057188835
59	0x3e1fb249	0.15595354
60	0xbcd4bcea	-0.025968987
61	0x3e244817	0.16043125
62	0xbc6827b9	-0.014169627
63	0x3b2ff9fa	0.0026851879
64	0x3e1287ee	0.14309666
65	0x3e38f79b	0.18063204
66	0x3d9b2284	0.07574943
67	0x3d947dac	0.072505325
68	0xbd72a40f	-0.05923849
69	0xbdc71d0f	-0.09722339
70	0x3d86aa5d	0.06575463
71	0x3d8158fe	0.06315802
72	0xbb138084	-0.0022507021
73	0xbe3ceb87	-0.18449222
74	0xbe149047	-0.14508162
75	0xbdc82f57	-0.09774654
76	0xbd0afb7f	-0.03393125
77	0x3cc52e09	0.024069803
78	0xbe3017f2	-0.17196634
79	0xbc7fce7f	-0.015613197
80	0x3e0acae9	0.13553967
81	0x3e128f43	0.14312463
82	0x3dd06b2c	0.101766914
83	0xbdc6f865	-0.09715346
84	0x3e284e23	0.16436057
85	0xbd3996b6	-0.045309745
86	0xbe448f33	-0.19195251
87	0xbdffb2f1	-0.12485302
88	0xbbbb4e76	-0.0057161404
89	0xbd77fe04	-0.060544983
90	0xbdf8ee31	-0.121548064
91	0xbe07f187	-0.13275729
92	0xbd36cd73	-0.044629525
93	0xbd49aacb	-0.049235146
94	0xbd46a2fd	-0.04849528
95	0xbe0f0e13	-0.13970213
96	0xbaa2ecb6	-0.0012430164
97	0xbe1b6b30	-0.15177608
98	0x3e3dd62b	0.1853873
99	0x3e6251e4	0.22101551
100	0x3de51033	0.111847304
101	0x3e280408	0.16407788
102	0xbce26b29	-0.027638989
103	0x3e0ac386	0.13551149
104	0xbd16bf5f	-0.0368036
105	0xbd191a36	-0.037378512
106	0xbdc123ba	-0.094306424
107	0x3e25fe50	0.16210294
108	0x3cf237b6	0.02956758
109	0xbe07554b	-0.1321613
110	0xbdb414f1	-0.08793057
111	0x3e1c4506	0.15260705
112	0x3daff550	0.085917115
113	0x3d718198	0.05896148
114	0xbe0d75d6	-0.13814482
115	0xbe4f4d03	-0.20244221
116	0xbdc03520	-0.09385133
117	0xbe3a4005	-0.18188484
118	0x3e07aea3	0.13250212
119	0xbdc48ffe	-0.09597777
120	0xbd2e3b4b	-0.042537015
121	0xbe3a452e	-0.18190452
122	0x3c811515	0.015757123
123	0x3ba2a2f9	0.0049632755
124	0xbcedb991	-0.029019149
125	0xbdc25d4f	-0.094904535
126	0x3dcbf0b2	0.09958018
127	0xbd3036e1	-0.043021087
128	0x3e002bb5	0.12516673
129	0x3de71bb1	0.112845786
130	0xbca4a736	-0.020099264
131	0x3d0a5008	0.03376773
132	0xbe0af098	-0.13568342
133	0x3e33559e	0.17513129
134	0x3d7a8da2	0.061170228
135	0x3d066ca9	0.03281847
136	0xbb686d4c	-0.0035465537
137	0xbd98e79e	-0.074660525
138	0x3e19da35	0.15024646
139	0xbdc8dd78	-0.09807867
140	0x3d8c03d1	0.068366654
141	0x3de301b8	0.11084312
142	0x3d11faa2	0.035639413
143	0xbe1d1e32	-0.1534355
144	0x3db4da67	0.088307194
145	0x3d4e0e50	0.05030662
146	0xbd43da88	-0.04781583
147	0xbda97ff5	-0.08276359
148	0xbd145832	-0.036216922
149	0xbd00d18a	-0.031449832
150	0x3df97a26	0.12181501
151	0xbddcdc02	-0.10784151
152	0x3e01bc9b	0.12669604
153	0xbc48b6cd	-0.012250614
154	0x3d722568	0.059117705
155	0x3c87144b	0.016489169
156	0xbd0fa318	-0.035067648
157	0x3c926b19	0.017873334
158	0xbaf7de96	-0.001891094
159	0x3e229482	0.15876964
160	0xbe278a2b	-0.163613
161	0xbde22b13	-0.11043372
162	0xbac0b7cf	-0.0014703217
163	0x3aa785aa	0.0012780924
164	0x3dba15fd	0.09086225
165	0x3dbc6d2e	0.09200512
166	0xbc8f4031	-0.017486664
167	0xbd0321a7	-0.032014515
168	0xbddf1ee2	-0.10894562
169	0x3e11dd84	0.14244658
170	0xbcbda8b3	-0.023151731
171	0x3ddb5cbd	0.10711048
172	0xbd0865e4	-0.033300295
173	0x3e1a607d	0.1507587
174	0xbdf25493	-0.118325375
175	0xbe102e4d	-0.14080162
176	0xbda1546d	-0.07877431
177	0x3c644442	0.01393229
178	0xbd429065	-0.047500987
179	0xbe2617dc	-0.16220039
180	0x3db7d64f	0.08976423
181	0xbe199e1b	-0.15001719
182	0x3daa4a14	0.083149105
183	0x3bda19ec	0.006655922
184	0x3dd880fa	0.10571475
185	0xbe055ac5	-0.13022907
186	0xbe26b64d	-0.1628048
187	0x3dea04ef	0.11426722
188	0xbe02830d	-0.12745304
189	0x3b4755e6	0.003041619
190	0x3dd6d27d	0.10489366
191	0xbb4fbc5e	-0.003169797
192	0x3da94fea	0.082671955
193	0xbe1e46c4	-0.15456682
194	0xbe00eae4	-0.12589604
195	0x3e07eae1	0.13273193
196	0xbdf83432	-0.121193305
197	0x3be8fa2e	0.007109902
198	0xbcf8da18	-0.030377433
199	0x3d98d159	0.07461805
200	0x3ddaa422	0.10675837
201	0xbd0aa1e1	-0.033845786
202	0xbcda3e00	-0.026640892
203	0xbd548299	-0.05188236
204	0xbde6cb98	-0.11269301
205	0xbce8f1b4	-0.028435566
206	0x3e1388d6	0.14407668
207	0xbe22d3ed	-0.15901156
208	0xbe1d5312	-0.1536372
209	0xbdeda5bb	-0.11603876
210	0xbcb270e7	-0.021782352
211	0xbd6d8670	-0.057989538
212	0x3d08aa5f	0.033365604
213	0x3bc827f5	0.006108279
214	0xbde434bf	-0.11142873
215	0x3d9ca6e5	0.0764902
216	0x3e3e903f	0.18609713
217	0xbd09c859	-0.033638332
218	0xbbe3f253	-0.0069563775
219	0x3e1d5f11	0.15368296
220	0x3c8a7f62	0.016906444
221	0xbd810210	-0.062992215
222	0x3cdf8a31	0.027287574
223	0xbd9be983	-0.07612898
224	0xbd03aa15	-0.032144625
225	0x3db94d89	0.09047992
226	0xbdcbce97	-0.09951513
227	0xbd4cea2c	-0.05002801
228	0x39270441	0.00015927946
229	0xbe0f5762	-0.13998178
230	0xbd91c5b0	-0.07117784
231	0x3dc2cdc0	0.095119
232	0x3d90b7f7	0.070663385
233	0xbe31c018	-0.17358434
234	0xbcee438c	-0.029084943
235	0x3d185954	0.037194565
236	0xbd6def03	-0.058089267
237	0x3e2ac371	0.16676117
238	0xbdc29846	-0.095017
239	0xbe0ec878	-0.1394366
240	0x3ca61194	0.020272054
241	0xbe1d71aa	-0.1537539
242	0xbddecba2	-0.108786836
243	0x3e05fbce	0.13084337
244	0x3da167ab	0.07881101
245	0xbddcd66c	-0.10783085
246	0xbd3c5d0f	-0.045987185
247	0x3c28b459	0.0102969045
248	0x3e130a7c	0.14359468
249	0xbddb93c5	-0.10721544
250	0x3d004889	0.031319175
251	0x3e319210	0.17340875
252	0x3c86859a	0.016421128
253	0xbde3dea8	-0.11126453
254	0xbe064db6	-0.13115582
255	0xbd684066	-0.05670204

comp f4 [39, 8]
0	0xbe02d75f	-0.1277747
1	0x3e857389	0.2606471
2	0x3d945032	0.072418585
3	0x3d38f7c0	0.045158148
4	0xbd932302	-0.071844116
5	0xbe061c7a	-0.130968
6	0x3e418edd	0.18902154
7	0xbe70d4e8	-0.23518717
8	0x3ea88171	0.32911256
9	0xbec5716f	-0.38563105
10	0xbec1c818	-0.37847972
11	0xbe75d652	-0.24007538
12	0x3ea5b8a8	0.32367444
13	0xbe81d0aa	-0.2535451
14	0xbec343cf	-0.3813767
15	0xbeba3104	-0.3636552
16	0xbeaaab60	-0.33333874
17	0xbebd48c3	-0.36969575
18	0x3c46b8ac	0.01212899
19	0x3e1b41b3	0.15161781
20	0xbe48376b	-0.1955239
21	0xbd8d84ac	-0.06910071
22	0xbe7515fd	-0.23934169
23	0xbe376a78	-0.17911708
24	0xbeaa4477	-0.3325536
25	0x3e96b468	0.29434514
26	0x3e8766f4	0.26445735
27	0xbec5cf14	-0.3863455
28	0x3e3ffc36	0.18748555
29	0xbef0b741	-0.47014812
30	0x3e83831a	0.2568596
31	0xbe7234bf	-0.23652934
32	0xbe8cd326	-0.27504843
33	0xbe3a80fc	-0.18213266
34	0x3e90b918	0.28266215
35	0xbda47bc7	-0.08031421
36	0x3e9e3406	0.30899066
37	0xbeccbe0a	-0.39988738
38	0xbe06757f	-0.13130759
39	0x3ec49532	0.38395077
40	0x3e920ef9	0.28527048
41	0xbd7e64fc	-0.062108025
42	0x3ce11273	0.027474618
43	0xbec8aba3	-0.39193448
44	0x3e26618e	0.16248152
45	0x3c8fdae7	0.017560435
46	0x3ed9864a	0.42485267
47	0x3e718401	0.23585512
48	0xbdbabcb9	-0.09118027
49	0x3da506fd	0.080579735
50	0xbe902dc7	-0.28159925
51	0xbec8ac1a	-0.39193803
52	0xbceb3530	-0.028711885
53	0xbe7c1468	-0.2461716
54	0x3e9eb11e	0.30994505
55	0xbe29f6ef	-0.16598104
56	0xbee251da	-0.44203073
57	0x3e511b4f	0.20420574
58	0x3ed813e9	0.4220269
59	0x3eec0a9a	0.46101838
60	0x3e762621	0.24037983
61	0xbcb770ce	-0.022392657
62	0xbe109733	-0.14120178
63	0x3c3e8d84	0.01163042
64	0x3e9e8a2b	0.3096479
65	0xbe5296a2	-0.20565274
66	0xbe8c2031	-0.2736831
67	0xbe9dc156	-0.30811566
68	0x3e2b8045	0.1674815
69	0x3e0a7b1a	0.13523522
70	0xbe1e85fd	-0.154808
71	0x3bc58d14	0.0060287807
72	0x3e94cf3e	0.29064363
73	0x3ecc5987	0.39912054
74	0x3e83e309	0.25759152
75	0xbdd990a2	-0.1062329
76	0xbda73820	-0.08165002
77	0x3ecaca03	0.39607248
78	0x3ecc4ab6	0.3990075
79	0xbe7ad820	-0.24496508
80	0xbd2e141f	-0.042499658
81	0x3e9afcac	0.30270898
82	0xbc95463c	-0.018221967
83	0x3ec2aace	0.3802094
84	0xbe37bb2d	-0.17942496
85	0x3ec534b5	0.38516775
86	0xbef69961	-0.48163894
87	0xbe30e50d	-0.17274876
88	0xbe215c9d	-0.15757985
89	0x3e74023e	0.2382898
90	0xbea241aa	-0.31690723
91	0x3ed1b2d4	0.40956748
92	0x3e387c2e	0.18016121
93	0xbea60d9c	-0.32432258
94	0x3e14b8b6	0.14523587
95	0xbd990776	-0.07472126
96	0x3e4c8740	0.19973469
97	0x3c9bd86b	0.019024095
98	0x3d8b819e	0.06811832
99	0x3ebdf3f7	0.37100193
100	0x3eb85b38	0.36007094
101	0xbecb2502	-0.39676672
102	0x3ea88d3d	0.32920256
103	0x3ed7a29c	0.4211625
104	0x3d8be9f9	0.06831736
105	0xbeba1524	-0.36344254
106	0xbddfc502	-0.10926248
107	0x3db16341	0.08661509
108	0x3e40c27b	0.18824188
109	0x3e7b3986	0.24533662
110	0x3e3cc1e3	0.18433337
111	0xbec56c94	-0.385594
112	0x3e937d79	0.28806666
113	0xbeb84352	-0.3598886
114	0x3e9727ce	0.29522556
115	0xbeca90e5	-0.3956367
116	0x3ea62b9f	0.32455155
117	0x3e8ec144	0.27881825
118	0x3efdd345	0.49575248
119	0xbed08bfd	-0.40731803
120	0x3ef51daf	0.4787421
121	0xbe76876f	-0.24075101
122	0xbe746307	-0.23865901
123	0xbe495f18	-0.19665182
124	0x3efb2b4b	0.49056467
125	0xbe051e4e	-0.12999842
126	0x3d18e6df	0.03732955
127	0x3e0b05cd	0.13576432
128	0xbef1e25e	-0.47243017
129	0x3bb5ad45	0.005544337
130	0x3cdffc5d	0.027342016
131	0xbeaec771	-0.34136537
132	0x3d093fb9	0.033508036
133	0x3e7cb434	0.24678117
134	0xbea8d2bd	-0.3297328
135	0x3dae53d6	0.08512084
136	0xbe52919c	-0.20563358
137	0xbe95f927	-0.2929165
138	0xbda65f98	-0.08123702
139	0xbe1f79c7	-0.15573798
140	0x3f0365df	0.5132732
141	0x3ece8f79	0.40343836
142	0xbe98825c	-0.29786956
143	0xbef56706	-0.47930163
144	0xbcbc35ea	-0.022974927
145	0x3ecd98d0	0.4015565
146	0x3e7e341a	0.24824563
147	0x3d865f49	0.06561143
148	0x3ee7d712	0.45281273
149	0xbe022b34	-0.12711793
150	0x3dbf86cb	0.093518816
151	0xbe8dd179	-0.27698877
152	0x3ec18285	0.3779489
153	0x3dbc1829	0.09184296
154	0x3ec1aec6	0.37828654
155	0xbe47fd90	-0.1953032
156	0xbebbf78b	-0.36712298
157	0x3dd3aad4	0.10335317
158	0xbd2ae619	-0.041723344
159	0xbe736b54	-0.23771411
160	0x3e3cc0ca	0.18432918
161	0xbec912eb	-0.39272246
162	0xbc25e6e9	-0.010125854
163	0xbd5b5552	-0.053548165
164	0xbd78c901	-0.060738567
165	0x3df34af5	0.11879531
166	0x3e232eb7	0.15935789
167	0x3d6e1dda	0.058133937
168	0xbdee432e	-0.11633907
169	0xbe399d0d	-0.18126316
170	0xbe2c0ad9	-0.16801013
171	0x3d870538	0.06592792
172	0xbecadcdd	-0.3962163
173	0x3f001075	0.5002511
174	0x3ecef0b2	0.4041801
175	0xbc9a77fd	-0.018856043
176	0x3d040e6a	0.03224031
177	0xbe5366b4	-0.20644647
178	0xbec29a0f	-0.38008162
179	0xbd4f72bf	-0.05064654
180	0xbd55343a	-0.05205176
181	0x3deaec62	0.11470868
182	0xbe63cd3b	-0.22246258
183	0x3ecf01f4	0.40431178
184	0xbdebbe9a	-0.11510964
185	0xbe7bf8f3	-0.24606685
186	0xbe8ad343	-0.27114305
187	0x3e527011	0.20550562
188	0x3e2f33d0	0.17109609
189	0xbe95439a	-0.29153138
190	0x3e33c129	0.17554154
191	0x3cbd8b10	0.0231376
192	0xbe4a3e22	-0.19750264
193	0x3eaeebd5	0.341643
194	0xbec13ee4	-0.37743294
195	0x3e11b17e	0.14227864
196	0x3ea5e644	0.3240224
197	0x3d43133c	0.047625765
198	0xbe81a333	-0.25319824
199	0xbea228c7	-0.31671736
200	0xbdf8eddb	-0.12154742
201	0xbcc836eb	-0.02444025
202	0x3d990c9c	0.07473108
203	0x3dbea84d	0.093094446
204	0xbeaac60f	-0.33354232
205	0x3e96ff28	0.29491544
206	0xbeb5b88a	-0.35492355
207	0x3e066f34	0.13128358
208	0xbe4febcb	-0.20304792
209	0x3e9fa0d6	0.31177396
210	0xbe6ff1f8	-0.23432148
211	0xbe7ac4ca	-0.24489132
212	0x3e2ab613	0.16671018
213	0xbeabce2c	-0.33555734
214	0x3eab1060	0.3341093
215	0x3e7e1621	0.24813129
216	0x3e5ddc19	0.21665992
217	0x3e5732ce	0.21015474
218	0x3dccc087	0.09997659
219	0x3e5f708a	0.21820274
220	0xbe3afbc6	-0.18260106
221	0x3eb459bb	0.3522471
222	0x3ead0ddf	0.33799645
223	0x3e0e6114	0.1390422
224	0xbeb144a7	-0.3462269
225	0xbe5f5c36	-0.2181252
226	0x3df83cc3	0.121209644
227	0xbece15a4	-0.40250885
228	0xbd28ab2e	-0.041178875
229	0xbea220ff	-0.316658
230	0xbe1988bc	-0.14993566
231	0xbd3156cf	-0.043295678
232	0x3e750a94	0.23929816
233	0x3e6ad1be	0.22931573
234	0x3ce51b39	0.027967082
235	0xbec30918	-0.38092875
236	0xbeaead5c	-0.34116638
237	0xbed15550	-0.408854
238	0x3e8871cc	0.2664932
239	0x3dab5ff0	0.08367908
240	0xbec44990	-0.38337374
241	0xbebf6b6c	-0.37386644
242	0x3e94d447	0.29068205
243	0xbdadb902	-0.08482553
244	0x3c97c38d	0.018525863
245	0xbe5c8980	-0.21536827
246	0x3e85681a	0.26055986
247	0xbcfe4dbb	-0.031042924
248	0xbdeca8f9	-0.115556665
249	0xbeb86d31	-0.36020806
250	0xbe81fe3a	-0.25389272
251	0x3e9c1e5e	0.30491918
252	0xbd1f208b	-0.038849395
253	0xbed2e58f	-0.41190764
254	0xbec7d8ea	-0.3903268
255	0x3e1def24	0.15423256

root f4 [128, 128]
0	0xbe156b29	-0.1459166
1	0x3d44e7bd	0.048072565
2	0xbd784cc9	-0.060620103
3	0x3dc0b54e	0.09409581
4	0xbd103bea	-0.03521339
5	0x3da25327	0.07926016
6	0xbcfb8cdd	-0.030706817
7	0x3d64b864	0.05583991
8	0xbd0f1fa5	-0.034942288
9	0xbd28d5b8	-0.041219443
10	0x3dd179ae	0.10228287
11	0x3d92ba1c	0.07164404
12	0xbd6a3d92	-0.057187624
13	0x3cf47471	0.02984068
14	0x3e0e0c51	0.13871886
15	0x3dcc29ee	0.09968935
16	0xbde8011b	-0.11328336
17	0x3ded171a	0.11576672
18	0x3cd07f88	0.025451437
19	0x3d46f977	0.048577752
20	0xbe0ea561	-0.13930275
21	0x3adccc04	0.0016845469
22	0xbe0d4282	-0.13794902
23	0x3d3e94c7	0.046528604
24	0xbcbf9a8a	-0.02338912
25	0xbd947fe0	-0.07250953
26	0xbd2d77c4	-0.042350546
27	0x3dd9704e	0.106171235
28	0xbd0216dd	-0.031760085
29	0xbcb97b70	-0.022641867
30	0x3dfff59a	0.12498017
31	0xbe032a01	-0.12808992
32	0xbdab2362	-0.08356358
33	0xbd14c0e5	-0.03631677
34	0xbe174b49	-0.14774813
35	0xbdc32aa5	-0.09529618
36	0x3ded29c8	0.11580235
37	0xbe01b097	-0.1266502
38	0x3c4058fa	0.011739964
39	0x3d867a1a	0.06566258
40	0x3e076908	0.1322366
41	0x3d3c2717	0.045935716
42	0xbda30351	-0.07959617
43	0x3cc3bc69	0.023893552
44	0xbe182f8d	-0.14861889
45	0x3e1abb19	0.15110435
46	0xba7ca3a8	-0.0009637424
47	0x3e106d48	0.14104187
48	0x3dac104d	0.084015466
49	0xbdb67717	-0.08909433
50	0xbd8dfb17	-0.06932657
51	0xbdb89fb0	-0.09014833
52	0x3dca6578	0.09882635
53	0x3e0cc500	0.13747025
54	0x3c949634	0.018138029
55	0x3de290bb	0.110627614
56	0x3c5f3dcf	0.013625576
57	0xbddcf93f	-0.107897274
58	0x3b4042ce	0.0029336694
59	0xbd8ae57e	-0.067820534
60	0x3dda69cb	0.1066471
61	0x3e0d1f19	0.13781394
62	0x3d28ea99	0.041239355
63	0x3caf1c92	0.021375928
64	0xbcefe8d1	-0.02928582
65	0xbd5cd1b3	-0.053910922
66	0x3e44bb75	0.19212134
67	0xbde28fde	-0.11062597
68	0xbc04dce7	-0.008109308
69	0xbd4a30f7	-0.049363103
70	0x3d13f1c0	0.036119223
71	0xbd1cc7e3	-0.038276564
72	0x3da60ee6	0.081083104
73	0x3ce1fa72	0.027585242
74	0xbd28e30c	-0.041232154
75	0xbdc0ad43	-0.09408047
76	0x3e09d3ff	0.13459776
77	0x3a9af9c5	0.0011823705
78	0x3dc64ed6	0.096830055
79	0x3de48738	0.111586034
80	0x3d8c0297	0.068364315
81	0x3d91abdc	0.07112858
82	0x3d916ebb	0.07101198
83	0xbe16726b	-0.14692084
84	0xbe2a0360	-0.1660285
85	0xbe076bb8	-0.13224685
86	0x3ddd8fc2	0.10818435
87	0x3d3c9200	0.046037674
88	0xbda03ab4	-0.07823697
89	0xbd97f19a	-0.07419129
90	0xbda2ff1b	-0.07958814
91	0x3d3d156d	0.04616301
92	0x3d7bb7f8	0.061454743
93	0xbc5a57c9	-0.013326594
94	0xbd6daff7	-0.05802914
95	0x3e1638aa	0.14670053
96	0x3dcee7fd	0.10102842
97	0xbdaacd1d	-0.083399035
98	0x3dbdc698	0.092663944
99	0x3d84e928	0.064897835
100	0x3e2167cc	0.15762252
101	0xbe1776a0	-0.14791346
102	0x3c95cfdf	0.018287597
103	0xbe17e5cd	-0.14833756
104	0x3d303133	0.04301567
105	0x3db7f024	0.0898135
106	0x3df88123	0.12134006
107	0x3d0e1519	0.03468809
108	0xbdd50382	-0.1040106
109	0x3ba83cd8	0.0051342063
110	0x3db6061b	0.08887883
111	0x3d9d63d5	0.07685057
112	0xbe1d2ff0	-0.15350318
113	0x3cc08517	0.023500962
114	0x3c0f4e7d	0.00874674
115	0xbd7c7a77	-0.06164023
116	0xbe1632bf	-0.14667796
117	0x3caff3e2	0.021478597
118	0x3b737c2c	0.003715287
119	0xbd7ed99a	-0.06221924
120	0x3e162ba5	0.14665087
121	0x3d91afc3	0.07113602
122	0x3ceb7fa2	0.028747384
123	0xbd84f144	-0.0649133
124	0xbdd7dc25	-0.10540036
125	0x3d905954	0.07048288
126	0x3d8aed0c	0.06783494
127	0x3dd695a6	0.10477762
128	0xbdb796c4	-0.08964303
129	0xbda8c659	-0.08240957
130	0xbda9ac8e	-0.08284865
131	0x3e1141bb	0.1418523
132	0xbda43acc	-0.08019027
133	0xbdf7bea4	-0.12096909
134	0xbc0666c6	-0.008203214
135	0xbb2da0b0	-0.0026493482
136	0x3d5b0fd8	0.053481907
137	0x3dfacff2	0.12246694
138	0x3db4d581	0.08829785
139	0xbdf43aab	-0.119252525
140	0xbde5fa2e	-0.112293586
141	0x3e092d3e	0.13396165
142	0x3cccd2dc	0.02500289
143	0x3df211a6	0.118197724
144	0xbd532a03	-0.051553737
145	0x3d7b4ea9	0.061354313
146	0xbdd6e73e	-0.10493325
147	0xbb75ec50	-0.0037524886
148	0x3e03863a	0.12844172
149	0x3c24baa5	0.010054265
150	0x3d42c6a0	0.047552705
151	0x3c2bf5ef	0.010495647
152	0xbe0a5a42	-0.13510993
153	0xbceb54f6	-0.028727036
154	0xbc875918	-0.016521975
155	0x3dbcb1ad	0.092135765
156	0x3d79f8c9	0.061028276
157	0xbda9668f	-0.082715146
158	0x3dad155d	0.0845134
159	0x3e1a6338	0.15076911
160	0xbdd35d94	-0.10320583
161	0xbd057e7f	-0.03259134
162	0xbca8af2e	-0.020591345
163	0x3d9b6706	0.075880095
164	0xbdd9321e	-0.10605262
165	0x3db30a84	0.0874224
166	0xbdd4d5d9	-0.10392351
167	0x3c60b561	0.013715119
168	0x3ca9f688	0.020747438
169	0xbcc4185c	-0.023937397
170	0x3d8965d1	0.06708873
171	0x3b7b6589	0.003836008
172	0xbd9b9735	-0.075972
173	0x3e12c360	0.14332342
174	0xbda1b61b	-0.07896062
175	0x3c788860	0.015169233
176	0x3d81c311	0.06336034
177	0xbd330a4a	-0.043710984
178	0xbdc154e3	-0.09440019
179	0x3dbb44b0	0.091439605
180	0x3e0e0350	0.13868451
181	0xbdc368dc	-0.09541485
182	0xbd80849e	-0.06275295
183	0x3cf43f2f	0.029815285
184	0x3d7456a9	0.059652958
185	0xbcf8e232	-0.030381296
186	0x3dd29353	0.10282006
187	0x3e0bb1f3	0.13642101
188	0x3dbb1cc4	0.09136346
189	0xbe08dae3	-0.13364749
190	0x3dff56d3	0.12467732
191	0xbdc6e384	-0.09711364
192	0x3bdbca1a	0.006707442
193	0x3d3ebc90	0.046566546
194	0x3d64c3e5	0.055850882
195	0xbdbc22f4	-0.09186354
196	0x3d1ddacc	0.03853874
197	0xbde09825	-0.10966519
198	0xbd5704e7	-0.05249491
199	0x3e128b83	0.14311032
200	0x3deef8fa	0.11668582
201	0xbd068e1f	-0.03285038
202	0x3df7d8b1	0.121018775
203	0x3ccb650b	0.024828454
204	0x3d9e0130	0.0771507
205	0xbcac8e4c	-0.021063946
206	0x3e095895	0.13412698
207	0xbdd7d26c	-0.10538182
208	0xbd4b2730	-0.04959792
209	0x3df82012	0.12115492
210	0xbd542153	-0.051789593
211	0x3d93cff3	0.072173975
212	0xbd805f33	-0.06268158
213	0xbdde0c29	-0.10842163
214	0xbd1cedf1	-0.038312856
215	0xbd60d257	-0.054888096
216	0xbdcceb6c	-0.10005841
217	0x3e1b83ba	0.15186968
218	0x3d1084c1	0.035282854
219	0x3dd66c58	0.10469884
220	0x3d86a90c	0.06575212
221	0x3da33774	0.07969561
222	0x3db8403b	0.08996626
223	0x3cdd232a	0.026994307
224	0x3d9fb789	0.077986784
225	0x3d9f438a	0.07776554
226	0x3d14ec58	0.036358207
227	0xbda0c0d6	-0.078492805
228	0xbcc10f24	-0.02356679
229	0x3e162006	0.14660653
230	0xbddba737	-0.10725253
231	0xbdbee619	-0.093212314
232	0xbdbdb2d3	-0.09262624
233	0x3d80aa1b	0.06282445
234	0xbc745fb3	-0.014915395
235	0x3e057ec7	0.13036643
236	0xbd059dd2	-0.032621212
237	0xbdc5ea2f	-0.096638076
238	0x3d8eb3f6	0.069679186
239	0x3d85be40	0.06530428
240	0xbd7f1bfe	-0.062282555
241	0xbe0591d9	-0.13043918
242	0xbdb16a96	-0.08662908
243	0xba4aa47c	-0.00077301986
244	0x3d7dd54e	0.061971
245	0x3e0253b3	0.12727241
246	0x3dc03b29	0.09386284
247	0xbdd844a0	-0.10559964
248	0x3e0d85cd	0.13820572
249	0x3dfd945a	0.123818114
250	0x3e16331f	0.14667939
251	0x3d808a94	0.06276432
252	0x3db81b8a	0.08989628
253	0x3d0c147c	0.034199223
254	0x3d99a328	0.07501823
255	0x3da34a01	0.079730995

bias f4 [128]
0	0x3b24e927	0.0025163384
1	0xb9f9f157	-0.00047672793
2	0xba741c36	-0.0009312065
3	0x3b8c2d7f	0.0042778845
4	0xbb203c1a	-0.0024449886
5	0xbb042ae8	-0.0020167176
6	0xba23b85c	-0.0006245428
7	0xbc0071cb	-0.00783963
8	0xbb8aa180	-0.004230678
9	0x39d260c3	0.00040126414
10	0x3c061906	0.008184677
11	0xba82273a	-0.0009929903
12	0xbb735b8f	-0.003713343
13	0xbba36a72	-0.0049870545
14	0x3c8d5768	0.017253593
15	0x3bd8ca3f	0.0066159065
16	0x3b997360	0.004682943
17	0xba9eae54	-0.0012106397
18	0xbb872a75	-0.0041249343
19	0xba34f078	-0.0006902288
20	0x3a83f7ce	0.0010068358
21	0xbaeac6d5	-0.001791204
22	0x3a4dccdc	0.0007850656
23	0x3b0a64d2	0.0021117222
24	0xbc416521	-0.011803896
25	0x39d8dc56	0.00041362894
26	0xb8835ac9	-6.263477e-05
27	0xbb45dced	-0.0030191496
28	0x3c3f6678	0.011682145
29	0x3bdd2c7e	0.0067496886
30	0x3b9c2ca7	0.004766065
31	0xbbbbdea9	-0.0057333303
32	0xbb419406	-0.0029537692
33	0x3bac18aa	0.0052519636
34	0xbb93c19c	-0.004509164
35	0x386b16c2	5.604956e-05
36	0xbb73946b	-0.0037167321
37	0x3bec3a3b	0.00720909
38	0x3bc05465	0.0058694356
39	0x3c349a82	0.011023166
40	0x3ba9e08c	0.005184239
41	0xbafadfe5	-0.0019140212
42	0x3b882646	0.004154953
43	0xbb188f81	-0.0023278894
44	0x3b51f682	0.00320378
45	0x3a6f7682	0.00091347855
46	0x3b6a8cd3	0.0035789504
47	0x3ba1100b	0.0049152425
48	0x3bb0de6a	0.0053976076
49	0xba6c487d	-0.0009013487
50	0xbb2be7a0	-0.0026230589
51	0x3ae8f371	0.0017772747
52	0x3b0710da	0.002060941
53	0xbbe7826c	-0.007065108
54	0xbbb7ed0b	-0.0056129745
55	0xbc039110	-0.008030191
56	0x3a37910e	0.0007002511
57	0xbb8d09e3	-0.004304157
58	0xbbb85de8	-0.005626429
59	0x3beed062	0.0072880248
60	0xbbf83517	-0.007574688
61	0xbb0d4b64	-0.002155983
62	0x3b9be973	0.004758054
63	0xbaeadd5f	-0.0017918757
64	0x3c2a7c44	0.010405604
65	0xbadbeaaa	-0.0016778309
66	0xbbac47a0	-0.005257562
67	0x3c2f7c55	0.010710795
68	0x389d1460	7.4901385e-05
69	0xbb83d9e0	-0.0040237755
70	0x3987a0a4	0.00025868893
71	0x3b538199	0.003227329
72	0x3a3f92ce	0.00073079474
73	0xbc22907f	-0.009922146
74	0x3b9bebed	0.004758349
75	0xbc1c6ef4	-0.009547938
76	0xbbb8dfc1	-0.005641908
77	0x3baa9115	0.0052052834
78	0x3bd7d2b8	0.006586399
79	0x3a16e476	0.0005756089
80	0xbbf31056	-0.007417719
81	0x3b896ace	0.0041936403
82	0xbbae97b2	-0.005328142
83	0x3c4b019e	0.012390522
84	0x3be4c1e9	0.0069811237
85	0x3bb3573c	0.0054730456
86	0xba9ac9b1	-0.0011809376
87	0xbc19bbac	-0.009383123
88	0xbb036528	-0.0020049307
89	0x39bcab70	0.00035985885
90	0x3b25eadb	0.0025316987
91	0x3b0b4470	0.0021250509
92	0x3b0ea2ab	0.0021764438
93	0x3b771d64	0.0037706727
94	0xbb9d5bb5	-0.004802192
95	0x3ab1e978	0.0013573607
96	0x3bbf11c5	0.0058309757
97	0x3ba2e9b9	0.0049717096
98	0x3be92fd5	0.0071162977
99	0xbad42755	-0.0016186038
100	0xba172a90	-0.0005766535
101	0xbb9af26d	-0.0047286064
102	0x3b9e2486	0.0048261313
103	0x39fbf9f2	0.00048060674
104	0xbba714fd	-0.0050989375
105	0x3b3b6f10	0.0028600134
106	0xbb4311e5	-0.0029765305
107	0xbbca9dcc	-0.0061833616
108	0xbbc24810	-0.0059290007
109	0xbb7e214b	-0.0038777168
110	0xbb801249	-0.0039084298
111	0xba28711b	-0.00064255454
112	0x3bb46845	0.005505594
113	0x3a108cf9	0.00055141706
114	0x3bb494d6	0.0055109067
115	0xba3579e2	-0.0006922764
116	0xbc0844f5	-0.008317222
117	0xba75317d	-0.00093533826
118	0x38a27278	7.7460834e-05
119	0x3b62b6da	0.0034593851
120	0x3b499f7a	0.0030765221
121	0x3c70be98	0.014693879
122	0xbb75ad06	-0.0037487163
123	0xbb8c4941	-0.0042811935
124	0xbaee4194	-0.0018177503
125	0x3c0a84d0	0.0084545165
126	0x39d33f1f	0.00040292085
127	0x3bb88ac2	0.0056317756
