MHIM/pretrain/redial/5-epoch.pth (torch, 594192 bytes, 4 tensors)

weight f4 [8, 128, 128]
00000000: d783 17bd 541c 303e d23d fd3d bdb4 d2bc
00000010: 98c8 2abe 9d73 babb 0051 a83d aa0c 9f3d
00000020: 68e6 053a 3ba7 5e3d eef6 863d fc27 ffbd
00000030: cd94 6b3d 5a15 cb3d 8c27 af3d 0292 ae3c
00000040: a0c5 5d3d 7f01 ce3d 23eb 0f3d 57b5 23be
00000050: 022a 2d3e 3e6f fbbd 9e88 183e 1e7d 843c
00000060: 823d a3bc 81ea f7bd 8681 63be 2c37 153e
00000070: 8190 02be ee10 80bd fe7f 583d e7e0 62bd
00000080: ff94 a83d 2552 d6bd ef74 0f3d 1032 0fbe
00000090: 8209 93bd 28f7 2fbe a5cc a23d 52b1 303d
000000a0: d7ef 743c e166 0b3e 3097 013e 1bc4 763d
000000b0: e221 8cbd b253 4abe 4e2e 963d 806e 0a3d
000000c0: 6ebf e73d a573 113e 2158 0dbe fee7 0f3e
000000d0: a829 e7bd c2c5 993d 0689 3dba e282 b13d
000000e0: 0527 8cbc 6242 99bb 9a46 443d c229 283e
000000f0: fe49 a2bc c8a5 1e3e d9c0 05bd 3e7c 23bc
00000100: d7f1 193e 30ce 383e 9ab7 973d d509 913d
00000110: 2e73 79bd 0f49 d6bd 56a2 863d a77d 973d
00000120: 8a67 ecbb a799 40be 86b1 1cbe af2c bbbd
00000130: c85b 4cbd d050 213d 9442 3dbe 66ad 6ebc
00000140: 2413 113e 1b83 063e 9e07 de3d 1f37 bdbd
00000150: 4c2b 2e3e 4f2d 25bd b9fd 3abe 3fa6 06be
00000160: 37d0 94bb cd5d 8abd 41c9 0abe 7eb6 fabd
00000170: a509 5fbd 383a 80bd 0bcb 23bd d2c9 04be
00000180: c8fe 353b 45ab 15be 89f8 3c3e d422 5c3e
00000190: a096 e63d 5074 2a3e 7b00 8cbc 160e 0d3e
000001a0: 8642 29bd 3362 36bd 3ea0 b1bd cdf3 103e
000001b0: 886e fc3c 897d ffbd 946d afbd 5a07 253e
000001c0: ec1d c13d 1685 353d 77af 09be 3c6c 48be
000001d0: 4bb6 bdbd a9df 33be 94e3 123e 4fcc b3bd
000001e0: e8f6 2dbd b159 33be fa89 d03c fa3f 1e3c
000001f0: 9fbe 28bd 5a53 cbbd e348 cf3d 8c3b 3cbd
00000200: 7174 f33d 37bb d93d e727 f2bc fc3c 143d
00000210: dce2 11be df05 333e 1619 603d 030e f93c
00000220: f7fb 253b 4719 95bd f73c 203e 57c6 d6bd
00000230: 8ce5 983d d1c9 f53d c299 063d ed97 16be
00000240: 57fc c63d fae0 463d 519a 5abd 5db6 b9bd
00000250: 503a a9bc a79b 08bd 5b3b ff3d 3227 e6bd
00000260: cc1a f63d 2838 a0bc 5116 713d 0eef eb3c
00000270: fbbb 18bd 233e b93c 9509 d5bb b9b5 233e
00000280: 8603 2bbe 58a2 c6bd 12eb f43b da52 27bc
00000290: 9c77 c23d ce33 cd3d c253 98bc 282e 00bd
000002a0: 2c4b e9bd d1ae 143e 4a9a babc 03f4 e33d
000002b0: 8a30 dbbc 0402 0f3e 6b8c f2bd df8e 10be
000002c0: a072 9cbd 8e81 f13c 9c0b 61bd b400 1ebe
000002d0: 2798 ad3d 0331 29be dd09 b53d d646 363c
000002e0: af31 ce3d 37e0 08be d48c 27be a62b ea3d
000002f0: eb69 03be 9273 563c ed0b cc3d 8f7b a63b
00000300: c683 a03d 7cc8 27be a439 06be 6e2d 133e
00000310: abda e8bd e025 ea3b 9046 debc ae30 8f3d
00000320: 0e2d d43d 00a2 18bd 10a5 f7bc e896 48bd
00000330: bf75 edbd 0116 f5bc a27d 1a3e 1601 23be
00000340: 8d42 1ebe 4192 fcbd f927 e7bc b888 85bd
00000350: efb6 053d 7a35 323b 0faa e7bd 2956 ad3d
00000360: 467b 363e 0557 16bd 7bc8 e9bb c1a2 1e3e
00000370: 9547 1a3c 9429 85bd d157 d43c f159 93bd
00000380: e0f9 23bd 1044 c23d adc2 ccbd cead 51bd
00000390: fcfc 543c a6a9 0dbe 3829 8cbd 34cb c83d
000003a0: 8e65 763d 86c4 3cbe 6605 0ebd 998f 1a3d
000003b0: f793 89bd 123b 2f3e 0a86 ccbd 6137 0ebe
000003c0: dc1d c93c 4acb 11be 5bf4 d1bd 4e3e 113e
000003d0: eb4e 9f3d b239 efbd d9ca 58bd 7644 d43b
000003e0: 449e 163e 645a dcbd 28e1 1e3d e2a7 303e
000003f0: 5181 573c 2573 e8bd 239d 12be 926e 7bbd
-0.036990967 0.17198306 0.12365307 -0.025720948 -0.16678083 -0.0056900517 0.082185745 0.07766087
0.00051078806 0.054358702 0.06590067 -0.12458798 0.057514954 0.09916182 0.08552465 0.021309856
0.054143548 0.10058879 0.035136353 -0.15987144 0.16910556 -0.12277077 0.14895865 0.016172942
-0.01992679 -0.12105275 -0.22217378 0.14571828 -0.12750436 -0.06253229 0.052856438 -0.055390265
0.08231544 -0.104648866 0.035023626 -0.13983941 -0.07179548 -0.17184126 0.07949189 0.043137856
0.01494976 0.13613464 0.1265533 0.060245614 -0.068424 -0.1975849 0.07333051 0.033796787
0.11315809 0.14204271 -0.1380315 0.14053342 -0.11287242 0.075084224 -0.0007230196 0.08667542
-0.01710845 -0.004677103 0.047918893 0.1642218 -0.019810673 0.15492928 -0.032654617 -0.009978352
0.15033661 0.18047404 0.07408066 0.070819534 -0.06090086 -0.104631536 0.06573932 0.07397013
-0.0072144913 -0.18808614 -0.15302095 -0.09139382 -0.049892217 0.03938371 -0.18482429 -0.014567709
0.14167458 0.1313595 0.108412966 -0.09239029 0.17008704 -0.040326413 -0.1826085 -0.13149355
-0.0045414227 -0.06756172 -0.13553335 -0.12241839 -0.054452557 -0.06261104 -0.03998856 -0.12967613
0.002777027 -0.14616115 0.18454184 0.21497661 0.11259198 0.16645932 -0.017090073 0.13774905
-0.041323207 -0.044527244 -0.08673142 0.14155503 0.030814424 -0.12475116 -0.08565822 0.16116086
0.09429535 0.044316374 -0.13445841 -0.19572538 -0.09263285 -0.17565788 0.14344627 -0.08779203
-0.042471796 -0.17514683 0.025456417 0.009658808 -0.041197415 -0.099280074 0.10121324 -0.045955226
0.11887444 0.106314115 -0.029560043 0.03619097 -0.14246696 0.17482708 0.054711424 0.03040219
0.0025327185 -0.07280212 0.15648256 -0.10487049 0.074656576 0.12001384 0.03286148 -0.14706393
0.09716099 0.048554398 -0.053369824 -0.09067986 -0.020657688 -0.033351567 0.12462493 -0.11237945
0.1201683 -0.019558027 0.058859173 0.028800514 -0.037288647 0.022612637 -0.0065013864 0.1598729
-0.16700563 -0.09698933 0.0074743116 -0.010212624 0.0949547 0.100196466 -0.018594626 -0.031294018
-0.11391291 0.14519812 -0.022778649 0.11130526 -0.026756544 0.13965613 -0.11843189 -0.14117001
-0.076390505 0.029480722 -0.054942712 -0.15429956 0.084762864 -0.16522603 0.08839772 0.011125287
0.1006807 -0.13366781 -0.16362315 0.114341065 -0.12833373 0.013089078 0.09963212 0.0050806473
0.07837634 -0.16385072 -0.13107926 0.14372799 -0.113698326 0.0071456283 -0.027133256 0.06991707
0.10360156 -0.03726387 -0.030230075 -0.04897204 -0.11594724 -0.029917719 0.15086988 -0.15918383
-0.15455075 -0.12332583 -0.028217303 -0.06520218 0.032645162 0.002719252 -0.11311733 0.08463699
0.17820463 -0.036704082 -0.007134495 0.15491773 0.009416481 -0.06502071 0.02592078 -0.07194889
-0.04003322 0.09485638 -0.09998069 -0.051191144 0.012999769 -0.13834247 -0.06843799 0.09804383
0.060155444 -0.18434343 -0.034673117 0.0377346 -0.06717675 0.17112377 -0.099865034 -0.13888313
0.02455037 -0.14237705 -0.10251685 0.14183924 0.07778724 -0.116809264 -0.052927826 0.0064778877
0.14708811 -0.10759428 0.038788944 0.17251542 0.01315339 -0.11350087 -0.14317755 -0.061384745

comp f4 [39, 8]
00000000: 268f 04be fe61 843e e380 9e3d 9a8a 3d3d
00000010: e606 9dbd 9eaf ffbd 821f 433e 108d 68be
00000020: 3ace a73e 5937 c4be 6a89 c1be cffe 7cbe
00000030: 1972 a43e 5f23 82be 3148 c2be ac06 b9be
00000040: d02f a7be 8a7d babe 9851 6f3c d882 103e
00000050: 4e94 40be 4045 99bd 4a97 70be 6070 37be
00000060: 80bd acbe 7e66 973e 6ba6 853e 662f c2be
00000070: a9f7 403e 2a76 f1be 4c8e 813e 94e1 6ebe
00000080: fbd7 8abe 5410 38be 0c63 8e3e 2d6f afbd
00000090: d19e 9d3e b2ca cbbe cc21 0bbe 09bc c43e
000000a0: 9f56 993e 2d0b 54bd 8601 d93c f7c4 cfbe
000000b0: 1945 213e 9305 923c 0254 e43e 8e3a 753e
000000c0: 9476 c2bd e4c0 ba3d 7f54 96be 62ce d1be
000000d0: 4c0c bcbc 82e4 89be 4667 a23e 099a 42be
000000e0: fbea ddbe 8dd9 4a3e 2ed2 d83e 59dd ef3e
000000f0: 211c 7d3e bf1f 9abc 603b 16be 005f 393b
00000100: 0ac2 9a3e f316 46be 1816 87be 2680 9abe
00000110: 27e8 273e d0b3 fb3d 49b6 15be f80f a63b
00000120: 505d 943e 19aa cc3e 6c56 813e 17c3 e7bd
00000130: 54ce 9fbd cf53 cc3e 6bd7 cc3e 9dea 81be
00000140: 61a2 1dbd dbbc a63e ad8b 91bc 193f ce3e
00000150: 313b 39be cbbe cd3e 007f 00bf 71f2 37be
00000160: 8311 2fbe 448e 823e 7cf6 abbe b53c e03e
00000170: bbac 423e d2f0 afbe d6fc 1a3e 903f a1bd
00000180: c97a 5b3e 2036 863c 451f 803d f515 c13e
00000190: a7ca ba3e 5c49 cdbe b24d ac3e ee36 dc3e
000001a0: cefa 7e3d 2a6b c3be f13b eebd ce1d c23d
000001b0: 7031 453e 8216 863e 572b 433e cf40 d0be
000001c0: b406 933e 163a c0be 2114 9d3e 35bc cbbe
000001d0: 3b51 ae3e 7e38 933e 8c71 053f 6eef d7be
000001e0: 8da2 fb3e 1503 7dbe 0ea4 7dbe bac6 4cbe
000001f0: 9a96 033f cc70 0bbe 7c3e 153d 730d 1e3e
00000200: 4cda f1be 2dc5 8fb9 4d57 8b3c 313a b5be
00000210: 692b 163d 8a5e 7d3e 2c2d afbe 899e c63d
00000220: a9a4 5fbe 6d50 98be 7863 99bd c20d 18be
00000230: 4993 093f d6b1 d83e 6d97 98be 7814 01bf
00000240: e622 e2bc 283d db3e 9508 873e 530d 8d3d
00000250: 8755 f43e 7781 0fbe f2fb c13d 2aff 98be
00000260: 7333 cb3e 216a b83d 26bd c83e 60e4 56be
00000270: c606 c3be 7b04 d53d d75b 49bd 7908 84be
00000280: 2065 4a3e 96ed ccbe 9472 bfbb b167 61bd
00000290: ac82 93bd ed8c 023e e621 1e3e a772 813d
000002a0: a1a2 edbd 36f7 3bbe 56f1 1fbe a04d 9c3d
000002b0: 8fd6 d9be eab8 053f 60d1 d93e c325 bbbc
000002c0: fbf2 1a3d ab67 57be 9df4 c4be 4e43 3abd
000002d0: 1511 65bd 9593 003e 1f8b 68be 6f17 d23e
000002e0: 1c7a c8bd b138 77be 0006 88be 6a10 3e3e
000002f0: 229a 2a3e 6e75 90be 2f98 2b3e 2bf5 5a3c
00000300: 67c7 55be 15a1 b73e 14f6 c1be 976e 0d3e
00000310: 4238 a63e 7fe8 3a3d ac19 7abe 5bd0 9ebe
00000320: 1a5f 02be eb30 a5bc d536 a23d bce6 a63d
00000330: 21da a7be b946 963e 49cb b6be 933a 043e
00000340: 983b 52be d6cb 9a3e 648f 70be a7df 81be
00000350: c823 2b3e f50a acbe 4cea a53e 7694 7a3e
00000360: e8c8 643e 21ef 553e d5d5 c53d 245e 6d3e
00000370: dc88 35be 87d4 b13e 4b62 ab3e 1abf 0b3e
00000380: d4bd bcbe 7fd1 5cbe 5010 fd3d 70e9 d5be
00000390: 1f5f cabc f8c3 a7be 3afa 13be 6011 6abd
000003a0: 192f 6d3e e58f 623e 8b10 b63c 4865 c5be
000003b0: 1e12 b1be 8f6c d8be fade 8c3e e958 b83d
000003c0: 2715 c4be 37f0 bebe 293e 983e 9e63 b3bd
000003d0: 434a 473c 52c4 60be 1f29 813e 2310 1abd
000003e0: f84d f9bd 23d1 b9be 5bf3 7abe da34 a23e
000003f0: c407 1dbd 5b4b d9be aeea c8be 2c96 233e
-0.12945232 0.25856012 0.07739427 0.04627476 -0.076673314 -0.12484668 0.19054988 -0.22710061
0.32774526 -0.38323477 -0.3780015 -0.24706577 0.321183 -0.2541761 -0.37945703 -0.36137903
-0.32653666 -0.36423904 0.014606856 0.14112413 -0.18806574 -0.074839115 -0.23495212 -0.17913961
-0.33738327 0.29570383 0.2610353 -0.37926787 0.18844475 -0.47160465 0.25303876 -0.23328239
-0.27117905 -0.17974979 0.27809942 -0.08566127 0.3078523 -0.39803082 -0.13587111 0.3842471
0.299489 -0.05176847 0.026489984 -0.4057996 0.15749015 0.017824924 0.44595343 0.23948118
-0.09495273 0.09118822 -0.2936134 -0.4097777 -0.022955082 -0.2693215 0.31719416 -0.19004072
-0.43343338 0.19809552 0.42347854 0.46848562 0.24717762 -0.018813966 -0.14671087 0.0028285384
0.30226165 -0.19344692 -0.26384044 -0.30175894 0.16397153 0.12290156 -0.14620318 0.0050678216
0.28977442 0.39973524 0.25261247 -0.11316507 -0.07803026 0.3990769 0.400081 -0.25374308
-0.038484935 0.3256596 -0.017766798 0.40282515 -0.18088986 0.40184626 -0.50193787 -0.17963578
-0.17096524 0.25499165 -0.3358649 0.43796316 0.19011204 -0.3436342 0.15135512 -0.07873452
0.21433558 0.01638323 0.06255964 0.37712064 0.36482736 -0.4009503 0.33653027 0.43010658
0.062250905 -0.38167697 -0.11632527 0.09478341 0.1925714 0.26189047 0.19059502 -0.40674445
0.28716052 -0.37544316 0.3067942 -0.39792028 0.3404635 0.28754038 0.52126384 -0.42174858
0.49147454 -0.24708207 -0.24769613 -0.19997683 0.51401675 -0.13617247 0.036436543 0.15434818
-0.4723686 -0.00027421993 0.017009402 -0.3539596 0.036662493 0.24743095 -0.3421415 0.09698207
-0.21840157 -0.2974886 -0.07489675 -0.14848998 0.53740364 0.42323178 -0.2980303 -0.5042186
-0.027604531 0.42820096 0.26373735 0.06887307 0.47721502 -0.1401423 0.09471883 -0.29882175
0.3968769 0.090046175 0.3920681 -0.20985556 -0.38091105 0.10401245 -0.04915985 -0.25787714
0.19765139 -0.40025014 -0.005842516 -0.05503053 -0.07202658 0.12749071 0.15442619 0.06320696
-0.116032846 -0.18356022 -0.15619406 0.07631993 -0.42546508 0.5223528 0.42542553 -0.022845155
0.03782938 -0.2103564 -0.38467875 -0.045474343 -0.055924494 0.12556298 -0.2270932 0.41033503
-0.097889155 -0.2414272 -0.26567078 0.18560949 0.1666036 -0.28214592 0.16757272 0.013364117
-0.20876847 0.35865083 -0.37883055 0.13811718 0.32464796 0.04563188 -0.24423856 -0.31018338
-0.12731591 -0.020164927 0.07920615 0.08149478 -0.32783607 0.29350832 -0.3570197 0.1291297
-0.20530546 0.3023364 -0.23492199 -0.25365946 0.16712868 -0.3360211 0.32405317 0.24470696
0.22342265 0.20892002 0.09659926 0.23180443 -0.17727989 0.34732458 0.3347343 0.13647118
-0.36863577 -0.21564291 0.12356627 -0.4177966 -0.02470356 -0.327667 -0.14450923 -0.057145476
0.23162498 0.22125204 0.022224685 -0.38553834 -0.34584135 -0.42270324 0.27513868 0.09001333
-0.38297388 -0.37292644 0.29734924 -0.08759235 0.0121637015 -0.2194989 0.25226685 -0.037613045
-0.121730745 -0.3629237 -0.24506895 0.31680948 -0.038337484 -0.42440304 -0.39241546 0.15975255

root f4 [128, 128]
00000000: ba90 0cbe eb5c 2a3d 7752 8fbd be9e c13d
00000010: e0eb f1bc e07e 9e3d cb2b 01bd bdf2 733d
00000020: 6d83 c9bc fe7c 13bd 7aaa af3d 7846 a33d
00000030: 78c2 56bd ef0d e43c 19ff 0b3e a19c b23d
00000040: 9c5a e4bd 6584 e83d 5428 d43c e054 6b3d
00000050: 3971 06be 42da 5b3c d147 0abe 8973 1f3d
00000060: e0cd c4bc b157 71bd 15e3 2bbd 7abe c63d
00000070: 90cc 12bd 4e88 bebc 3507 fb3d a32e 02be
00000080: bb2e b3bd 0a6c c9bc 7a93 12be 4534 b3bd
00000090: f242 de3d 7dc2 f4bd 0eda 6b3c ec03 913d
000000a0: 63b4 003e 07af 593d d3d6 9ebd 6e7d 803c
000000b0: fad8 15be e2fd 1b3e 1028 073c 03a4 0e3e
000000c0: 9327 9b3d 22ef bfbd b1f8 9fbd b6fe bcbd
000000d0: 2808 b83d 48fa 1b3e 9735 3d3c eab6 d23d
000000e0: a42b df3c 16eb d7bd 737a 19bc 421c 76bd
000000f0: 8469 e93d ce09 073e 6ed6 213d afce 563c
00000100: 3e64 16bd 181a 5cbd eb3f 3b3e 3ec3 dabd
00000110: 55f2 0ebb 74c2 40bd 5dd6 003d 4f59 0ebd
00000120: b2e0 aa3d 048d 8c3c 5fa8 50bd 9aa4 cabd
00000130: 7a87 f83d 6b64 a4b9 5c22 d53d 2cc3 d83d
00000140: 5691 883d c961 693d c407 9c3d 11a3 15be
00000150: 1c44 2bbe 4ee3 07be 0ec8 eb3d f9f5 433d
00000160: bbe3 77bd fd76 82bd 0702 9ebd eeb2 613d
00000170: cda8 6d3d 6e4f fabb 7a3f 6dbd 7bb1 153e
00000180: 16df f13d d376 a7bd 9e59 bd3d 3122 7b3d
00000190: 06d7 1e3e 6020 14be 27f2 9f3c fcbf 19be
000001a0: 715a 403d 9b6e b23d fd21 e63d adeb ae3c
000001b0: dac3 c7bd e747 513c 66f1 c23d ce71 ae3d
000001c0: 8426 1cbe b4d6 373c 18d4 be3b a04c 5bbd
000001d0: 5744 03be 5294 f23c 846c 70ba b436 79bd
000001e0: 5f9a 1d3e 6737 8c3d c2d6 f43c efc0 89bd
000001f0: 4b56 c9bd 63b9 913d 4433 3d3d abc7 c93d
00000200: 8ff5 b8bd cac5 aabd 529a a5bd 6a2a 103e
00000210: 69e0 a2bd 3c62 f3bd 99e7 1cbc 66e6 08bb
00000220: 6d5c 653d c4dc f73d c871 b43d 4d83 f3bd
00000230: e3ac e5bd c36f 083e ef0c cd3c 3956 ee3d
00000240: 402f 4bbd f151 803d 51eb d6bd 1dba 91bb
00000250: f81b 043e 70aa 0c3c 03dd 3f3d be8e 373c
00000260: a1e4 08be 1f28 dabc 08c6 83bc cc9f bc3d
00000270: 508a 7a3d 77e2 a7bd 37ac aa3d 661d 1c3e
00000280: 7bab d2bd 889d 07bd f144 a4bc d780 9a3d
00000290: 2468 dcbd 61ac b33d a5ea d4bd 51dd 4f3c
000002a0: bebd 973c 5b6b c5bc 6f79 843d 1887 393b
000002b0: 9ae2 9ebd e32c 113e 0a7d a3bd 0408 763c
000002c0: 97c3 833d 2788 30bd e835 c6bd 661c b73d
000002d0: ed42 0f3e 9c1b c1bd 119f 79bd 81bc e93c
000002e0: 63a5 6f3d 5f9e f1bc 9bf4 d23d f6b5 0b3e
000002f0: a7df ba3d 4f67 08be 34ab fb3d 9c01 c7bd
00000300: 597c c73b edc7 403d 3ec5 683d cf4b c1bd
00000310: b62f 263d 0059 ddbd f13a 5abd 3318 123e
00000320: 16e6 ee3d 520d 06bd 5949 ef3d 9625 d63c
00000330: f71e 9f3d 3b95 a6bc 65f6 093e b4ba dabd
00000340: eb94 44bd fa62 f73d 6742 51bd 881b 913d
00000350: cb48 7cbd 98f1 debd d431 1dbd 7de0 5bbd
00000360: eaff ccbd b804 1b3e 31f2 0a3d 8652 d73d
00000370: de31 873d 9265 a53d ece8 b83d 9b06 e93c
00000380: cd51 a03d 42fe 9a3d 6a1a 173d 8a9b 9ebd
00000390: c110 bcbc e6ea 173e 1e4e dcbd 6cfa bcbd
000003a0: 14f9 bbbd 3bda 793d 6b0a 89bc 5846 043e
000003b0: a9f1 02bd 05b3 c9bd 8d6f 8e3d 9579 843d
000003c0: 0186 7cbd 3694 06be b9e0 b1bd c2c2 b23a
000003d0: adcb 7a3d f2ca 013e 0bc4 bc3d d037 d6bd
000003e0: 4d56 0e3e cf7e f83d e450 143e cf5b 7f3d
000003f0: b05c b83d 78e8 043d 88f5 983d d041 a43d
-0.13727084 0.04159252 -0.06998151 0.09454106 -0.02953142 0.07739043 -0.031535905 0.059557665
-0.024598802 -0.036007874 0.08577438 0.07972425 -0.052431554 0.027838675 0.13671531 0.08721281
-0.11150095 0.11353377 0.025898136 0.05745399 -0.13129129 0.013418736 -0.13503958 0.038928542
-0.02402395 -0.05892152 -0.04196461 0.09704299 -0.035839617 -0.023258355 0.12257234 -0.12713103
-0.087491475 -0.02458765 -0.1431407 -0.08750204 0.108526126 -0.11951158 0.01439525 0.07080826
0.12568812 0.053145435 -0.07755818 0.01568481 -0.14633551 0.15233567 0.008249298 0.13929753
0.075759076 -0.09371783 -0.07811106 -0.0922827 0.08985931 0.15232193 0.011548421 0.10288794
0.02724249 -0.10542886 -0.009367573 -0.060085543 0.11397079 0.13187334 0.039511137 0.013110801
-0.036716692 -0.053735822 0.18286102 -0.10681771 -0.0021811922 -0.047060445 0.031454433 -0.03475314
0.083436385 0.017157085 -0.05094182 -0.098946765 0.12135215 -0.00031355335 0.10406944 0.10584101
0.06668346 0.05697802 0.07618669 -0.14612986 -0.167252 -0.13270304 0.11512767 0.047842
-0.060519915 -0.063703515 -0.077152304 0.05510228 0.05802231 -0.0076388633 -0.057921864 0.14618485
0.118101284 -0.08176961 0.09245609 0.061311904 0.15511712 -0.14465475 0.019524647 -0.15014642
0.04696125 0.087125026 0.112369515 0.021352613 -0.097541526 0.0127734905 0.09518699 0.085178
-0.15249068 0.011220623 0.0058236234 -0.053539872 -0.12819038 0.02961174 -0.00091714435 -0.060843185
0.15390919 0.06846505 0.02988756 -0.06726252 -0.09830912 0.07115438 0.04619147 0.09852537
-0.090312116 -0.083385065 -0.08086075 0.1407868 -0.07952959 -0.11883971 -0.009576702 -0.0020889281
0.055996347 0.121026546 0.088107646 -0.11890278 -0.11214616 0.13323884 0.025030581 0.116375394
-0.049605608 0.06265629 -0.10494102 -0.0044472353 0.12901294 0.008585557 0.046841633 0.011203466
-0.13368465 -0.02663046 -0.01608564 0.09210166 0.06116706 -0.081974916 0.083336286 0.1524559
-0.102866136 -0.033109218 -0.020052405 0.075441055 -0.10762051 0.08773113 -0.103963174 0.012687043
0.018523093 -0.024099043 0.06468474 0.0028309282 -0.077580646 0.14177279 -0.07982834 0.0150165595
0.0643379 -0.043098595 -0.096782506 0.089409634 0.13990374 -0.09429094 -0.060942713 0.028532268
0.058507334 -0.029494463 0.10300561 0.13643631 0.091246895 -0.13320659 0.12288514 -0.09717104
0.0060878214 0.047065664 0.05682873 -0.094382875 0.040572844 -0.10807991 -0.053278867 0.14267044
0.11664979 -0.032727547 0.11683912 0.02614097 0.07769578 -0.02033483 0.13472898 -0.10680142
-0.04799358 0.12079425 -0.051088717 0.07085329 -0.06159286 -0.10885924 -0.038377598 -0.053680886
-0.10009749 0.15138519 0.033922378 0.10513787 0.06601308 0.080760136 0.09028801 0.028445533
0.07828102 0.07568027 0.036890425 -0.077445105 -0.022957208 0.148357 -0.10757087 -0.09227452
-0.09178367 0.060999136 -0.0167286 0.12917459 -0.031968746 -0.098485984 0.069548704 0.064685024
-0.061651234 -0.13142475 -0.086854406 0.0013638365 0.061229397 0.12675074 0.0921708 -0.10459864
0.13900109 0.12133562 0.14483982 0.062343415 0.09002054 0.032448262 0.07468706 0.08020365

bias f4 [128]
00000000: cc58 443b 2aa8 2239 b80a 2bbb 975a b93b
00000010: 1762 76ba 8d07 8aba 552c 9d3a 3aa3 00bc
00000020: b048 ebbb 5390 173b a75a 0b3c 9e9c c43a
00000030: 145b 54bb ba73 8ebb da3f 8f3c c265 f03b
00000040: e235 ad3b 1fb2 e1ba ef94 52bb 0695 fe3a
00000050: b2e4 c63a 4f8b 8c39 b1b9 393a 4421 d73a
00000060: 6281 3cbc f0a6 c039 f65f 3aba 67da 8dbb
00000070: 6390 4b3c 7759 bc3b ec16 9b3b 8495 dfbb
00000080: ab96 a4b9 2651 e53b cbdf c2bb 07c1 82ba
00000090: 8473 39bb b46e a73b 8758 883b cea1 233c
000000a0: ee21 8f3b ab7d 20bb 4d9d 843b d60a 43bb
000000b0: a887 8b3b 679c 973a a807 283b 9973 0e3b
000000c0: 6a9c 7c3b afc7 e0b9 bf0d 8abb 0429 373b
000000d0: 025c 013b 2a77 11bc 9a6a b4bb b031 0abc
000000e0: 1f84 1b3a dd22 b6bb 6849 dcbb b680 b83b
000000f0: 6fa8 c2bb fa31 27bb 540b ec3b 161b 17ba
00000100: 279d 2f3c 3fe1 01bb ae44 86bb 1849 3f3c
00000110: 4b2e 5339 7add 60bb 42f5 873b 5b0b 803b
00000120: b127 423a cc40 26bc 1483 cc3b a56a 26bc
00000130: f607 bdbb 2730 2e3b 2085 bf3b a61d 33bb
00000140: 5dc7 ffbb c16f ce3b 4035 cbbb fc9f 5b3c
00000150: 8171 da3b 966d ec3b 3b95 e9ba 0391 25bc
00000160: 73fe 44bb c96c 5339 09e7 fc3a 9c6f 453b
00000170: 4a31 fd3a 63db 903b bacb a8bb 8d79 ecba
00000180: 0da1 b93b 7e69 8a3b 3b37 8d3b 484d 61bb
00000190: b338 c0b9 ce15 9cbb f5b7 ba3b a124 fc39
000001a0: cfd5 8abb 1929 8d3b 9e91 26bb 69a4 17bb
000001b0: 6cbd aebb 838b 4abb 9127 9ebb 69b9 073a
000001c0: 45b3 e33b fdf0 183b 8e9d db3b cc88 9f3a
000001d0: 9e82 01bc ea0b 1f37 16b8 c83a 494a 613b
000001e0: d024 a23a 8763 633c 36b7 81bb 2e99 2cbb
000001f0: 0675 28bb 60ba 0d3c acc6 b03a e17f 943b
0.0029960154 0.0001551217 -0.0026098918 0.005656551 -0.0009398772 -0.0010530815 0.0011991361 -0.007851416
-0.007180296 0.0023126795 0.0085055 0.0015000289 -0.003240292 -0.004347292 0.017486501 0.007336349
0.0052859643 -0.0017219222 -0.0032132228 0.0019423075 0.0015174358 0.00026806674 0.000708486 0.0016413112
-0.011505457 0.00036745472 -0.0007109636 -0.004329014 0.012424561 0.0057479697 0.004732957 -0.0068232436
-0.00031392774 0.006998199 -0.0059470884 -0.000997574 -0.0028297612 0.0051096324 0.004160944 0.009987308
0.0043680584 -0.0024488966 0.004047072 -0.0029761097 0.004258115 0.0011566997 0.002563933 0.0021736382
0.0038545378 -0.00042873385 -0.0042130644 0.0027948031 0.0019738679 -0.008878509 -0.005505872 -0.008434698
0.00059324683 -0.0055583552 -0.006722618 0.005630578 -0.005940489 -0.0025511966 0.007203499 -0.0005764229
0.01071862 -0.0019818095 -0.0040975427 0.011675142 0.00020139774 -0.0034311698 0.00414911 0.0039076037
0.0007406427 -0.010147285 0.0062412117 -0.010157262 -0.0057687713 0.0026578994 0.005844727 -0.0027330904
-0.0078057484 0.006299943 -0.0062014163 0.0134048425 0.0066663628 0.007215212 -0.0017820963 -0.010105374
-0.003005889 0.00020163054 0.0019294928 0.0030126339 0.0019317057 0.004420684 -0.005151239 -0.0018041596
0.0056649507 0.0042240014 0.0043095625 -0.0034378339 -0.00036663338 -0.0047633415 0.005698199 0.00048092476
-0.0042369138 0.0043078777 -0.0025416384 -0.0023138768 -0.0053326394 -0.003090591 -0.004826494 0.00051774696
0.006948861 0.0023337 0.0067021316 0.0012171506 -0.007904677 9.4799125e-06 0.0015313651 0.0034376553
0.001237059 0.01387871 -0.003958608 -0.002633642 -0.0025704517 0.008650392 0.0013486943 0.004531846
