MHIM/pretrain/redial/6-epoch.pth (torch, 594192 bytes, 4 tensors)

weight f4 [8, 128, 128]
0	0xbcfb0367	-0.03064127
1	0x3e2daa8f	0.16959594
2	0x3e042f70	0.12908721
3	0xbd08184f	-0.033226307
4	0xbe24e311	-0.16102244
5	0xbb8facb0	-0.0043845996
6	0x3da41f56	0.08013789
7	0x3dbadc9e	0.09124111
8	0x3c121cfc	0.008918043
9	0x3d4b4256	0.04962381
10	0x3d846e44	0.06466344
11	0xbe06a9a0	-0.13150644
12	0x3d90603e	0.07049607
13	0x3dc46e82	0.0959139
14	0x3da6a3f6	0.08136742
15	0x3cebc6a8	0.02878125
16	0x3d709220	0.058733106
17	0x3dd90bde	0.105979666
18	0x3d1c8efd	0.0382223
19	0xbe276a53	-0.16349153
20	0x3e30a51f	0.17250489
21	0xbe01b7b8	-0.1266774
22	0x3e0e1d8b	0.13878457
23	0x3c52248c	0.012826096
24	0xbce47561	-0.027888002
25	0xbe01cab4	-0.12674981
26	0xbe5ca3b1	-0.21546818
27	0x3e16ad49	0.1471454
28	0xbdfe954a	-0.124308184
29	0xbd933779	-0.07188315
30	0x3d651351	0.055926625
31	0xbd5b1364	-0.05348529
32	0x3dac99d8	0.08427781
33	0xbdc79b5d	-0.0974643
34	0x3d350338	0.044192523
35	0xbe12a3dd	-0.14320321
36	0xbd8d4fa8	-0.06899959
37	0xbe34fb6e	-0.17674038
38	0x3d9fb0d3	0.077973984
39	0x3d1ce054	0.038299873
40	0x3ca7c3fe	0.020479199
41	0x3e0780ed	0.13232775
42	0x3e03eab6	0.12882504
43	0x3d6282a0	0.055300355
44	0xbd5ddc2c	-0.05416505
45	0xbe48918a	-0.19586769
46	0x3da32dac	0.079676956
47	0x3d26903e	0.040664904
48	0x3dec4df2	0.115383044
49	0x3e16cf33	0.14727478
50	0xbe062d6c	-0.13103265
51	0x3e0bdb26	0.13657817
52	0xbdf60a92	-0.12013735
53	0x3d83655e	0.06415819
54	0xbb06131c	-0.0020458167
55	0x3dc2d381	0.095129974
56	0xbcdf4525	-0.02725465
57	0xbcaacab0	-0.020848602
58	0x3d227f68	0.039672285
59	0x3e2e69a2	0.17032483
60	0xbc2d7fb7	-0.010589532
61	0x3e198743	0.14993005
62	0xbd2d025d	-0.042238582
63	0xbc64ce01	-0.013965131
64	0x3e254b10	0.16141915
65	0x3e341039	0.17584313
66	0x3da2f155	0.07956187
67	0x3d8856fe	0.066572174
68	0xbd5dfdfd	-0.0541973
69	0xbdde360d	-0.10850153
70	0x3d981957	0.07426708
71	0x3d984da7	0.07436686
72	0x3b8c099e	0.0042736074
73	0xbe4263e5	-0.18983419
74	0xbe216de2	-0.15764573
75	0xbda77a63	-0.0817764
76	0xbd5bbd02	-0.05364705
77	0x3d395a8b	0.045252364
78	0xbe3b7210	-0.1830523
79	0xbc984e82	-0.018592123
80	0x3e10d869	0.14145054
81	0x3e03bd57	0.12865196
82	0x3df0a3a2	0.117499605
83	0xbdaea11d	-0.08526824
84	0x3e2ec036	0.1706551
85	0xbd0692bc	-0.03285478
86	0xbe2f48a7	-0.17117558
87	0xbe0a9be7	-0.13536035
88	0x39e1fa19	0.00043101682
89	0xbd8a63c9	-0.06757314
90	0xbe0da348	-0.13831818
91	0xbdeffc1c	-0.11718008
92	0xbd63d36c	-0.05562155
93	0xbd99978d	-0.07499609
94	0xbcea9a7e	-0.02863812
95	0xbdf9fb52	-0.12206139
96	0x3c28b91c	0.01029804
97	0xbe063a5e	-0.13108203
98	0x3e343ca7	0.17601262
99	0x3e56182a	0.20907655
100	0x3de3d841	0.111252315
101	0x3e25ee95	0.16204293
102	0xbcc89017	-0.02448277
103	0x3e10e555	0.14149983
104	0xbd2c291a	-0.042031385
105	0xbd3a42d8	-0.045473903
106	0xbd997c55	-0.074944176
107	0x3e13a471	0.14418198
108	0x3cb4e289	0.022080677
109	0xbdead877	-0.11467069
110	0xbda3fa4f	-0.08006727
111	0x3e241bc1	0.16026212
112	0x3dc2e4db	0.09516307
113	0x3d2e5d73	0.04256959
114	0xbe075bdb	-0.13218634
115	0xbe460b90	-0.19340348
116	0xbdac91b6	-0.0842623
117	0xbe2e0d9e	-0.16997382
118	0x3e1311c0	0.1436224
119	0xbdbf507a	-0.093415216
120	0xbd5c01ac	-0.053712532
121	0xbe391b62	-0.18076852
122	0x3cadb431	0.021204086
123	0x3c4ba12b	0.012428562
124	0xbd2ad84a	-0.041710176
125	0xbdc51be9	-0.09624464
126	0x3dd67225	0.1047099
127	0xbd51880b	-0.05115513
128	0x3de9cef2	0.11416425
129	0x3dd18c75	0.10231868
130	0xbd255e05	-0.040372867
131	0x3d009bb3	0.031398486
132	0xbe1add19	-0.15123405
133	0x3e32ffae	0.17480347
134	0x3d657d58	0.05602774
135	0x3cec8fe5	0.028877208
136	0xbb297540	-0.002585724
137	0xbd9b9674	-0.07597056
138	0x3e228d32	0.15874174
139	0xbdd3f858	-0.10350102
140	0x3d9a63ff	0.07538604
141	0x3de79e5e	0.11309503
142	0x3ce879e6	0.028378438
143	0xbe171647	-0.14754592
144	0x3dd39f92	0.1033317
145	0x3d432384	0.047641292
146	0xbd842f3d	-0.064543225
147	0xbdbdf4e1	-0.092752226
148	0xbc6b45e7	-0.014359928
149	0xbd16ab02	-0.03678418
150	0x3e0009a3	0.12503676
151	0xbde13dbe	-0.109981045
152	0x3dfe5b43	0.124197505
153	0xbcc229d6	-0.02370159
154	0x3d7222bf	0.059115168
155	0x3cfa94c3	0.030588513
156	0xbd190f53	-0.03736813
157	0x3ce8e704	0.02843047
158	0xbc0ff9c2	-0.008787574
159	0x3e201a48	0.15635026
160	0xbe1faca6	-0.15593204
161	0xbdc49f2e	-0.096006736
162	0x3c0cb707	0.008588559
163	0xbc44fa1d	-0.012022522
164	0x3dc89293	0.09793582
165	0x3dd34428	0.10315734
166	0xbca2a5a9	-0.019854384
167	0xbcd74271	-0.026276799
168	0xbdf90953	-0.121599816
169	0x3e1b05a4	0.1513887
170	0xbcbbc721	-0.0229221
171	0x3dde1708	0.108442366
172	0xbd0d8a3b	-0.034555655
173	0x3e0c867f	0.13723181
174	0xbdff20c1	-0.12457419
175	0xbe0e80c0	-0.13916302
176	0xbd99a14f	-0.0750147
177	0x3cd9b66d	0.026576245
178	0xbd6a3c3c	-0.05718635
179	0xbe14a973	-0.14517765
180	0x3db07aae	0.08617149
181	0xbe2b579e	-0.16732642
182	0x3db51ffc	0.08843991
183	0x3c805b3b	0.015668502
184	0x3de1a1cd	0.11017189
185	0xbe0b8cd9	-0.13627948
186	0xbe27724b	-0.16352193
187	0x3dde2b9b	0.10848161
188	0xbdf01ff4	-0.117248446
189	0x3c0c97f8	0.008581154
190	0x3dd91b2a	0.10600884
191	0x3c0f596a	0.008749345
192	0x3d9b7862	0.075913206
193	0xbe28401d	-0.16430707
194	0xbe02d2d7	-0.12775742
195	0x3e155b3d	0.14585586
196	0xbdfaeeae	-0.12252556
197	0x3ae0c96c	0.0017149872
198	0xbcff0567	-0.031130506
199	0x3d888e5d	0.06667779
200	0x3dda625a	0.1066329
201	0xbd0f5097	-0.034988966
202	0xbcfea874	-0.031086184
203	0xbd3e989a	-0.04653225
204	0xbdf1111a	-0.1177084
205	0xbcf98f33	-0.03046379
206	0x3e1f721b	0.15570872
207	0xbe2c619b	-0.16834109
208	0xbe1d9e6d	-0.15392466
209	0xbdf8117d	-0.121127106
210	0xbd0205ef	-0.03174394
211	0xbd8c2cf9	-0.06844515
212	0x3d0c65af	0.03427666
213	0xbb754a2e	-0.0037428248
214	0xbdece9d9	-0.115680404
215	0x3db2a8ea	0.08723624
216	0x3e2ed3d1	0.17072989
217	0xbd12bcad	-0.035824466
218	0xbc51f618	-0.012815021
219	0x3e14d527	0.14534436
220	0x3b880437	0.004150893
221	0xbd848985	-0.06471542
222	0x3cc95fca	0.024581809
223	0xbd9238f9	-0.07139773
224	0xbd3451ca	-0.044023313
225	0x3dbcb41c	0.09214041
226	0xbdc88b34	-0.09792176
227	0xbd4fa7e0	-0.050697207
228	0x3c859fc4	0.016311534
229	0xbe10028d	-0.14063473
230	0xbd90909b	-0.07058831
231	0x3dd2f757	0.103010826
232	0x3d80d718	0.06291026
233	0xbe3fadde	-0.18718669
234	0xbd04e867	-0.0324482
235	0x3d189495	0.037251074
236	0xbd923c0d	-0.0714036
237	0x3e2d0312	0.16895702
238	0xbdd99c05	-0.106254615
239	0xbe113223	-0.14179282
240	0x3cdbdac3	0.026837712
241	0xbe0e040f	-0.13868736
242	0xbdc7a299	-0.0974781
243	0x3e0f31d0	0.13983846
244	0x3da27315	0.079321064
245	0xbdf48092	-0.11938585
246	0xbd64b76f	-0.055839
247	0x3bb3625b	0.0054743714
248	0x3e17f4bc	0.14839453
249	0xbdd26244	-0.10272649
250	0x3d1e7ed6	0.03869518
251	0x3e313602	0.17305759
252	0x3c8b7e50	0.017028004
253	0xbdf0988d	-0.11747847
254	0xbe1b3ec0	-0.15160656
255	0xbd8def79	-0.069304414

comp f4 [39, 8]
0	0xbe06c542	-0.13161185
1	0x3e83eebf	0.25768086
2	0x3da51f91	0.080626614
3	0x3d4aa3d2	0.049472637
4	0xbda5902b	-0.080841385
5	0xbdf8281e	-0.12117027
6	0x3e462ebf	0.1935377
7	0xbe60ce29	-0.21953644
8	0x3ea71e35	0.32640234
9	0xbec45478	-0.38345695
10	0xbec27d72	-0.37986332
11	0xbe77ee95	-0.24212106
12	0x3ea1bc37	0.3158891
13	0xbe828fb0	-0.2550025
14	0xbec239ee	-0.37934822
15	0xbeb7a400	-0.3586731
16	0xbea29666	-0.3175537
17	0xbeb9aebb	-0.3626612
18	0x3c3997f3	0.011327731
19	0x3e16b34c	0.14716834
20	0xbe442ba2	-0.1915727
21	0xbd9d8980	-0.07692242
22	0xbe6eb128	-0.23309767
23	0xbe36e94a	-0.1786243
24	0xbeac24d5	-0.3362185
25	0x3e913553	0.28360996
26	0x3e82eff0	0.25573683
27	0xbebed661	-0.37272933
28	0x3e3e9666	0.1861206
29	0xbeed622d	-0.46363965
30	0x3e7ecf5e	0.24883792
31	0xbe6e570c	-0.23275393
32	0xbe8fedd1	-0.28111127
33	0xbe39d86d	-0.18148966
34	0x3e9473a6	0.28994483
35	0xbda66471	-0.081246264
36	0x3ea19f38	0.31566787
37	0xbecfdf24	-0.4059993
38	0xbe0dd22a	-0.13849702
39	0x3ecb810b	0.3974689
40	0x3ea247a0	0.3169527
41	0xbd4d6ee1	-0.05015457
42	0x3cd81008	0.026374832
43	0xbed3beaf	-0.41356418
44	0x3e1d60f2	0.15369013
45	0x3c8ba3fd	0.01704597
46	0x3eebbd8a	0.46043044
47	0x3e76d53d	0.24104781
48	0xbdc41be7	-0.095756344
49	0x3dc7c709	0.0975476
50	0xbe977b66	-0.29586333
51	0xbed4a10f	-0.41529128
52	0xbc8bc067	-0.017059518
53	0xbe907bfe	-0.282196
54	0x3ea6917e	0.32532877
55	0xbe4d6d99	-0.2006134
56	0xbedbe05b	-0.42944607
57	0x3e460aef	0.19340108
58	0x3ed7330b	0.4203113
59	0x3eede902	0.46466833
60	0x3e7e3ef0	0.24828696
61	0xbcb0293d	-0.021504039
62	0xbe199371	-0.1499765
63	0x3b939a04	0.004504444
64	0x3e996485	0.29959503
65	0xbe40bdcc	-0.18822402
66	0xbe87444c	-0.26419294
67	0xbe9580c3	-0.291998
68	0x3e255d0a	0.16148773
69	0x3de9deda	0.11419459
70	0xbe13d8f4	-0.1443823
71	0x3badb6f7	0.005301352
72	0x3e996cc9	0.2996581
73	0x3ece6161	0.4030867
74	0x3e83a971	0.2571521
75	0xbdf27580	-0.118388176
76	0xbd9d8507	-0.076913886
77	0x3ecd3ad2	0.4008394
78	0x3ece6982	0.4031487
79	0xbe85e628	-0.26152158
80	0xbd1fb674	-0.03899236
81	0x3eaed42f	0.34146258
82	0xbcb5a6b6	-0.02217422
83	0x3ed1e54f	0.4099526
84	0xbe32e3c0	-0.17469692
85	0x3ed089ff	0.40730283
86	0xbf04248b	-0.5161826
87	0xbe3ce8d4	-0.18448192
88	0xbe355e6d	-0.17711802
89	0x3e83f9a5	0.257764
90	0xbeafda50	-0.34346247
91	0x3ee6829b	0.4502152
92	0x3e3f0858	0.18655527
93	0xbeb36280	-0.35036087
94	0x3e1a8145	0.15088375
95	0xbda7e83e	-0.081985936
96	0x3e561e1b	0.20909922
97	0x3c827409	0.01592447
98	0x3d8e9178	0.0696134
99	0x3ec420c0	0.38306236
100	0x3ec0f1de	0.3768453
101	0xbecec48e	-0.40384334
102	0x3eb070a7	0.34460947
103	0x3edeefa7	0.43542215
104	0x3d5df172	0.05418534
105	0xbec69ace	-0.38789982
106	0xbdf52f42	-0.11971904
107	0x3dcd9b52	0.100393906
108	0x3e4ef27f	0.20209692
109	0x3e8d2be2	0.27572542
110	0x3e483d77	0.19554697
111	0xbed6833d	-0.41897002
112	0x3e911f81	0.28344348
113	0xbec37b4f	-0.38180014
114	0x3ea06743	0.31328782
115	0xbecc3332	-0.3988281
116	0x3eaf79a0	0.3427248
117	0x3e907fbe	0.2822246
118	0x3f08be6f	0.5341558
119	0xbedcd1c4	-0.43128788
120	0x3eff574d	0.49871293
121	0xbe887bf1	-0.2665706
122	0xbe81c098	-0.2534225
123	0xbe536e90	-0.20647645
124	0x3f076982	0.5289537
125	0xbe040ccb	-0.12895505
126	0x3cca5757	0.02469985
127	0x3e28488a	0.16433921
128	0xbef8f6e4	-0.48625863
129	0xba7b8517	-0.0009594722
130	0x3c9bd258	0.019021198
131	0xbeb6e428	-0.35720944
132	0x3d2ba657	0.04190668
133	0x3e80dbe1	0.25167754
134	0xbeae884b	-0.34088358
135	0x3de220dd	0.110414244
136	0xbe6a8c9c	-0.229052
137	0xbe9bc7b2	-0.30425793
138	0xbd99861a	-0.07496281
139	0xbe19eb5f	-0.15031193
140	0x3f0e3e8a	0.5556418
141	0x3ee0430f	0.43801162
142	0xbe9aa5d5	-0.30204645
143	0xbf063636	-0.5242647
144	0xbd08e54e	-0.033421807
145	0x3ee4da0f	0.44697616
146	0x3e8c97b4	0.2745949
147	0x3d8579ce	0.06517373
148	0x3efc9e75	0.49339643
149	0xbe11ac3a	-0.14225855
150	0x3dbaafda	0.09115572
151	0xbea0e47e	-0.31424326
152	0x3ece99b8	0.40351653
153	0x3d9b5bad	0.07585845
154	0x3ecab31e	0.3958978
155	0xbe553db4	-0.20824319
156	0xbec56ca9	-0.38559464
157	0x3dbfff8a	0.09374912
158	0xbd80a14f	-0.06280767
159	0xbe82a9ef	-0.25520274
160	0x3e501ca5	0.20323427
161	0xbed6be95	-0.41942278
162	0xb9a0169f	-0.00030534432
163	0xbd6b8ef3	-0.057509374
164	0xbd9fa462	-0.077950254
165	0x3e004ab7	0.12528501
166	0x3e26264e	0.1622555
167	0x3d936fc8	0.07199055
168	0xbdf4ff02	-0.119627014
169	0xbe3ef8da	-0.18649617
170	0xbe1ca34c	-0.15296668
171	0x3dbbbd51	0.091669686
172	0xbee3052c	-0.44339883
173	0x3f0b185f	0.5433406
174	0x3ee56786	0.44805545
175	0xbce0c61d	-0.027438218
176	0x3d167809	0.03673557
177	0xbe584c2f	-0.21122812
178	0xbec2dbfa	-0.38058454
179	0xbd1f7f3f	-0.03893971
180	0xbd3b1ec3	-0.045683634
181	0x3e003421	0.12519886
182	0xbe64a109	-0.22327055
183	0x3ed06969	0.40705422
184	0xbdb1a005	-0.086730994
185	0xbe71d7f9	-0.23617543
186	0xbe86a6df	-0.26299188
187	0x3e3eb7a8	0.18624747
188	0x3e204723	0.15652137
189	0xbe8b2fbb	-0.27184853
190	0x3e278350	0.16358685
191	0x3c707863	0.01467714
192	0xbe53b4a9	-0.20674385
193	0x3ebae22e	0.36500686
194	0xbec6c090	-0.3881879
195	0x3e0a7399	0.1352066
196	0x3ea6d1f4	0.32582057
197	0x3d1d4bda	0.038402416
198	0xbe8226a2	-0.254201
199	0xbe9bdebc	-0.3044337
200	0xbe0169b1	-0.12637974
201	0xbcde420c	-0.027131103
202	0x3d8f5de7	0.07000332
203	0x3dbed3cc	0.09317741
204	0xbea8a49f	-0.32938096
205	0x3e924985	0.28571716
206	0xbeb67da3	-0.35642728
207	0x3dfdbbcb	0.12389334
208	0xbe4ba7d6	-0.19888243
209	0x3e9677bd	0.29388228
210	0xbe6d894d	-0.23196907
211	0xbe75f288	-0.240183
212	0x3e2822b1	0.16419484
213	0xbeaa594c	-0.33271253
214	0x3ea3069a	0.31840974
215	0x3e74c60b	0.23903672
216	0x3e613e88	0.2199651
217	0x3e5e9150	0.2173512
218	0x3dc42109	0.095766135
219	0x3e6e481e	0.23269698
220	0xbe30ea9e	-0.17277
221	0x3eb04132	0.3442474
222	0x3eab31b2	0.33436352
223	0x3e144abf	0.14481638
224	0xbec34924	-0.3814174
225	0xbe5a32c5	-0.2130843
226	0x3e07dd97	0.13268124
227	0xbeda1440	-0.42593575
228	0xbcd8cc23	-0.026464527
229	0xbea83435	-0.3285233
230	0xbe0caa0b	-0.13736741
231	0xbd8029a0	-0.06257939
232	0x3e6c2896	0.23062357
233	0x3e621353	0.22077684
234	0x3c9dac5c	0.019247226
235	0xbec132c3	-0.3773404
236	0xbeaf4c98	-0.34238124
237	0xbed76599	-0.420697
238	0x3e8fa5f4	0.280563
239	0x3db2b4d6	0.08725898
240	0xbec8f74a	-0.39251167
241	0xbec3c563	-0.38236532
242	0x3e9c6550	0.30546045
243	0xbdb48a6b	-0.08815464
244	0x3c5704be	0.013123689
245	0xbe6ffbcc	-0.23435897
246	0x3e804dd5	0.2505938
247	0xbd16a08c	-0.036774203
248	0xbdf3f03b	-0.11911055
249	0xbebf0e14	-0.37315428
250	0xbe7df2b5	-0.24799617
251	0x3ea17499	0.3153427
252	0xbd0e1fff	-0.034698483
253	0xbede054f	-0.43363425
254	0xbecc8cdc	-0.39951217
255	0x3e20cc6a	0.15702978

root f4 [128, 128]
0	0xbe047205	-0.1293412
1	0x3d0b9b36	0.034083568
2	0xbd9528e3	-0.07283189
3	0x3db7840e	0.08960734
4	0xbcf69467	-0.03010006
5	0x3d96185c	0.07328865
6	0xbd19dfa8	-0.03756681
7	0x3d903bdc	0.07042667
8	0xbc88fca9	-0.01672204
9	0xbcf66368	-0.030076697
10	0x3da228ae	0.07917915
11	0x3daa5ff1	0.083190806
12	0xbd609f32	-0.05483932
13	0x3d0131cd	0.031541634
14	0x3e0e3621	0.13887836
15	0x3da1e25c	0.07904503
16	0xbde55ca7	-0.11199313
17	0x3deaf5b4	0.114726454
18	0x3cfba0f9	0.030716406
19	0x3d798de7	0.060926344
20	0xbe0857bc	-0.13314718
21	0x3c04edf1	0.00811337
22	0xbe0badaf	-0.13640474
23	0x3d4105d5	0.047124702
24	0xbcfbee96	-0.030753415
25	0xbd698329	-0.05700985
26	0xbd3571d2	-0.044298
27	0x3dc09b53	0.09404626
28	0xbd048423	-0.032352578
29	0xbce38922	-0.027775351
30	0x3e07dbc1	0.13267423
31	0xbe05e446	-0.1307536
32	0xbdaf0cda	-0.08547373
33	0xbcae37b1	-0.02126679
34	0xbe162046	-0.14660749
35	0xbda3edde	-0.08004354
36	0x3de131df	0.1099584
37	0xbdf453eb	-0.119300686
38	0x3c796aa6	0.015223181
39	0x3d85b86b	0.065293156
40	0x3dfdaed0	0.123868585
41	0x3d458d64	0.048230544
42	0xbd99760f	-0.07493221
43	0x3c7d0a35	0.015444328
44	0xbe0a60ce	-0.1351349
45	0x3e140219	0.14453925
46	0x3c2f854c	0.010712933
47	0x3e113efb	0.14184181
48	0x3d9d551f	0.07682251
49	0xbdc26786	-0.09492402
50	0xbd9a3f69	-0.07531626
51	0xbdd2410e	-0.102663144
52	0x3dbca54e	0.09211217
53	0x3e1dff13	0.15429334
54	0x3c2d491c	0.010576513
55	0x3dd33d2b	0.10314401
56	0x3cfc3629	0.030787544
57	0xbdd92612	-0.106029645
58	0xbc4496be	-0.01199883
59	0xbd6fd807	-0.05855563
60	0x3df67940	0.12034845
61	0x3dfd6dd7	0.12374466
62	0x3d096dde	0.033552043
63	0x3c53dbeb	0.0129308505
64	0xbd1fa1c8	-0.038972646
65	0xbd80adcc	-0.06283149
66	0x3e35ac74	0.17741567
67	0xbdd15474	-0.10221186
68	0xbac4b523	-0.0015007596
69	0xbd58b883	-0.05291034
70	0x3ccefab8	0.025266036
71	0xbd19cb4e	-0.037547402
72	0x3db265d1	0.08710826
73	0x3bf2e84d	0.0074129463
74	0xbd6bd961	-0.057580356
75	0xbdcedd8c	-0.101008505
76	0x3df4996c	0.119433254
77	0xbb1e42dd	-0.002414874
78	0x3dd48c54	0.10378328
79	0x3dd827f5	0.10554496
80	0x3d881456	0.06644504
81	0x3d50ceb2	0.05097837
82	0x3d914e0f	0.070949666
83	0xbe0f9186	-0.14020357
84	0xbe28ac5c	-0.16472
85	0xbdff7d09	-0.124750204
86	0x3df1d35a	0.1180789
87	0x3d36b711	0.04460818
88	0xbd2ba514	-0.041905478
89	0xbd7a8330	-0.061160266
90	0xbd9d7957	-0.07689159
91	0x3d541484	0.051777378
92	0x3d595cd8	0.05306706
93	0xbbb8215a	-0.00561921
94	0xbd703ae8	-0.058649927
95	0x3e18fd3c	0.14940351
96	0x3deee797	0.11665266
97	0xbd947923	-0.072496675
98	0x3db18f0a	0.08669861
99	0x3d72e6b3	0.059302043
100	0x3e1e03ea	0.1543118
101	0xbe110ada	-0.14164296
102	0x3c96210e	0.018326309
103	0xbe19af2f	-0.15008233
104	0x3d3ad0f9	0.045609448
105	0x3dbcba75	0.09215251
106	0x3dcbd64c	0.09952983
107	0x3cbc7416	0.023004573
108	0xbdcf7d62	-0.10131337
109	0x3c0bb723	0.00852755
110	0x3dcb8f18	0.09939402
111	0x3daa1882	0.08305456
112	0xbe1c38dd	-0.15256067
113	0x3aa3f883	0.0012509975
114	0x3a7b8251	0.0009594309
115	0xbd446190	-0.047944605
116	0xbdf2db19	-0.11858196
117	0x3d0873d4	0.033313587
118	0xbba2d761	-0.004969523
119	0xbd51df1d	-0.051238168
120	0x3e21029d	0.15723653
121	0x3d909071	0.070588
122	0x3cabd8b7	0.020977361
123	0xbd839d9b	-0.06426545
124	0xbdc925e3	-0.098216794
125	0x3d901e33	0.0703701
126	0x3d1e12b5	0.03859206
127	0x3dce7097	0.100800686
128	0xbdba2b4b	-0.09090289
129	0xbdac7000	-0.084198
130	0xbda4e2ff	-0.080511086
131	0x3e0f4f38	0.13995063
132	0xbda25a8e	-0.07927428
133	0xbdf5ee31	-0.12008322
134	0xbc3856bf	-0.011251151
135	0xbb45ca33	-0.0030180335
136	0x3d60940f	0.0548287
137	0x3df8c082	0.12146093
138	0x3db47bc7	0.08812671
139	0xbdf08d58	-0.11745709
140	0xbde755fa	-0.112956956
141	0x3e09075f	0.13381718
142	0x3cc5d85b	0.024151018
143	0x3decac8b	0.115563475
144	0xbd49a74b	-0.04923181
145	0x3d8075c6	0.062724635
146	0xbdd77184	-0.10519698
147	0xbb943199	-0.004522514
148	0x3e03f0dd	0.12884851
149	0x3befe67f	0.0073211784
150	0x3d44cd3f	0.0480473
151	0x3c2b5568	0.010457374
152	0xbe08e70a	-0.13369384
153	0xbcd62ded	-0.026144946
154	0xbc82bcc2	-0.015959147
155	0x3dbbb450	0.09165251
156	0x3d78f1c4	0.06077744
157	0xbda643c0	-0.08118391
158	0x3daab4ae	0.08335243
159	0x3e1d0bd6	0.15336546
160	0xbdd5cc57	-0.10439365
161	0xbd04c12a	-0.032410778
162	0xbca93944	-0.02065719
163	0x3d98ac00	0.074546814
164	0xbddc94c1	-0.1077056
165	0x3db0fe7c	0.08642289
166	0xbdd5b51e	-0.10434936
167	0x3c5324e6	0.012887215
168	0x3c926ab8	0.017873153
169	0xbcc04245	-0.0234691
170	0x3d8391b0	0.06424272
171	0x3b362e77	0.0027798691
172	0xbd9e422f	-0.07727467
173	0x3e0f300f	0.13983177
174	0xbda4fcd9	-0.08056039
175	0x3c6de473	0.014519799
176	0x3d833f1d	0.06408522
177	0xbd2c5fee	-0.042083673
178	0xbdc8d87e	-0.098069176
179	0x3db7202f	0.089416854
180	0x3e0eef66	0.13958511
181	0xbdbe654c	-0.092966646
182	0xbd7c0570	-0.061528623
183	0x3cf108f9	0.029423224
184	0x3d70cef6	0.058791123
185	0xbcf74c83	-0.03018785
186	0x3dd4216e	0.10357939
187	0x3e09c8b4	0.13455468
188	0x3db8e655	0.09028307
189	0xbe07630f	-0.13221382
190	0x3dfdbe00	0.12389755
191	0xbdc89289	-0.09793574
192	0x3ba755c8	0.0051066615
193	0x3d43ffad	0.047851253
194	0x3d67bc03	0.056575786
195	0xbdc136a7	-0.09434252
196	0x3d272296	0.040804468
197	0xbddd098d	-0.10792837
198	0xbd5d4ba7	-0.054027226
199	0x3e1346be	0.14382455
200	0x3dee5e6e	0.11639105
201	0xbd06d6b4	-0.0329196
202	0x3debd151	0.11514533
203	0x3cd4dee7	0.025985194
204	0x3d9d2d62	0.07674672
205	0xbc9e90c2	-0.019356135
206	0x3e094c33	0.13407974
207	0xbdd6b30e	-0.10483371
208	0xbd43d3fd	-0.04780959
209	0x3df77beb	0.12084182
210	0xbd4ece71	-0.050489847
211	0x3d8f813c	0.070070714
212	0xbd79e58b	-0.061009925
213	0xbddf2153	-0.10895028
214	0xbd1eebc2	-0.038799055
215	0xbd5c9bbb	-0.053859454
216	0xbdcdd0b8	-0.100495756
217	0x3e1ae599	0.15126647
218	0x3d00e6f6	0.03147026
219	0x3dd675cf	0.10471689
220	0x3d84dc15	0.0648729
221	0x3da541a9	0.08069164
222	0x3db6b47e	0.08921145
223	0x3ce6cad3	0.028172886
224	0x3da17937	0.07884448
225	0x3d97b9fc	0.074085206
226	0x3d11f2bc	0.03563188
227	0xbda1a6c5	-0.07893137
228	0xbcc1c5ad	-0.02365383
229	0x3e173e67	0.14769898
230	0xbddbc77e	-0.107314095
231	0xbdbfa8b1	-0.09358347
232	0xbdbb5364	-0.09146765
233	0x3d793506	0.060841583
234	0xbc8cf635	-0.017207244
235	0x3e042475	0.12904532
236	0xbd057af9	-0.03258798
237	0xbdc7c5a2	-0.09754492
238	0x3d904b46	0.07045607
239	0x3d8600bc	0.06543109
240	0xbd77cb85	-0.060496826
241	0xbe071352	-0.13190964
242	0xbdad5518	-0.08463496
243	0x3af3e11e	0.0018606519
244	0x3d7c0f3d	0.06153797
245	0x3e0194d0	0.12654424
246	0x3dbf420b	0.093387686
247	0xbdd70fd2	-0.10501064
248	0x3e0d97c9	0.13827433
249	0x3df7522f	0.12076222
250	0x3e15570a	0.14583984
251	0x3d810e93	0.06301608
252	0x3db97dcc	0.09057197
253	0x3d02937e	0.03187894
254	0x3d96f6ef	0.073713176
255	0x3da1f72b	0.07908472

bias f4 [128]
0	0x3af44952	0.0018637574
1	0xbaa96b10	-0.0012925584
2	0xba75c34b	-0.0009375109
3	0x3b9a9a01	0.0047180657
4	0xb9b0ebeb	-0.00033745109
5	0xbb3ec5f7	-0.0029109695
6	0xb9e827f2	-0.0004428025
7	0xbc232659	-0.009957873
8	0xbc060e86	-0.008182174
9	0x3a899b15	0.0010498489
10	0x3c16412a	0.00917081
11	0x3a55cd9e	0.00081559445
12	0xbb13fa0d	-0.0022579462
13	0xbb742117	-0.0037251168
14	0x3c905a32	0.017621133
15	0x3be84ea0	0.007089451
16	0x3b8799f9	0.004138228
17	0xba7d63d8	-0.0009666062
18	0xbb96633d	-0.004589467
19	0xb9c3caf3	-0.00037344507
20	0x3b23b794	0.0024981247
21	0xba9886da	-0.0011636869
22	0x3a468b28	0.00075738365
23	0x3b38bcc5	0.0028188687
24	0xbc41a1b0	-0.011818334
25	0x38aafc1a	8.153189e-05
26	0xbab1da84	-0.0013569151
27	0xbb6f4711	-0.0036510865
28	0x3c3aca98	0.011400841
29	0x3bbde422	0.005795018
30	0x3bb06544	0.0053831656
31	0xbc1b06d6	-0.009462079
32	0xba486cfd	-0.0007645635
33	0x3c08d8df	0.008352487
34	0xbbec36d9	-0.007208687
35	0xba433f91	-0.0007448132
36	0xba70eb7a	-0.0009190362
37	0x3b865999	0.0041000363
38	0x3bc6eb9e	0.006070568
39	0x3c333321	0.010937483
40	0x3b8d9434	0.0043206457
41	0xbb355306	-0.0027667894
42	0x3bc5f7f1	0.00604152
43	0xbb0590ac	-0.002038042
44	0x3b5bd885	0.0033545804
45	0x3975ea48	0.00023452297
46	0x3b13dbde	0.002256147
47	0x3b02c5a8	0.0019954238
48	0x3b713bfc	0.0036809435
49	0x3a76031f	0.00093846204
50	0xbb752d30	-0.0037410967
51	0x3ba7f055	0.0051250854
52	0x3aad1621	0.0013205447
53	0xbc10db5f	-0.008841365
54	0xbbcdd9ed	-0.0062820823
55	0xbc07f9cc	-0.008299302
56	0x3b09209e	0.0020923982
57	0xbbdccab0	-0.0067380294
58	0xbbf13586	-0.007361117
59	0x3beee1f6	0.0072901202
60	0xbbb9d1a3	-0.0056707426
61	0xbb3ef725	-0.002913901
62	0x3bf0334e	0.0073303347
63	0xba9f0f71	-0.0012135339
64	0x3c1188e2	0.008882733
65	0xbad475da	-0.0016209439
66	0xbb9f789d	-0.004866673
67	0x3c596290	0.013268128
68	0xb9d57494	-0.00040713383
69	0xbb8a9e83	-0.004230322
70	0x3b837074	0.004011208
71	0x3b28b598	0.0025743004
72	0x3a566163	0.0008177964
73	0xbc1d29c2	-0.009592475
74	0x3bb57fae	0.0055389022
75	0xbc2f8b2a	-0.010714332
76	0xbbd62cec	-0.006536117
77	0x3abc4469	0.001436365
78	0x3bbc99b3	0.005755627
79	0xbb174da2	-0.0023087044
80	0xbc08eb00	-0.00835681
81	0x3bdd2d68	0.0067497976
82	0xbba0e946	-0.004910621
83	0x3c6b5533	0.014363575
84	0x3bde3c0d	0.006782061
85	0x3bf1d51e	0.007380142
86	0xbb7e65cf	-0.0038818007
87	0xbc32dc15	-0.010916729
88	0xbb78d15f	-0.0037966592
89	0xba830636	-0.0009996358
90	0x3ab3da92	0.0013721755
91	0x3ba26c68	0.0049567707
92	0x3b0fbbc6	0.002193199
93	0x3babaf9b	0.0052394397
94	0xbba4d30d	-0.005030042
95	0xbb01f381	-0.0019828978
96	0x3b977da1	0.0046231304
97	0x3b8aec6b	0.004239609
98	0x3b8958f1	0.004191511
99	0xbb8126ff	-0.0039414163
100	0xb9ea2dea	-0.00044666167
101	0xbbabc3b9	-0.005241838
102	0x3bc2bcab	0.005942901
103	0x3a08edd5	0.0005223428
104	0xbb77a6e0	-0.0037788674
105	0x3b74055e	0.0037234644
106	0xbb8439ec	-0.004035225
107	0xbae6e72f	-0.0017616506
108	0xbba0ca81	-0.004906953
109	0xbbb3abb7	-0.0054831165
110	0xbb84a629	-0.004048128
111	0x3a79239c	0.00095039024
112	0x3c06c6a7	0.008226073
113	0x3acb0e7d	0.0015491989
114	0x3bd682c0	0.0065463483
115	0x3a423dd7	0.00074097276
116	0xbc04d7eb	-0.0081081195
117	0xba6e98b4	-0.0009101734
118	0x3b1c3a4c	0.0023838459
119	0x3b6cc7e7	0.0036129893
120	0xb8a31082	-7.7755205e-05
121	0x3c6df8ba	0.014524633
122	0xbbcc5458	-0.0062356405
123	0xbaf7ab23	-0.0018895607
124	0xbae04817	-0.0017111328
125	0x3c15b5bd	0.009137568
126	0x3b43fa26	0.0029903739
127	0x3b98ed23	0.004666941
