MHIM/pretrain/redial/8-epoch.pth (torch, 594192 bytes, 4 tensors)

weight f4 [8, 128, 128]
-0.028476613 0.16896956 0.12394515 -0.03525737 -0.16884628 -0.00433609 0.077911295 0.093454495
0.005501881 0.054160833 0.073412284 -0.12797077 0.069225304 0.10191584 0.09219183 0.026656685
0.0549566 0.09820081 0.036289167 -0.16620952 0.16926895 -0.1292028 0.13621563 -0.00086711685
-0.033049654 -0.124922335 -0.2178331 0.14584155 -0.1246679 -0.07365614 0.0578709 -0.044425786
0.0911928 -0.10339469 0.051874854 -0.1357356 -0.07739039 -0.1687277 0.07158524 0.04492261
0.019102756 0.14658357 0.13210928 0.049202166 -0.035975855 -0.19585611 0.08612514 0.03054014
0.12735918 0.1492098 -0.12877795 0.15248944 -0.11435805 0.05994169 -0.012341962 0.10064927
-0.04124667 -0.022750841 0.04108191 0.16136299 -0.012799301 0.15273502 -0.04398697 -0.010664694
0.15968956 0.17538632 0.07268973 0.06377039 -0.048885427 -0.11099828 0.08503851 0.08031889
0.0071302773 -0.19585934 -0.15612617 -0.082894444 -0.04772935 0.053262863 -0.17457908 -0.028863618
0.13019194 0.13555413 0.116750844 -0.08109212 0.17751974 -0.030323913 -0.17686659 -0.14103833
0.0073126075 -0.079560764 -0.12838173 -0.10902002 -0.04062051 -0.0781338 -0.019106455 -0.11662924
0.009706133 -0.13420326 0.18172753 0.20117728 0.11524124 0.15180033 -0.03827514 0.14522657
-0.04034666 -0.03839272 -0.062799565 0.14265597 0.029191727 -0.116615005 -0.08067939 0.17033876
0.10126562 0.044066492 -0.13442202 -0.19429864 -0.076350756 -0.17419535 0.14609301 -0.10702614
-0.068967834 -0.18094654 0.029023923 0.009661817 -0.03380674 -0.09926289 0.11078709 -0.044362493
0.1098731 0.09766265 -0.03579144 0.026638806 -0.154486 0.17276779 0.06260454 0.019640723
-0.00064870215 -0.08105297 0.15562905 -0.09634023 0.08420665 0.113009565 0.02120059 -0.14818706
0.1046432 0.040378507 -0.06786953 -0.09098713 -0.0113996705 -0.035674874 0.14050917 -0.11212213
0.12371927 -0.027306994 0.06882133 0.026407903 -0.03310053 0.021086935 0.00082037365 0.1596043
-0.15989111 -0.08697884 0.01157596 -0.018745849 0.1054165 0.09525222 -0.01426173 -0.02269621
-0.1218282 0.15671447 -0.020836884 0.107805476 -0.037291314 0.13026789 -0.13271606 -0.13897918
-0.080062985 0.022350293 -0.04948363 -0.14528964 0.09047014 -0.17125934 0.09430872 0.021247182
0.118408 -0.13786304 -0.16325442 0.11355332 -0.1232821 0.012220123 0.09685284 -0.003140865
0.07709597 -0.16790779 -0.12108674 0.15037292 -0.12741847 -0.0013660479 -0.030744424 0.07093018
0.10768063 -0.028329708 -0.025916185 -0.05052965 -0.12386899 -0.024761565 0.16999412 -0.1669385
-0.14932312 -0.122695595 -0.03030499 -0.074585736 0.027304681 -0.0021528609 -0.111901164 0.090593055
0.17144403 -0.038546287 -0.008018852 0.13657969 -0.0011815176 -0.056628693 0.028145248 -0.07808915
-0.04036045 0.094321765 -0.104807444 -0.049144197 0.010627267 -0.1368362 -0.07133044 0.1072485
0.0649743 -0.19488722 -0.0317253 0.04664781 -0.07985026 0.16041394 -0.10070834 -0.14954466
0.032982692 -0.13608563 -0.092288606 0.13999572 0.077638775 -0.105091274 -0.052898776 0.0023820386
0.14684229 -0.10095865 0.032878682 0.17246093 0.00838727 -0.11453669 -0.14215723 -0.068526134
00000000: c947 e9bc 5b06 2d3e f4d6 fd3d 086a 10bd
00000010: 0ae6 2cbe c215 8ebb f58f 9f3d 1265 bf3d
00000020: 1f49 b43b c0d7 5d3d 2e59 963d c50a 03be
00000030: ffc5 8d3d 40b9 d03d 12cf bc3d 1f5f da3c
00000040: 2c1a 613d 821d c93d f3a3 143d d432 2abe
00000050: d754 2d3e bd4d 04be 1c7c 0b3e 3a4f 63ba
00000060: 135f 07bd 48d7 ffbd a40f 5fbe 7d57 153e
00000070: e251 ffbd 08d9 96bd 090a 6d3d d0f7 35bd
00000080: 4ac3 ba3d 98c0 d3bd ba7a 543d 46fe 0abe
00000090: da7e 9ebd f4c6 2cbe 489b 923d c500 383d
000000a0: 627d 9c3c 011a 163e a847 073e 3688 493d
000000b0: 6b5b 13bd 818e 48be 6162 b03d 512f fa3c
000000c0: 726a 023e 74ca 183e 5ede 03be 3126 1c3e
000000d0: 8e34 eabd 6b85 753d f135 4abc 3421 ce3d
000000e0: 45f2 28bd f95f babc 8145 283d 573c 253e
000000f0: 29b4 51bc 9266 1c3e ae2b 34bd f8ba 2ebc
00000100: a985 233e 7998 333e 5ade 943d 0d9a 823d
00000110: 163c 48bd 1153 e3bd ac28 ae3d 3b7e a43d
00000120: 1aa5 e93b 5a8f 48be 8adf 1fbe 90c4 a9bd
00000130: da7f 43bd 292a 5a3d dcc4 32be 6573 ecbc
00000140: 0951 053e b4ce 0a3e 111b ef3d a013 a6bd
00000150: bcc7 353e db69 f8bc 841c 35be 5a6c 10be
00000160: 999e ef3b c1f0 a2bd 8076 03be e345 dfbd
00000170: b161 26bd 9d04 a0bd 2485 9cbc 50db eebd
00000180: 7906 1f3c 946c 09be c816 3a3e 6b01 4e3e
00000190: 9903 ec3d 8c71 1b3e 65c6 1cbd 46b6 143e
000001a0: 8a42 25bd af41 1dbd 0f9d 80bd 6814 123e
000001b0: 7d23 ef3c d9d3 eebd 3c3b a5bd 496d 2e3e
000001c0: 5964 cf3d 117f 343d eda5 09be 39f6 46be
000001d0: c95d 9cbd 4460 32be 6899 153e 8530 dbbd
000001e0: 023f 8dbd 0d4a 39be 94c3 ed3c 994c 1e3c
000001f0: f078 0abd 584a cbbd 58e4 e23d 72b5 35bd
00000200: 2605 e13d 5b03 c83d 0c9a 12bd a039 da3c
00000210: 9431 1ebe 0aea 303e cf36 803d 95e5 a03c
00000220: aa0d 2aba 19ff a5bd 395d 1f3e 074e c5bd
00000230: 8974 ac3d 8f71 e73d dcac ad3c 59be 17be
00000240: 2d4f d63d ef63 253d 2eff 8abd 7657 babd
00000250: afc5 3abc d11f 12bd a3e1 0f3e 4aa0 e5bd
00000260: 8760 fd3d ebb2 dfbc 33f2 8c3d 6355 d83c
00000270: 6c94 07bd 82be ac3c 580e 573a 4f6f 233e
00000280: 7fba 23be f621 b2bd 18a9 3d3c e590 99bc
00000290: 9be4 d73d 9913 c33d 08aa 69bc 67ed b9bc
000002a0: 1081 f9bd c279 203e 1db2 aabc 1ec9 dc3d
000002b0: c7be 18bd f264 053e b8e6 07be 8f50 0ebe
000002c0: 10f8 a3bd f617 b73c 59af 4abd cfc6 14be
000002d0: 6948 b93d 9c5e 2fbe ee24 c13d 920e ae3c
000002e0: e57f f23d f82b 0dbe 2b2c 27be a58e e83d
000002f0: 537b fcbd e936 483c c85a c63d f8d6 4dbb
00000300: 7ee4 9d3d 05f0 2bbe 53fc f7bd 5cfb 193e
00000310: fd79 02be f60c b3ba bbdb fbbc d843 913d
00000320: aa87 dc3d b413 e8bc 2e4e d4bc 2ef8 4ebd
00000330: 06af fdbd c4d8 cabc f012 2e3e edf1 2abe
00000340: 29e8 18be d447 fbbd 2c42 f8bc 68c0 98bd
00000350: 11ae df3c 0317 0dbb 702c e5bd da88 b93d
00000360: 068f 2f3e b6e2 1dbd 8161 03bc 8cdb 0b3e
00000370: 27dd 9aba 7df3 67bd dd90 e63c 34ed 9fbd
00000380: 0051 25bd c52b c13d 49a5 d6bd 6d4b 49bd
00000390: fd1d 2e3c ca1e 0cbe b215 92bd 1aa5 db3d
000003a0: 3f11 853d 8490 47be 63f2 01bd c611 3f3d
000003b0: 8888 a3bd 8d43 243e 2d40 cebd 3c22 19be
000003c0: dc18 073d 085a 0bbe cf01 bdbd 0a5b 0f3e
000003d0: 1401 9f3d 183a d7bd 63ac 58bd fa1b 1c3b
000003e0: d35d 163e 69c3 cebd ccab 063d 9999 303e
000003f0: c36a 093c 3692 eabd aa91 11be 6e57 8cbd

comp f4 [39, 8]
-0.13399836 0.25675753 0.080790915 0.051338173 -0.08599417 -0.11558444 0.19725886 -0.21378064
0.3225694 -0.38372356 -0.3780757 -0.24204974 0.31701386 -0.24992757 -0.37735736 -0.35897776
-0.31730223 -0.36091906 0.008556553 0.14617628 -0.18112977 -0.0770116 -0.23234318 -0.16463874
-0.3294491 0.27590927 0.24156143 -0.3731425 0.17601252 -0.46103588 0.24145591 -0.24173239
-0.27943572 -0.187571 0.29326752 -0.0814853 0.31753963 -0.40904406 -0.14522764 0.39477834
0.3334046 -0.043149404 0.027499653 -0.42235744 0.15747364 0.013245106 0.47942346 0.24547055
-0.09010554 0.10964345 -0.29863113 -0.4267301 -0.014819746 -0.28713164 0.3328341 -0.21835192
-0.43793333 0.19294685 0.42126134 0.4691515 0.261749 -0.022517769 -0.15512598 -0.0054307785
0.29562327 -0.1831405 -0.26385236 -0.28804997 0.17098631 0.10903638 -0.14479253 0.0026471603
0.30679846 0.4188385 0.26098362 -0.120601654 -0.072329 0.40658084 0.40750834 -0.2722927
-0.036856413 0.3535318 -0.020927588 0.41859755 -0.17744297 0.40471572 -0.5326693 -0.17812862
-0.17861763 0.25683105 -0.35916615 0.46675202 0.18507251 -0.36511332 0.15013656 -0.0841735
0.21052426 0.018004356 0.06980431 0.38589895 0.3876724 -0.4121332 0.35051286 0.43861282
0.055852395 -0.40306583 -0.12010527 0.09867561 0.20339024 0.28242013 0.1969458 -0.43383574
0.28988767 -0.39324528 0.31312612 -0.39372274 0.34435862 0.27059457 0.54028493 -0.43706018
0.5075267 -0.28088716 -0.25354776 -0.20140842 0.5339543 -0.12139032 0.017280323 0.17819567
-0.499164 0.009293927 0.018647034 -0.3572161 0.04396852 0.25089145 -0.33912298 0.118686095
-0.23680998 -0.31088138 -0.074914314 -0.14849079 0.5753407 0.45151117 -0.30489966 -0.5467608
-0.040032383 0.46350157 0.2825978 0.06576105 0.5091249 -0.15018795 0.08165151 -0.3299325
0.4084036 0.07193636 0.40177357 -0.21343279 -0.3887631 0.09110035 -0.068113945 -0.26421615
0.21542573 -0.4347181 -0.005920858 -0.06719916 -0.0812526 0.12882663 0.16050807 0.07485024
-0.13351573 -0.19586612 -0.15527745 0.096111745 -0.4546553 0.5624817 0.4655162 -0.023648815
0.03234663 -0.21259008 -0.3898027 -0.048804708 -0.051002275 0.11797136 -0.23055018 0.4204125
-0.08314741 -0.22833751 -0.2577919 0.18575671 0.1523982 -0.25884432 0.15734546 0.02835908
-0.20484002 0.36446792 -0.39398655 0.12694278 0.32775542 0.0365955 -0.2596574 -0.31624168
-0.12520696 -0.025235917 0.07033583 0.08794607 -0.32195103 0.28614953 -0.3591345 0.12109041
-0.19370902 0.30495048 -0.23594211 -0.24213411 0.16180089 -0.33678383 0.32301408 0.24032763
0.20932864 0.23715861 0.10256073 0.24070099 -0.1542492 0.34208527 0.32954684 0.13765036
-0.38969526 -0.22130674 0.13590635 -0.43046808 -0.042124614 -0.33307025 -0.13743506 -0.06966783
0.23206587 0.21116853 0.023864713 -0.37231168 -0.32997727 -0.4210922 0.26755062 0.09020651
-0.4019806 -0.38725728 0.30671465 -0.0918978 0.017810745 -0.23565672 0.2447258 -0.04142254
-0.119393624 -0.3717448 -0.24270713 0.30287868 -0.032683823 -0.4371565 -0.38985935 0.152941
00000000: de36 09be b975 833e b575 a53d fa47 523d
00000010: b61d b0bd 89b7 ecbd 3afe 493e 50e9 5abe
00000020: d127 a53e 6a77 c4be 2393 c1be e3db 77be
00000030: a44f a23e 03ed 7fbe fc34 c1be efcb b7be
00000040: 7075 a2be 62ca b8be c930 0c3c 3caf 153e
00000050: 157a 39be 42b8 9dbd 5feb 6dbe 0f97 28be
00000060: 8dad a8be fb43 8d3e e15b 773e 890c bfbe
00000070: a03c 343e e50c ecbe 3840 773e b288 77be
00000080: 3312 8fbe 9d12 40be 2927 963e c4e1 a6bd
00000090: 8e94 a23e 396e d1be 8eb6 14be 6320 ca3e
000000a0: 02b4 aa3e 6ebd 30bd f446 e13c 3c3f d8be
000000b0: c540 213e 0002 593c fe76 f53e a25c 7b3e
000000c0: 4189 b8bd bf8c e03d 2ee6 98be 5e7c dabe
000000d0: 85ce 72bc eb02 93be 3b69 aa3e a597 5fbe
000000e0: cc38 e0be dc93 453e 91af d73e a034 f03e
000000f0: f703 863e 2f77 b8bc 58d9 1ebe acf4 b1bb
00000100: ef5b 973e 2f89 3bbe a817 87be 497b 93be
00000110: 0917 2f3e 774e df3d 7e44 14be fb7b 2d3b
00000120: b014 9d3e 0072 d63e a59f 853e 00fe f6bd
00000130: 3a21 94bd 5d2b d03e efa4 d03e f369 8bbe
00000140: c0f6 16bd 1f02 b53e 5570 abbc 6b52 d63e
00000150: 9cb3 35be e636 cf3e 045d 08bf 5967 36be
00000160: 8ae7 36be 5c7f 833e a0e4 b7be 1ffa ee3e
00000170: a683 3d3e 22f0 babe 66bd 193e 2863 acbd
00000180: ac93 573e df7d 933c 90f5 8e3d 8c94 c53e
00000190: ff7c c63e 1f03 d3be 6c76 b33e dc91 e03e
000001a0: 7bc5 643d a55e cebe c0f9 f5bd 7016 ca3d
000001b0: 8845 503e 5f99 903e 29ac 493e b81f debe
000001c0: 286c 943e 7257 c9be 1152 a03e 0796 c9be
000001d0: c64f b03e 5f8b 8a3e 1d50 0a3f 5ac6 dfbe
000001e0: 45ed 013f 71d0 8fbe 03d1 81be 023e 4ebe
000001f0: 3bb1 083f 7d9b f8bd 778f 8d3c ed78 363e
00000200: 6c92 ffbe 8e45 183c aac1 983c 07e5 b6be
00000210: 5618 343d d874 803e 87a1 adbe b211 f33d
00000220: 517e 72be d82b 9fbe ad6c 99bd f80d 18be
00000230: 8749 133f 792c e73e cf1b 9cbe 84f8 0bbf
00000240: fff8 23bd 1450 ed3e a9b0 903e bbad 863d
00000250: 0256 023f dfca 19be e838 a73d eaec a8be
00000260: 471a d13e 5f53 933d 44b5 cd3e 208e 5abe
00000270: f50b c7be d292 ba3d 537f 8bbd 5747 87be
00000280: 9098 5c3e 5f93 debe c203 c2bb b79f 89bd
00000290: c367 a6bd 21eb 033e 3a5c 243e 154b 993d
000002a0: 59b8 08be 2191 48be 0d01 1fbe 3cd6 c43d
000002b0: 94c8 e8be cdfe 0f3f 2458 ee3e 29bb c1bc
000002c0: e67d 043d 37b1 59be 3894 c7be 72e7 47bd
000002d0: c3e7 50bd f89a f13d 5915 6cbe 4f40 d73e
000002e0: 3049 aabd 4fd1 69be 4dfd 83be 0237 3e3e
000002f0: 460e 1c3e 3e87 84be 2b1f 213e 4d51 e83c
00000300: 95c1 51be 8a9b ba3e 9bb8 c9be 4afd 013e
00000310: 8fcf a73e 2ae5 153d d1f1 84be 6eea a1be
00000320: 4136 00be 8ebb cebc 3b0c 903d 121d b43d
00000330: c4d6 a4be 3182 923e 7ae0 b7be 40fe f73d
00000340: a85b 46be 7822 9c3e cf9a 71be 01f2 77be
00000350: 22af 253e ee6e acbe 1a62 a53e 7218 763e
00000360: 3f5a 563e b5d9 723e 5c0b d23d 527a 763e
00000370: 81f3 1dbe cd25 af3e 5dba a83e 37f4 0c3e
00000380: 2386 c7be 3c9e 62be 092b 0b3e 5066 dcbe
00000390: dc8a 2cbd 2f88 aabe c7bb 0cbe 02ae 8ebd
000003a0: ada2 6d3e 903c 583e ee7f c33c a39f bebe
000003b0: c8f2 a8be 6699 d7be 65fc 883e 31be b83d
000003c0: 67d0 cdbe 9646 c6be b409 9d3e ea34 bcbd
000003d0: d7e7 913c ff4f 71be 6699 7a3e aeaa 29bd
000003e0: a584 f4bd 5655 bebe 3888 78be ea12 9b3e
000003f0: 79df 05bd fad2 dfbe a59b c7be 919c 1c3e

root f4 [128, 128]
-0.1366003 0.036360417 -0.07609048 0.087593436 -0.02426508 0.073435165 -0.03997158 0.07919291
-0.014870159 -0.023966147 0.07478757 0.07948246 -0.06937494 0.027343612 0.14350368 0.07623907
-0.119630724 0.11135332 0.027850043 0.06306251 -0.14319727 0.0039240853 -0.13045886 0.040120073
-0.035360515 -0.06028978 -0.040419444 0.09548121 -0.023483947 -0.0447587 0.14690663 -0.13710861
-0.08188039 -0.021409791 -0.14908804 -0.08519358 0.10629934 -0.11623793 0.0100829415 0.068400726
0.119034104 0.040269278 -0.07645233 0.019318478 -0.121241726 0.1349414 0.0073931334 0.13299532
0.09152302 -0.09263813 -0.07334432 -0.10331096 0.10134255 0.14701755 0.0038869865 0.08273677
0.037622336 -0.10136237 -0.015945187 -0.067770556 0.123286225 0.12852754 0.029340576 0.01791252
-0.0372931 -0.06514698 0.17930944 -0.09756508 0.004113857 -0.060554784 0.022134453 -0.035822578
0.09310813 0.01761616 -0.051246326 -0.09312533 0.12312845 -0.0009204556 0.10379769 0.11032198
0.056957133 0.04361374 0.065944344 -0.13578579 -0.1523777 -0.12191811 0.1112788 0.036676068
-0.04045095 -0.06477958 -0.075985864 0.056914855 0.06237951 0.009062181 -0.056315497 0.14557765
0.11211619 -0.070247315 0.080640905 0.053762227 0.14704435 -0.14470705 0.011436138 -0.15331104
0.045336224 0.09669242 0.101286635 0.02401629 -0.09786848 0.00014044209 0.100957505 0.08239476
-0.15910658 0.0008507718 0.0026650373 -0.0399905 -0.11227866 0.028904444 -0.003837199 -0.04272879
0.1470216 0.06846009 0.012234961 -0.06053002 -0.10034179 0.06054044 0.03681652 0.09977072
-0.09228503 -0.08349404 -0.079684936 0.13784474 -0.07696033 -0.12067952 -0.010983684 -0.0010969868
0.055003352 0.1220359 0.08940101 -0.1156622 -0.11208035 0.13535129 0.02316013 0.1140533
-0.048343267 0.063989334 -0.10517913 -0.005060431 0.12803836 0.007790168 0.048188798 0.00882381
-0.13314538 -0.027563602 -0.017609691 0.09105527 0.060242914 -0.081430666 0.08275196 0.1538795
-0.10493977 -0.032496255 -0.020353772 0.07392312 -0.10727493 0.08718844 -0.10612648 0.012891562
0.015137912 -0.02144321 0.063356765 0.0019099497 -0.078125454 0.14067723 -0.080333866 0.013241465
0.06393634 -0.042570427 -0.09684252 0.087011755 0.13877162 -0.092283905 -0.061896354 0.029422246
0.05888077 -0.030444534 0.10437633 0.13469265 0.08925608 -0.13285702 0.12296098 -0.09788393
0.004517394 0.051422875 0.056403603 -0.09529428 0.041863423 -0.108267464 -0.05337149 0.14332777
0.1148676 -0.031347007 0.1142742 0.026547698 0.07688826 -0.017491028 0.13359557 -0.10555018
-0.046620693 0.12127913 -0.050466675 0.069403686 -0.06005603 -0.10931022 -0.03826051 -0.051977124
-0.098989874 0.15168539 0.030858785 0.10535172 0.06566682 0.08015242 0.08967425 0.029177733
0.078613 0.07359969 0.03613315 -0.08018058 -0.022550188 0.1483133 -0.10829916 -0.09353985
-0.09168684 0.059471026 -0.018067256 0.12782194 -0.032349914 -0.0951993 0.070597805 0.06395156
-0.06121478 -0.13134557 -0.08506106 0.0024875684 0.06267187 0.12857011 0.092722975 -0.105346985
0.13831434 0.11896015 0.14364335 0.06355029 0.09019343 0.031407285 0.07390985 0.07823503
00000000: f3e0 0bbe a9ee 143d 53d5 9bbd 3064 b33d
00000010: 90c7 c6bc 2d65 963d 3db9 23bd e42f a23d
00000020: f8a1 73bc a754 c4bc 3a2a 993d b3c7 a23d
00000030: 7314 8ebd b6ff df3c a1f2 123e 3b23 9c3d
00000040: f400 f5bd 360d e43d c625 e43c eb26 813d
00000050: 4ea2 12be 9d95 803b 0297 05be f254 243d
00000060: 30d6 10bd 6bf2 76bd dc8e 25bd a78b c33d
00000070: 6861 c0bc e654 37bd b16e 163e 3366 0cbe
00000080: e8b0 a7bd 9663 afbc 89aa 18be f979 aebd
00000090: 78b3 d93d 270e eebd ec32 253c ae15 8c3d
000000a0: 27c8 f33d 66f1 243d 0a93 9cbd c941 9e3c
000000b0: 954d f8bd 142e 0a3e 1942 f23b ed2f 083e
000000c0: 6c70 bb3d 0fb9 bdbd 8c35 96bd b294 d3bd
000000d0: af8c cf3d c58b 163e d0bc 7e3b e571 a93d
000000e0: e119 1a3d 1397 cfbd 7b9f 82bc 4acb 8abd
000000f0: 7d7d fc3d b99c 033e a65b f03c 47bd 923c
00000100: a6c0 18bd c86b 85bd e59c 373e 33d0 c7bd
00000110: 89cd 863b 4b08 78bd 5053 b53c b2ba 12bd
00000120: 7aaf be3d c44f 903c abe7 51bd 7eb8 bebd
00000130: c52a fc3d bb4a 71ba e293 d43d 7ef0 e13d
00000140: e24b 693d 52a4 323d d40d 873d 6e0b 0bbe
00000150: e608 1cbe 34b0 f9bd 24e6 e33d a539 163d
00000160: e5af 25bd 28ab 84bd 7a9e 9bbd 8d1f 693d
00000170: a881 7f3d 8b79 143c 14ab 66bd 4f12 153e
00000180: 2c9d e53d d3dd 8fbd 0f27 a53d c835 5c3d
00000190: cb92 163e 162e 14be a45e 3b3c 92fd 1cbe
000001a0: 7ab2 393d ad06 c63d 5e6f cf3d d0bd c43c
000001b0: 456f c8bd a343 1339 cfc2 ce3d 95be a83d
000001c0: d6ec 22be 5406 5f3a e8a7 2e3b 14cd 23bd
000001d0: 5bf2 e5bd 03c9 ec3c 8479 7bbb 6204 2fbd
000001e0: d58c 163e ce34 8c3d 2575 483c 54ee 77bd
000001f0: ff7f cdbd 41f9 773d ebcc 163d 9754 cc3d
00000200: efff bcbd ecfe aabd db31 a3bd 2c27 0d3e
00000210: 619d 9dbd d326 f7bd e9f4 33bc c5c8 8fba
00000220: 324b 613d f5ed f93d e017 b73d 4ee0 ecbd
00000230: 628a e5bd 8799 0a3e 50ba bd3c c794 e93d
00000240: 9703 46bd d70c 833d 2868 d7bd f9d1 a5bb
00000250: 7d1c 033e aa44 ff3b 9e61 453d be91 103c
00000260: 4357 08be 10cd e1bc 3342 90bc 2f7b ba3d
00000270: 46c1 763d 1fc5 a6bd dc79 a93d 9692 1d3e
00000280: aaea d6bd cb1a 05bd f4bc a6bc 0165 973d
00000290: f5b2 dbbd da8f b23d d758 d9bd 2137 533c
000002a0: 0105 783c aca9 afbc 31c1 813d 4757 fa3a
000002b0: 3d00 a0bd b10d 103e 1586 a4bd bbf2 583c
000002c0: 0ef1 823d 545e 2ebd 5f55 c6bd 3833 b23d
000002d0: 261a 0e3e 58ff bcbd 0887 7dbd ec06 f13c
000002e0: f62c 713d d166 f9bc 42c3 d53d dfec 093e
000002f0: e4cb b63d ac0b 08be f7d2 fb3d 5f77 c8bd
00000300: a606 943b cba0 523d 7707 673d a629 c3bd
00000310: fb78 2b3d 55bb ddbd 109c 5abd 84c4 123e
00000320: b43f eb3d b865 00bd 9708 ea3d 8f7a d93c
00000330: 9877 9d3d 5849 8fbc 47cd 083e b12a d8bd
00000340: 57f5 3ebd 3161 f83d 25b6 4ebd 8523 8e3d
00000350: 50fd 75bd 09de dfbd 0db7 1cbd f7e5 54bd
00000360: 34bb cabd 6a53 1b3e 90cb fc3c a4c2 d73d
00000370: 537c 863d f426 a43d 22a7 b73d 2406 ef3c
00000380: daff a03d 6fbb 963d 5b00 143d b735 a4bd
00000390: 2cbb b8bc 71df 173e f3cb ddbd d291 bfbd
000003a0: 4fc6 bbbd e497 733d c801 94bc c1e3 023e
000003b0: 5881 04bd daf7 c2bd 9595 903d 09f9 823d
000003c0: 59bc 7abd 747f 06be 7e34 aebd 7906 233b
000003d0: 1c5a 803d e2a7 033e 8be5 bd3d 29c0 d7bd
000003e0: 46a2 0d3e 61a1 f33d 3e17 133e a826 823d
000003f0: 55b7 b83d eda4 003d 0c5e 973d b039 a03d

bias f4 [128]
0.00066032796 -0.00050695357 -0.00059906853 0.003736518 -0.0011706478 -0.0017186059 0.00029059558 -0.009491983
-0.0070163026 0.0013072493 0.008353547 -0.00015378094 -0.0028397643 -0.003953887 0.016310772 0.007908349
0.004041613 -0.0017764994 -0.0036023338 0.00015721854 0.00250174 0.000221549 0.0011835685 0.0019545723
-0.011627461 -0.0001278533 -0.0007237571 -0.0048461338 0.010425066 0.0056231217 0.0053370306 -0.009028502
-0.00061170285 0.009086939 -0.00785554 -0.0010643635 -0.00024803414 0.0037730702 0.005987042 0.011651155
0.0044830916 -0.0030287597 0.0056821085 -0.0034502004 0.0028754612 -0.0008078086 -0.00029094503 0.0040204274
0.0049217218 0.001194839 -0.0026498027 0.0034342036 -0.00017726795 -0.008690626 -0.0047894623 -0.008393078
0.0026684685 -0.0049179704 -0.00829122 0.008595151 -0.0058762617 -0.0019448913 0.0063490244 -0.00197025
0.008345595 -0.0016797425 -0.0044859177 0.013201775 0.00081993506 -0.0033766727 0.0033321201 0.0023146858
0.0020684486 -0.008971224 0.0050430032 -0.009853925 -0.0081647085 0.0004035971 0.005999853 0.00015933813
-0.008812422 0.0065031108 -0.0037977481 0.012229062 0.006804602 0.0071846046 -0.0018310881 -0.011799133
-0.004041117 -2.88122e-05 0.0017284378 0.0025706887 0.00037381164 0.003178782 -0.0047843233 -0.002124481
0.0054197465 0.004958336 0.0034150626 -0.0024879093 0.0006870556 -0.0050494536 0.0037799077 0.0018931625
-0.0025047043 0.0028998756 -0.0039187307 -0.00072549743 -0.0044578975 -0.00452438 -0.005064222 0.0005886661
0.0071294247 -0.00037898857 0.005417101 0.0006569566 -0.0068082507 -0.0010450167 0.004482122 0.0031159716
-0.0013031063 0.014873366 -0.0046875346 -0.0022011122 -0.0012499768 0.008064166 0.0011789047 0.0054756333
00000000: dc19 2d3a 14e5 04ba cf0a 1dba 5fe0 743b
00000010: 6c70 99ba d842 e1ba 145b 9839 4384 1bbc
00000020: 03e9 e5bb 0258 ab3a 51dd 083c 4240 21b9
00000030: 571b 3abb 9c8f 81bb 2b9e 853c 0592 013c
00000040: 826f 843b 6ed9 e8ba 2215 6cbb 08db 2439
00000050: 3bf4 233b 9b4f 6839 f821 9b3a 4818 003b
00000060: 1b81 3ebc 5c10 06b9 84ba 3dba 51cc 9ebb
00000070: e5cd 2a3c 2a42 b83b 42e2 ae3b 48ec 13bc
00000080: af5a 20ba 62e1 143c 86b4 00bc 1d82 8bba
00000090: 940a 82b9 9d45 773b f32e c43b 7ce4 3e3c
000000a0: e6e6 923b 287e 46bb fb30 ba3b c21c 62bb
000000b0: 3c72 3c3b 1ec3 53ba fb89 98b9 cabd 833b
000000c0: 6546 a13b 259c 9c3a 50a8 2dbb 6010 613b
000000d0: 01e1 39b9 2163 0ebc ecf0 9cbb 1f83 09bc
000000e0: 79e1 2e3b ed26 a1bb e6d7 07bc add2 0c3c
000000f0: a88d c0bb b9eb feba 7a0b d03b 4f1f 01bb
00000100: f6bb 083c ce2a dcba 9bfe 92bb 424c 583c
00000110: e9f0 563a 2b4b 5dbb b35f 5a3b fcb1 173b
00000120: cf8e 073b 0afc 12bc c73f a53b 5b72 21bc
00000130: 45c5 05bc e399 d339 6a9a c43b 0114 2739
00000140: fa61 10bc 0c18 d53b a4e3 78bb 675c 483c
00000150: 24f9 de3b d56c eb3b 1f01 f0ba 2751 41bc
00000160: 596b 84bb bab1 f1b7 c08c e23a 0079 283b
00000170: 26fc c339 1d53 503b d0c5 9cbb e03a 0bbb
00000180: 2198 b13b 8979 a23b 3ecf 5f3b 310c 23bb
00000190: 851b 343a e375 a5bb 54b8 773b fe23 f83a
000001a0: f725 24bb d70b 3e3b b268 80bb 4f2f 3eba
000001b0: 8e13 92bb 4041 94bb c6f1 a5bb b750 1a3a
000001c0: f39d e93b fcb2 c6b9 f081 b13b 9c37 2c3a
000001d0: bf17 dfbb f1f8 88ba c4de 923b 5435 4c3b
000001e0: fecc aaba 6baf 733c e499 99bb 8940 10bb
000001f0: 43d6 a3ba 901f 043c 7a85 9a3a f16c b33b
