MHIM/pretrain/redial/9-epoch.pth (torch, 594192 bytes, 4 tensors)

weight f4 [8, 128, 128]
-0.029480897 0.16555634 0.12624548 -0.033445116 -0.16765873 -0.0011383633 0.081173144 0.09791001
0.0036185617 0.051965144 0.07746892 -0.12424596 0.06669171 0.1019853 0.09676782 0.026076159
0.05615193 0.098161325 0.03862298 -0.16373447 0.16832761 -0.12722228 0.13641591 -0.0013298368
-0.03467321 -0.12634008 -0.21670704 0.14111571 -0.12191187 -0.07012408 0.05650409 -0.04434947
0.09241569 -0.1039114 0.050767515 -0.13146733 -0.07740696 -0.16415378 0.07152674 0.044389166
0.017077558 0.14853866 0.13296786 0.050668184 -0.035901513 -0.19551958 0.08737245 0.028355777
0.12503335 0.1476746 -0.12744099 0.15260641 -0.11357269 0.06134549 -0.014049835 0.1011484
-0.04068578 -0.02417307 0.039265346 0.16201676 -0.015715292 0.15300058 -0.044174746 -0.014223288
0.15776122 0.1750603 0.07097725 0.061364695 -0.046840757 -0.11221313 0.086333215 0.08196375
0.0031861593 -0.19744113 -0.15685932 -0.08479844 -0.048922736 0.050651558 -0.17518052 -0.03111289
0.13084467 0.13992754 0.11324783 -0.08008409 0.17809714 -0.03459877 -0.17879005 -0.13980909
0.007973639 -0.08087811 -0.12443015 -0.109677106 -0.037873898 -0.08087063 -0.015963845 -0.11661078
0.008540545 -0.13642482 0.18289004 0.20378749 0.11678364 0.15585399 -0.03992792 0.14194347
-0.042410336 -0.03809321 -0.058357358 0.14082159 0.025736013 -0.11783171 -0.082405604 0.17043741
0.104496956 0.044340335 -0.13336284 -0.19445834 -0.079711206 -0.17524275 0.14120765 -0.111288965
-0.068820775 -0.18082519 0.027101371 0.012082625 -0.03500834 -0.09671468 0.11137175 -0.043709148
0.10718587 0.09932288 -0.036658436 0.025972396 -0.15708128 0.1743403 0.06596101 0.020632744
-0.003089762 -0.080024466 0.15640256 -0.09571462 0.08293571 0.11256562 0.018454794 -0.14943673
0.10681895 0.04168559 -0.06623726 -0.090863444 -0.008408934 -0.034835428 0.14340268 -0.11388667
0.12590742 -0.028041098 0.07221029 0.025143698 -0.036597867 0.019775867 0.0028549794 0.16179875
-0.16362754 -0.08891149 0.010321502 -0.017269008 0.104093164 0.09257986 -0.014214494 -0.023269963
-0.1266683 0.15795706 -0.02092995 0.11079713 -0.03900179 0.13279004 -0.13024704 -0.13956602
-0.07712184 0.023581995 -0.04708424 -0.1447695 0.08671199 -0.16930635 0.09571962 0.021417713
0.12157281 -0.1366481 -0.16317602 0.112564035 -0.12343191 0.014169939 0.09889324 -0.0031335687
0.07439473 -0.16791055 -0.12088176 0.1511244 -0.12983605 -0.0011261232 -0.028717104 0.07095762
0.10909543 -0.026652347 -0.026147336 -0.05019597 -0.123170875 -0.03027 0.17131786 -0.16739081
-0.1505582 -0.123619735 -0.02902601 -0.07681475 0.029800652 -0.003886947 -0.11513984 0.09123819
0.17603756 -0.040188946 -0.008803635 0.1366351 -0.00023496013 -0.05584114 0.026819838 -0.07825498
-0.039685093 0.09393344 -0.10480545 -0.049062587 0.010844034 -0.13704477 -0.072987 0.10716146
0.062331412 -0.19549485 -0.031044865 0.047926903 -0.07896369 0.16036268 -0.10012172 -0.14704947
0.030894632 -0.13984762 -0.09385957 0.14475009 0.075022474 -0.105488226 -0.04925362 0.0027368024
0.14787696 -0.10271531 0.036258403 0.17172931 0.0068006045 -0.11711682 -0.14027303 -0.07240815
00000000: ec81 f1bc 9a87 293e 7f46 013e bffd 08bd
00000010: bbae 2bbe 2235 95ba 1b3e a63d 0b85 c83d
00000020: 6425 6d3b 67d9 543d 06a8 9e3d aa74 febd
00000030: aa95 883d abdd d03d 352e c63d ab9d d53c
00000040: 91ff 653d ce08 c93d 2133 1e3d 02aa 27be
00000050: 135e 2c3e 8f46 02be 9db0 0b3e eb4d aeba
00000060: 7f05 0ebd 4b5f 01be 73e8 5dbe a380 103e
00000070: eeac f9bd 379d 8fbd d570 673d caa7 35bd
00000080: 7044 bd3d 80cf d4bd 99f1 4f3d 5f9f 06be
00000090: 8a87 9ebd ee17 28be 9d7c 923d 6ad1 353d
000000a0: 3ce6 8b3c 851a 183e ba28 083e 7189 4f3d
000000b0: 770d 13bd 4936 48be 54f0 b23d 604a e83c
000000c0: be08 003e 0338 173e e47f 02be db44 1c3e
000000d0: cc98 e8bd 6945 7b3d 4731 66bc e426 cf3d
000000e0: 22a6 26bd 9a06 c6bc b3d4 203d b9e7 253e
000000f0: 5bbd 80bc 2fac 1c3e 94f0 34bd cb08 69bc
00000100: 288c 213e 0243 333e 855c 913d 8c59 7b3d
00000110: 18dc 3fbd ffcf e5bd 78cf b03d 9cdc a73d
00000120: e2ce 503b 022e 4abe bb9f 20be ceaa adbd
00000130: 3563 48bd 0278 4f3d 8662 33be 76e0 febc
00000140: 25fc 053e 2a49 0f3e 7aee e73d 2103 a4bd
00000150: 195f 363e 71b7 0dbd bd14 37be 1d2a 0fbe
00000160: dea3 023c 6ca3 a5bd 3cd5 febd 649e e0bd
00000170: a921 1bbd 809f a5bd 9cc6 82bc a2d1 eebd
00000180: a4ed 0b3c f3b2 0bbe 8747 3b3e abad 503e
00000190: 432c ef3d 3098 1f3e 758b 23bd a159 113e
000001a0: 76b6 2dbd a007 1cbd 2008 6fbd 8933 103e
000001b0: 55d4 d23c c051 f1bd 45c4 a8bd 2587 2e3e
000001c0: 8002 d63d 369e 353d 4590 08be 1620 47be
000001d0: a13f a3bd d672 33be bd98 103e 78eb e3bd
000001e0: e8f1 8cbd 3d2a 39be b203 de3c 34f6 453c
000001f0: e864 0fbd 5912 c6bd df16 e43d 5d08 33bd
00000200: 4484 db3d cb69 cb3d 2827 16bd 10c4 d43c
00000210: ead9 20be 4386 323e 9116 873d 0006 a93c
00000220: 9b7d 4abb dee3 a3bd fe27 203e 0706 c4bd
00000230: 33da a93d ce88 e63d 822e 973c f105 19be
00000240: e5c3 da3d 82be 2a3d 67a7 87bd 9d16 babd
00000250: a0c5 09bc 98af 0ebd 27d8 123e 6a3d e9bd
00000260: e0ed 003e 72b6 e5bc fde2 933d 28fa cd3c
00000270: a5e7 15bd 0001 a23c 9b1a 3b3b 92ae 253e
00000280: fa8d 27be 3a17 b6bd 841b 293c bc77 8dbc
00000290: cc2e d53d 829a bd3d e9e3 68bc a6a0 bebc
000002a0: 56b5 01be 7fbf 213e 4975 abbc 9be9 e23d
000002b0: 57c0 1fbd 1dfa 073e 7b5f 05be 65ea 0ebe
000002c0: 0ef2 9dbd 072f c13c 67db 40bd 753e 14be
000002d0: 0e96 b13d a55e 2dbe a608 c43d 3374 af3c
000002e0: 2afb f83d 7bed 0bbe 9d17 27be f987 e63d
000002f0: dfc9 fcbd 0829 683c 8a88 ca3d 8f5c 4dbb
00000300: 445c 983d bef0 2bbe db90 f7bd 5bc0 1a3e
00000310: bef3 04be 6d9a 93ba 2240 ebbc 3b52 913d
00000320: 6d6d df3d 0656 dabc f032 d6bc 4a9a 4dbd
00000330: 0341 fcbd cbf8 f7bc f36d 2f3e 7f68 2bbe
00000340: ee2b 1abe 582c fdbd f4c7 edbc 0d51 9dbd
00000350: 7f20 f43c 26bc 7ebb 70ce ebbd 17db ba3d
00000360: 3143 343e 2a9d 24bd 1f3d 10bc 12ea 0b3e
00000370: a15f 76b9 aeb9 64bd 47b5 db3c 2644 a0bd
00000380: d68c 22bd 2d60 c03d 3da4 d6bd daf5 48bd
00000390: 2dab 313c 7755 0cbe 357a 95bd 7877 db3d
000003a0: 394f 7f3d cd2f 48be cd51 febc 004f 443d
000003b0: b7b7 a1bd 1d36 243e 9e0c cdbd 2394 16be
000003c0: bd16 fd3c 3734 0fbe 7239 c0bd 5e39 143e
000003d0: 62a5 993d 360a d8bd 2abe 49bd ed5b 333b
000003e0: 0f6d 173e 685c d2bd b183 143d cfd9 2f3e
000003f0: 9bd7 de3b f1da efbd bca3 0fbe b94a 94bd

comp f4 [39, 8]
-0.13429858 0.25718164 0.081109926 0.051214144 -0.086839676 -0.11470699 0.19794133 -0.21321769
0.32314917 -0.3852183 -0.37946603 -0.24287495 0.31690657 -0.25106883 -0.37696397 -0.36009827
-0.31574973 -0.35872224 0.009087273 0.14559114 -0.18009412 -0.07902075 -0.23034854 -0.16681418
-0.32576916 0.27578047 0.23940128 -0.3721054 0.17209065 -0.45677435 0.23924184 -0.24436489
-0.28059483 -0.18838863 0.29249126 -0.0846337 0.31787932 -0.40987557 -0.14530256 0.39437264
0.3372933 -0.045053158 0.026413575 -0.4260896 0.1604566 0.009758606 0.48135716 0.2453532
-0.08820955 0.11244234 -0.30091658 -0.42853856 -0.016517732 -0.28782496 0.3330416 -0.22213788
-0.4398322 0.19553702 0.42057848 0.4695259 0.26088738 -0.02211447 -0.15324128 -0.00548907
0.29632267 -0.18496558 -0.26744953 -0.28912514 0.1731371 0.10719582 -0.145492 -0.0012870319
0.30823848 0.41710111 0.26072085 -0.12200575 -0.06992474 0.4054508 0.40611872 -0.27445146
-0.037040494 0.35656655 -0.0196327 0.42065322 -0.1787432 0.40704182 -0.5373549 -0.17759599
-0.17902735 0.25809214 -0.3625352 0.46919298 0.18601497 -0.36849055 0.14946516 -0.08414387
0.21224488 0.018635621 0.06857482 0.38568527 0.3900218 -0.41536817 0.34967402 0.43895325
0.05700094 -0.40916893 -0.12118503 0.09685761 0.20370513 0.28615052 0.19916023 -0.43723312
0.29029983 -0.39509717 0.3100426 -0.39597687 0.34343287 0.27112368 0.5401883 -0.43664128
0.5109203 -0.281705 -0.25437826 -0.20267744 0.5369016 -0.120377965 0.016904349 0.18171676
-0.50028336 0.009910297 0.018538 -0.35828254 0.044891536 0.24879554 -0.33953807 0.120859735
-0.23760997 -0.3118845 -0.07392082 -0.14982401 0.5792737 0.4561573 -0.303258 -0.5510258
-0.040643092 0.46665964 0.2831501 0.06337269 0.51324093 -0.15034603 0.07839423 -0.33408317
0.40661898 0.0724651 0.40269586 -0.21901605 -0.38895047 0.08973788 -0.06468883 -0.26146612
0.21900709 -0.4371457 -0.009407624 -0.06760708 -0.08452025 0.13314009 0.15899909 0.07414683
-0.1374424 -0.19873199 -0.15521759 0.09184123 -0.45543355 0.5636906 0.4679175 -0.025039567
0.033369713 -0.20868705 -0.38855892 -0.04938851 -0.050938994 0.11888593 -0.23023733 0.42000678
-0.07968038 -0.22397022 -0.2549466 0.18436837 0.15082447 -0.2572702 0.15743098 0.026290553
-0.20528781 0.36425936 -0.39683965 0.12507476 0.32873368 0.034871623 -0.25896814 -0.3180264
-0.124009594 -0.024436817 0.07073239 0.086906314 -0.32013237 0.28446472 -0.35863152 0.119832814
-0.19492914 0.30553064 -0.23704919 -0.24613906 0.16187568 -0.3390746 0.3224298 0.24170284
0.20546632 0.24070619 0.10609026 0.24350467 -0.15109378 0.3403803 0.32545927 0.13753612
-0.39412725 -0.22201061 0.1359403 -0.4325891 -0.044323172 -0.33194593 -0.13900155 -0.07350582
0.23432861 0.21115562 0.025430853 -0.37318754 -0.3277102 -0.42332494 0.26548222 0.09115559
-0.40263182 -0.38861722 0.3048677 -0.09289136 0.0177255 -0.2331728 0.241769 -0.044155207
-0.11650096 -0.36973205 -0.24312662 0.30305338 -0.03511825 -0.4388663 -0.3905477 0.15052868
00000000: 9185 09be 50ad 833e f61c a63d ecc5 513d
00000010: 00d9 b1bd 80eb eabd 22b1 4a3e bd55 5abe
00000020: cf73 a53e 553b c5be 5f49 c2be 36b4 78be
00000030: 9441 a23e 188c 80be 6c01 c1be cd5e b8be
00000040: f3a9 a1be 71aa b7be c9e2 143c d815 153e
00000050: 986a 38be a2d5 a1bd 7de0 6bbe 56d1 2abe
00000060: 37cb a6be 1933 8d3e 9c25 753e 9984 bebe
00000070: 8838 303e 54de e9be d0fb 743e ca3a 7abe
00000080: 20aa 8fbe f3e8 40be 6ac1 953e 6f54 adbd
00000090: 14c1 a23e 36db d1be 32ca 14be 36eb c93e
000000a0: b5b1 ac3e a989 38bd 4861 d83c 6b28 dabe
000000b0: bc4e 243e 8fe2 1f3c 7274 f63e df3d 7b3e
000000c0: 35a7 b4bd 2b48 e63d bd11 9abe 6869 dbbe
000000d0: 3250 87bc cb5d 93be 6e84 aa3e 1d78 63be
000000e0: b031 e1be db3a 483e 1056 d73e b365 f03e
000000f0: 0893 853e 6829 b5bc 48eb 1cbe a8dd b3bb
00000100: 9bb7 973e 9e67 3dbe 25ef 88be 3608 94be
00000110: da4a 313e 7b89 db3d dbfb 14be a0b1 a8ba
00000120: 6fd1 9d3e 478e d53e 347d 853e 27de f9bd
00000130: b434 8fbd 3f97 cf3e cbee cf3e e784 8cbe
00000140: c6b7 17bd e48f b63e c2d4 a0bc dc5f d73e
00000150: 7508 37be c967 d03e 1790 09bf b9db 35be
00000160: f252 37be a724 843e 379e b9be 103a f03e
00000170: b57a 3e3e cbaa bcbe 650d 193e 9f53 acbd
00000180: b956 593e bba9 983c f570 8c3d 8a78 c53e
00000190: f0b0 c73e 23ab d4be 7908 b33e 7bbe e03e
000001a0: d179 693d 977e d1be db2f f8bd 485d c63d
000001b0: 1498 503e 5282 923e a9f0 4b3e 05dd dfbe
000001c0: 2ea2 943e 2d4a cabe e7bd 9e3e 7bbd cabe
000001d0: 6fd6 af3e b9d0 8a3e c849 0a3f 728f dfbe
000001e0: accb 023f a33b 90be de3d 82be ad8a 4fbe
000001f0: 6272 093f b988 f6bd fd7a 8a3c f513 3a3e
00000200: 9212 00bf cc5e 223c 01dd 973c cf70 b7be
00000210: 30e0 373d 42c4 7e3e efd7 adbe 4f85 f73d
00000220: 0750 73be 53af 9fbe cd63 97bd 776b 19be
00000230: 484b 143f 738d e93e a244 9bbe 0710 0dbf
00000240: 5f79 26bd 03ee ee3e 0df9 903e 8ac9 813d
00000250: c263 033f 4ff4 19be 278d a03d f30c abbe
00000260: 5d30 d03e 9568 943d 272e ce3e be45 60be
00000270: 8424 c7be 7ec8 b73d 947b 84bd e3de 85be
00000280: 6543 603e 90d1 dfbe 6f22 1abc 9575 8abd
00000290: f418 adbd e055 083e a8d0 223e 4bda 973d
000002a0: b3bd 0cbe 6680 4bbe 5cf1 1ebe 4117 bc3d
000002b0: 962e e9be 074e 103f e292 ef3e c71f cdbc
000002c0: aeae 083d 0fb2 55be 32f1 c6be 9b4b 4abd
000002d0: 68a5 50bd 777a f33d 56c3 6bbe 210b d73e
000002e0: 782f a3bd 7358 65be 5c88 82be 10cb 3c3e
000002f0: bb71 1a3e ebb8 83be 9635 213e 495f d73c
00000300: f836 52be 3480 ba3e 912e cbbe 9913 003e
00000310: c84f a83e 8cd5 0e3d 7997 84be 5bd4 a2be
00000320: bef8 fdbd b82f c8bc 25dc 903d f0fb b13d
00000330: 64e8 a3be 5ca5 913e 8d9e b7be e86a f53d
00000340: 819b 47be 836e 9c3e 06bd 72be e10b 7cbe
00000350: bdc2 253e 309b adbe 8515 a53e f380 773e
00000360: c365 523e af7b 763e da45 d93d 4a59 793e
00000370: 54b8 1abe 5446 ae3e 99a2 a63e 45d6 0c3e
00000380: 0ccb c9be c056 63be ef33 0b3e 527c ddbe
00000390: 378c 35bd d1f4 a9be 6c56 0ebe 388a 96bd
000003a0: d7f3 6f3e 2e39 583e 5d54 d03c 7012 bfbe
000003b0: a2c9 a7be 0cbe d8be 49ed 873e c8af ba3d
000003c0: c225 cebe d6f8 c6be 9f17 9c3e d33d bebd
000003d0: 1135 913c dac4 6ebe 4b92 773e 17dc 34bd
000003e0: 0e98 eebd 854d bdbe 2ff6 78be d029 9b3e
000003f0: 27d8 0fbd 15b3 e0be def5 c7be 3124 1a3e

root f4 [128, 128]
-0.13873287 0.034875754 -0.07890003 0.08477778 -0.020067738 0.06989502 -0.03922869 0.08012409
-0.012334 -0.021631632 0.07376563 0.078271754 -0.06906642 0.026408223 0.14418042 0.07638066
-0.118732184 0.11063924 0.029332587 0.06614559 -0.14100128 0.0042592515 -0.12868504 0.042248093
-0.033806935 -0.066584215 -0.041530218 0.09103259 -0.021594485 -0.04734445 0.14627342 -0.1384448
-0.076459646 -0.021996625 -0.14879891 -0.08582623 0.102992155 -0.11672779 0.011176117 0.06753382
0.120402865 0.03489553 -0.07472067 0.018088605 -0.119750105 0.13527155 0.0063659833 0.13081917
0.08839232 -0.093211144 -0.07093318 -0.10465214 0.10205604 0.14648995 0.0020748647 0.079831176
0.041315243 -0.10205233 -0.018800255 -0.07088538 0.12618412 0.13265558 0.030584434 0.016907284
-0.035818443 -0.065831564 0.1798536 -0.09859429 0.008499849 -0.05768651 0.020497134 -0.035758298
0.09079344 0.017432494 -0.051349126 -0.091727614 0.12003746 -0.0032680098 0.101073146 0.11052943
0.05593061 0.044248935 0.064151816 -0.13702227 -0.15249485 -0.11992561 0.11141788 0.03452863
-0.040452275 -0.067124635 -0.07793951 0.055909246 0.064029165 0.009322459 -0.060338248 0.14224084
0.11374073 -0.068686254 0.07959232 0.052142993 0.14630768 -0.14399943 0.010063377 -0.14879045
0.047641814 0.09760354 0.103244066 0.02161897 -0.09679265 0.0018103516 0.10109218 0.07958687
-0.15661305 0.0051098685 0.0044955956 -0.041341297 -0.110924944 0.03046225 -0.004847125 -0.039253227
0.142446 0.0681118 0.0145471115 -0.06008307 -0.09903522 0.060819767 0.032123793 0.09834172
-0.09249369 -0.083244935 -0.07941746 0.13815157 -0.07742325 -0.120469764 -0.011295988 -0.00078573823
0.055076912 0.12264748 0.088199005 -0.115861885 -0.11197982 0.13474154 0.023184083 0.1140904
-0.04810844 0.06426496 -0.10515669 -0.0049012783 0.12864809 0.007471916 0.04834524 0.008653055
-0.1330614 -0.027336089 -0.016467635 0.09184702 0.060595237 -0.08172498 0.082731284 0.1540544
-0.10538879 -0.032318022 -0.020873528 0.07442335 -0.10735982 0.087441176 -0.105496444 0.012793048
0.01469436 -0.021800766 0.06254031 0.002259168 -0.07752312 0.14046966 -0.081421904 0.014186332
0.064304896 -0.042493287 -0.09728159 0.08659489 0.138922 -0.09220903 -0.061058547 0.029202143
0.058727972 -0.029482042 0.10509849 0.13471802 0.08913479 -0.13273564 0.12239697 -0.09779052
0.0038923873 0.05185536 0.055873994 -0.095265895 0.042308327 -0.107483886 -0.053787313 0.14358544
0.115190595 -0.030409675 0.11435771 0.026736097 0.07695799 -0.017950337 0.13334666 -0.10588128
-0.045664236 0.121535346 -0.04994773 0.06895663 -0.059886724 -0.1090336 -0.03834656 -0.052185792
-0.098043755 0.1516063 0.032159302 0.10545069 0.06469355 0.07975891 0.090035014 0.02905563
0.07982846 0.072542645 0.03584588 -0.07948037 -0.02296766 0.14879942 -0.10883212 -0.09404631
-0.090862595 0.05971503 -0.01943734 0.12867157 -0.032604046 -0.09458881 0.0701202 0.063295335
-0.062208906 -0.13149162 -0.085970946 0.0024129783 0.06301658 0.12849481 0.09255893 -0.10498667
0.13889156 0.11901036 0.14336963 0.06350512 0.09010107 0.030898312 0.07354074 0.07807546
00000000: fd0f 0ebe e1d9 0e3d 5796 a1bd f99f ad3d
00000010: 1965 a4bc 1f25 8f3d 43ae 20bd 1918 a43d
00000020: 8c14 4abc d234 b1bc 6f12 973d f14c a03d
00000030: b272 8dbd 0f56 d83c 08a4 133e 776d 9c3d
00000040: dc29 f3bd d396 e23d e54a f03c 5777 873d
00000050: a462 10be 3191 8b3b 03c6 03be 560c 2d3d
00000060: 2479 0abd 4e5d 88bd 971b 2abd 4b6f ba3d
00000070: ebe6 b0bc 41ec 41bd b3c8 153e 79c4 0dbe
00000080: e096 9cbd 4432 b4bc be5e 18be aac5 afbd
00000090: 8ded d23d fb0e efbd 081c 373c 2c4f 8a3d
000000a0: c795 f63d 9eee 0e3d 2707 99bd 8e2e 943c
000000b0: 8b3f f5bd a084 0a3e bd99 d03b 76f5 053e
000000c0: 0807 b53d 7ce5 bebd 6a45 91bd dc53 d6bd
000000d0: c202 d13d 7601 163e 74fa 073b 877e a33d
000000e0: 2c3a 293d d000 d1bd fe02 9abc 5b2c 91bd
000000f0: 6936 013e ddd6 073e 358c fa3c 2581 8a3c
00000100: 5cb6 12bd b3d2 86bd 8b2b 383e ceeb c9bd
00000110: f342 0b3c b148 6cbd 9be9 a73c 4b77 12bd
00000120: e9f1 b93d 97ce 8e3c 7653 52bd b0db bbbd
00000130: 33d6 f53d 1b2c 56bb 70ff ce3d 415d e23d
00000140: 7f17 653d 5f3e 353d 0762 833d 914f 0cbe
00000150: 9c27 1cbe 8f9b f5bd 0f2f e43d e56d 0d3d
00000160: 49b1 25bd a478 89bd c09e 9fbd 1801 653d
00000170: b921 833d 3abd 183c 3d25 77bd 95a7 113e
00000180: e6f0 e83d 61ab 8cbd 4c01 a33d e493 553d
00000190: aed1 153e 9674 13be dde0 243c 865c 18be
000001a0: 1024 433d 5de4 c73d a071 d33d 441a b13c
000001b0: 3a3b c6bd 5249 ed3a 6b09 cf3d 71fe a23d
000001c0: 2c5f 20be af70 a73b ca4f 933b 7e55 29bd
000001d0: 9e2c e3bd f88b f93c a2d4 9ebb fec7 20bd
000001e0: 5ddd 113e 337e 8b3d 0257 6e3c aa19 76bd
000001f0: fad2 cabd 261e 793d 3d94 033d 6267 c93d
00000200: 556d bdbd 527c aabd 9fa5 a2bd 9b77 0d3e
00000210: 1590 9ebd dab8 f6bd cf12 39bc 00fa 4dba
00000220: 5498 613d 9a2e fb3d aea1 b43d ff48 edbd
00000230: ad55 e5bd b0f9 093e 8cec bd3c 3aa8 e93d
00000240: 5b0d 45bd 599d 833d 645c d7bd e79a a0bb
00000250: 53bc 033e f9d6 f43b a905 463d 8bc5 0d3c
00000260: 3f41 08be efef dfbc 22e7 86bc 4a1a bc3d
00000270: b632 783d 6d5f a7bd 056f a93d 70c0 1d3e
00000280: 14d6 d7bd e75f 04bd f6fe aabc 456b 983d
00000290: 77df dbbd 5c14 b33d 850e d8bd ef99 513c
000002a0: 9dc0 703c 8597 b2bc 2215 803d 8d0e 143b
000002b0: 71c4 9ebd 47d7 0f3e 87c0 a6bd ca6d 683c
000002c0: 49b2 833d 710d 2ebd 923b c7bd a958 b13d
000002d0: 9241 0e3e 17d8 bcbd 8718 7abd 5539 ef3c
000002e0: be8c 703d 5384 f1bc e13d d73d 85f3 093e
000002f0: 4d8c b63d daeb 07be 43ab fa3d 6546 c8bd
00000300: 6c17 7f3b 4966 543d 21dc 643d c41a c3bd
00000310: 7f4b 2d3d 8320 dcbd 1650 5cbd 1008 133e
00000320: 0ce9 eb3d b61d f9bc 6034 ea3d a905 db3c
00000330: 279c 9d3d 960c 93bc 078c 083e 49d8 d8bd
00000340: 6c0a 3bbd 86e7 f83d fe95 4cbd 2239 8d3d
00000350: c84b 75bd 024d dfbd 4811 1dbd c5c0 55bd
00000360: 2acb c8bd af3e 1b3e 79b9 033d 88f6 d73d
00000370: 0d7e 843d a458 a33d 4764 b83d 1306 ee3c
00000380: 1b7d a33d 3d91 943d 21d3 123d 9bc6 a2bd
00000390: ad26 bcbc e05e 183e 60e3 debd 5a9b c0bd
000003a0: 2b16 babd bf97 743d 0e3b 9fbc 7bc2 033e
000003b0: d28b 05bd c7b7 c1bd 2e9b 8f3d fca0 813d
000003c0: c4ce 7ebd bda5 06be 8911 b0bd 0f23 1e3b
000003d0: d60e 813d 2594 033e 898f bd3d 4003 d7bd
000003e0: 9739 0e3e b4bb f33d 7dcf 123e f90e 823d
000003f0: e986 b83d 751e fd3c 879c 963d 07e6 9f3d

bias f4 [128]
0.001217833 0.00014816794 -0.0005872764 0.0032777274 -0.0006578458 -0.0017249351 0.0012630604 -0.009261182
-0.0070728846 0.0009911165 0.008778685 0.00015895437 -0.0031287048 -0.0028673501 0.01581634 0.007008693
0.004002654 -0.0020429273 -0.0028595526 -0.00014030623 0.0020562906 0.00014677928 0.00093162723 0.0017622596
-0.01112967 -0.00031385006 -0.0012950327 -0.004925315 0.009881834 0.005597154 0.004627605 -0.008176113
0.00018577912 0.0075891344 -0.0071322243 -0.0016638556 -0.00060708023 0.002961163 0.0048621157 0.01056714
0.0045042676 -0.0028770103 0.005135601 -0.0035393299 0.0028981015 -0.0007383999 0.0009532474 0.0030334601
0.0049206563 0.00062543905 -0.0031811348 0.0030393025 -0.0002467025 -0.00790994 -0.0045822742 -0.008504401
0.002037802 -0.0051722378 -0.007863413 0.007732062 -0.006400061 -0.003031673 0.0064095804 -0.0023304294
0.008676273 -0.0012810698 -0.003923941 0.012659394 0.0013393208 -0.0035757176 0.0033339555 0.0016325003
0.002200339 -0.009437618 0.0045986413 -0.008731026 -0.0073185842 0.0010253383 0.0065197973 0.0007571665
-0.0092685465 0.00608624 -0.0033899304 0.01187497 0.0072056167 0.0072384304 -0.0013518255 -0.010666716
-0.0045375605 0.00017242816 -0.00028909935 0.002291101 0.0020482019 0.003477059 -0.0045552943 -0.0010055316
0.005228375 0.0054001217 0.0035239325 -0.0025782657 0.0012591917 -0.005467579 0.004411179 0.002894861
-0.0029765149 0.001979153 -0.0028419802 -0.0011733869 -0.0037048673 -0.004549371 -0.004833032 0.00082773675
0.00663481 -0.00045431493 0.005228002 0.0007180416 -0.0070080217 -0.0009055433 0.0050786557 0.0033587022
-0.0017198031 0.013896468 -0.0037052128 -0.0020432465 -0.0008318659 0.0077468446 0.0015968649 0.0056185545
00000000: b29f 9f3a 875d 1b39 74f3 19ba 24cf 563b
00000010: 4973 2cba 3817 e2ba 468d a53a 36bc 17bc
00000020: a8c3 e7bb 5ae8 813a 79d4 0f3c fdac 2639
00000030: f50a 4dbb 27ea 3bbb 4591 813c 2ea9 e53b
00000040: b228 833b a2e2 05bb 5567 3bbb 2b1f 13b9
00000050: d5c2 063b c3e8 1939 7238 743a 9ffb e63a
00000060: 3859 36bc 3e8c a4b9 16be a9ba 8964 a1bb
00000070: 6ae7 213c 5568 b73b 2aa3 973b 1af5 05bc
00000080: b4cd 4239 46ae f83b 6fb5 e9bb bb15 daba
00000090: 7724 1fba 1210 423b 6252 9f3b cc21 2d3c
000000a0: 8998 933b 398c 3cbb 8b48 a83b 1af4 67bb
000000b0: 13ee 3d3b 2e91 41ba 5ae3 793a 04cd 463b
000000c0: 753d a13b 81f4 233a 967a 50bb 092f 473b
000000d0: d957 81b9 b198 01bc e726 96bb 0b56 0bbc
000000e0: a58c 053b e07b a9bb 8bd5 00bc 3d5d fd3b
000000f0: 9ab7 d1bb 08af 46bb 7507 d23b 1eba 18bb
00000100: ed26 0e3c 92e9 a7ba 6794 80bb 5969 4f3c
00000110: 268c af3a 9656 6abb 7e7e 5a3b 9ff9 d53a
00000120: 9033 103b 3da0 1abc 33b0 963b 940c 0fbc
00000130: bcd0 efbb a564 863a 06a4 d53b 957c 463a
00000140: 1adb 17bc 156f c73b 9829 5ebb 3c8f 423c
00000150: 181d ec3b 5b30 ed3b bd2f b1ba 73c3 2ebc
00000160: d1af 94bb d5cd 3439 4292 97b9 4c26 163b
00000170: 203b 063b 5fdf 633b 9444 95bb 0bcc 83ba
00000180: ca52 ab3b 81f3 b03b c7f1 663b 1ff8 28bb
00000190: 760b a53a 6029 b3bb a78b 903b b5b7 3d3b
000001a0: a211 43bb adb4 013b 8440 3abb 55cc 99ba
000001b0: 5ccd 72bb e412 95bb 695e 9ebb 79fc 583a
000001c0: d268 d93b 1e31 eeb9 a94f ab3b f53a 3c3a
000001d0: 8ca3 e5bb fb61 6dba da6a a63b ac1d 5c3b
000001e0: 046b e1ba 03ae 633c 28d3 72bb fde7 05bb
000001f0: 9311 5aba 3ed9 fd3b e54d d13a da1b b83b
