Contrast/save/redial/2-epoch.pth (torch, 594192 bytes, 4 tensors)

weight f4 [8, 128, 128]
00000000: def5 25bd ea5d 203e ccb6 dd3d e25a a8bc
00000010: 7b26 47be a9f3 45bc a360 c03d be4e 873d
00000020: 8ebb 8dbc f76d 633d eef7 8c3d 628b 00be
00000030: 3b98 7e3d c013 c33d a124 ab3d 20c2 1a3d
00000040: 0abe 443d 6492 be3d fcc2 233d ec5f 20be
00000050: c28f 213e 822e f6bd a245 f33d 8c83 52bc
00000060: 9e49 e3bb bdc2 21be ef68 27be e1de 183e
00000070: c10a e9bd fd8f 99bd 636d 683d 5f66 82bd
00000080: 09a4 be3d d490 a0bd 4991 163c 4562 ccbd
00000090: 80e9 babd 0057 10be 3a43 983d 6580 863d
000000a0: 2613 923c 4af6 123e fb3e 023e b4f0 8a3d
000000b0: 5ec6 42bd a06c 21be 6dc3 a03d 9464 25bb
000000c0: af4b f23d 647d 0a3e 8a2d 1fbe ab43 093e
000000d0: 446e c0bd 026e a53d 917a 04bc 808a 9f3d
000000e0: 61f9 27bd 37f1 68bb 0afa 723d 5838 183e
000000f0: c6c0 91bc 679d 233e d68c 893c 17a5 413b
00000100: c480 0e3e f849 283e 6ee3 9b3d b97e 6c3d
00000110: dc77 05bd 8b67 ebbd 431a 2f3d c899 753d
00000120: f3c8 d73c d8c2 27be dac1 dabd 5213 9fbd
00000130: 16d9 00bd 3d73 ae3c 9876 22be a956 dbbc
00000140: d830 013e 2a1b 183e c891 c43d 6613 b7bd
00000150: b930 2a3e f666 05bd 0934 41be ba2c 12be
00000160: ff12 a33b d386 7ebd 9ecb e0bd 0113 fdbd
00000170: 0875 2bbd 63cb 42bd 2e47 1abd 521b 02be
00000180: 9461 073d 5543 03be 3d17 4a3e 9aa7 283e
00000190: fa99 f73d 0143 153e da54 8dbd f9ad 113e
000001a0: 5b04 57bd 6621 11bc d0bc a1bd f902 233e
000001b0: 5cf0 f83c 924e 04be d8d5 a4bd 9bbf 2d3e
000001c0: 03d6 c33d 879f 483d c31e 1ebe 06e3 5abe
000001d0: eba0 bcbd 988b 2dbe 7928 103e 52fa dfbd
000001e0: 9ca3 d6bd d265 1ebe 06ae 013d 98ca 3a3c
000001f0: 83d7 05bd 5380 abbd d466 003e 5fda f3bc
00000200: c070 003e a653 ea3d f7e5 e1bc 20f7 783c
00000210: 2d12 00be d0f5 1f3e 6429 723d 13e8 9039
00000220: 6489 59bc 7149 81bd 6f44 083e c781 bbbd
00000230: 5474 953d 17d5 de3d cd27 373d 1866 1ebe
00000240: 62c8 cd3d 3378 453d abda 4ebd 86a6 b7bd
00000250: de31 c5bc eba6 83bc b75e 073e 4ff0 d3bd
00000260: 60e9 ef3d dd09 2dbc d0de 643d 27f8 d33b
00000270: 2521 1cbd f97a 913c 3e49 3f3b b0dc 153e
00000280: 7c9b 1bbe cfa1 cabd 8661 ea3c c005 80bb
00000290: a3ce 973d f163 b63d 13ef a1ba 78ad 70bc
000002a0: 2f7f ebbd 42d4 163e 148f 86bc 8b02 c33d
000002b0: 18c1 02bd 1cb3 173e 7921 0ebe d57f 04be
000002c0: ec43 a8bd 0d11 92ba 33df 44bd b8b3 0fbe
000002d0: 1ffe c13d d0d0 0cbe 74a0 9a3d 06ab e7ba
000002e0: 1d5e f33d 8e23 05be d3fe 23be 4a1b d43d
000002f0: bccb ccbd 384d 103c 9935 b53d 8fd4 a4bb
00000300: c9b2 983d 90a3 12be 00ff 0ebe 9353 0e3e
00000310: 5cdb 0abe 811d 553c d0f2 97bc 3be3 953d
00000320: d91c 033e deb4 f3bc cfd8 abbc 96a1 52bd
00000330: ed3b c2bd 22de 10bd 25d7 ee3d c601 2ebe
00000340: 6068 1dbe 776b dcbd 981f c3bc 32f5 07bd
00000350: c838 253d 6e58 8a3c 6d6a d6bd 7662 663d
00000360: 82f4 2f3e 683b 64bd 9507 643b ab66 2c3e
00000370: 250d c13c 642f 5cbd 8a07 c33b 65ed 84bd
00000380: f5f5 9abc 50d6 c43d 71b7 adbd c880 38bd
00000390: c6d4 253b 3b32 02be 069b 87bd 235b c03d
000003a0: e6d1 953d 6778 29be bb3f 01bd 4fda e13c
000003b0: ae55 38bd 26bd 1d3e 1d23 f0bd 3b57 14be
000003c0: 45a8 033d e9a7 1cbe 9ded eabd 4b61 f73d
000003d0: 3194 b83d bbca d7bd cf2c 7fbd 6d1b 31bb
000003e0: 6742 0f3e 3ada d2bd 3fda 393c bed2 2d3e
000003f0: bc59 c13c f7c7 d3bd 57be 09be 145a 7bbd
-0.04051768 0.15660825 0.10825881 -0.020551149 -0.19448273 -0.012082019 0.09393432 0.06606816
-0.017301347 0.055524793 0.06883226 -0.1255317 0.062156897 0.095252514 0.08356596 0.03778279
0.048032798 0.093052655 0.039980873 -0.15661591 0.15777496 -0.120205894 0.11878516 -0.012848746
-0.006936266 -0.15796943 -0.16348623 0.14928772 -0.11379004 -0.07498167 0.056744944 -0.06367182
0.09308631 -0.07840124 0.009189912 -0.09979681 -0.09126568 -0.14095688 0.074346974 0.06567458
0.017831396 0.14351764 0.12719338 0.06784192 -0.04755246 -0.15764093 0.078497745 -0.0025236951
0.11830842 0.13524395 -0.15544716 0.1340472 -0.093960315 0.08077623 -0.008085863 0.07790089
-0.04100931 -0.0035544166 0.059320487 0.14865243 -0.017792117 0.15978013 0.016790789 0.0029547864
0.13916308 0.16434467 0.07611738 0.05773804 -0.03258501 -0.11494359 0.042749655 0.05996111
0.026340937 -0.1638292 -0.106815055 -0.07767357 -0.03145703 0.021295184 -0.15865552 -0.026774721
0.12616289 0.14854112 0.09598118 -0.08939247 0.16620149 -0.032568894 -0.18867506 -0.14274874
0.0049766297 -0.062140297 -0.10976337 -0.1235714 -0.041859657 -0.047557246 -0.03766554 -0.12705734
0.033052042 -0.12818654 0.19735427 0.16470185 0.120899156 0.14576341 -0.0690095 0.14226522
-0.052494388 -0.00885806 -0.07897341 0.15919103 0.03038805 -0.12920597 -0.080486 0.16967623
0.09562304 0.048980262 -0.15441422 -0.21375665 -0.0921038 -0.16947782 0.14077939 -0.10936417
-0.10480425 -0.15468529 0.031660102 0.011400841 -0.03267623 -0.08374085 0.12539226 -0.029767213
0.1254301 0.11441736 -0.027575476 0.015195638 -0.12506934 0.15621114 0.059121504 0.0002763873
-0.013277385 -0.06312836 0.13307355 -0.091556124 0.072975785 0.108804874 0.04471569 -0.15468633
0.100479856 0.048210334 -0.050501507 -0.08967309 -0.02407163 -0.016070804 0.13219725 -0.103485696
0.117144346 -0.010561434 0.055876553 0.006468791 -0.038117547 0.017758833 0.0029187943 0.14634967
-0.15196031 -0.09894144 0.028610956 -0.0039069355 0.0741246 0.08905781 -0.0012354575 -0.014689796
-0.11498868 0.14729407 -0.016425647 0.095219694 -0.03192243 0.14814419 -0.13879956 -0.12939389
-0.0821608 -0.0011143998 -0.04806442 -0.14033401 0.09472298 -0.1375153 0.07550135 -0.001767487
0.11883185 -0.13001844 -0.16015176 0.103567675 -0.09999797 0.008807473 0.088481136 -0.005030222
0.074559756 -0.14320207 -0.13964462 0.13899069 -0.13560241 0.013007523 -0.0185484 0.073187314
0.12803973 -0.02974933 -0.020977406 -0.05142363 -0.09484086 -0.035368092 0.11662129 -0.16992864
-0.15371847 -0.10762685 -0.023818776 -0.03319282 0.040337354 0.01688787 -0.10469518 0.056246243
0.17183116 -0.055720717 0.0034794558 0.1683604 0.023565838 -0.053756133 0.0059518265 -0.06490592
-0.01891611 0.09611189 -0.08482254 -0.04504469 0.0025303825 -0.12714474 -0.06621365 0.09392383
0.073154256 -0.16549836 -0.03155492 0.027569918 -0.045003586 0.15404186 -0.11725447 -0.14486401
0.032142896 -0.15298428 -0.114711024 0.12079104 0.0901264 -0.10536715 -0.062298592 -0.0027024404
0.13990174 -0.1029553 0.011343538 0.16974923 0.023602359 -0.10340875 -0.13451515 -0.061365202

comp f4 [39, 8]
00000000: a9f7 03be 7cf6 8a3e 25ea 663d 05ec f73c
00000010: 5c31 6abd 01cf 18be 3489 443e e8ff 84be
00000020: 5a3b a93e d16b c2be b6b5 c1be 9ce9 82be
00000030: 590d b43e 22dc 8abe 77b2 bebe 876d bcbe
00000040: 237b 9fbe e35c bcbe c8e0 cebb f546 133e
00000050: 58c1 42be c485 9bbd 65d3 83be c7e5 3dbe
00000060: dcef 90be 9f87 863e 41dc 883e 5b8f b2be
00000070: f627 523e 894d d2be 5e65 843e f3c2 49be
00000080: d44b 8dbe 7e32 42be a4db 8f3e 7be0 a4bd
00000090: 107e 9b3e 059f c4be 2dee 12be d1fc b83e
000000a0: 4400 853e b0a8 47bd 2844 803b b9d3 afbe
000000b0: 0458 f23d ab30 213d 0564 b53e 48bd 523e
000000c0: 3808 c5bd b32a 833d f05e 92be 1564 c3be
000000d0: 86a3 97bd 4029 61be 48e9 893e 2828 ccbd
000000e0: 1a5f d2be 7795 393e 5981 c53e 17fa cc3e
000000f0: 0529 3f3e 7c7a 0b3c 04f1 cdbd 28cf 983d
00000100: ed09 ae3e de62 73be cb60 9bbe 59c5 b8be
00000110: a7e9 583e a078 033e 3d4c 30be cbf6 debc
00000120: df3e 903e b20e ba3e 9d47 873e ee11 e3bd
00000130: 379e d2bd ae03 c53e d0b3 c03e 68c7 5abe
00000140: 59e0 07bd dee4 733e 14a5 40bc 24de 9f3e
00000150: 4608 27be f9f7 aa3e 067b d4be 5417 ecbd
00000160: 27cd d1bd e412 2c3e 3d38 83be 15e4 af3e
00000170: 6383 e53d 6e24 7ebe f75d ba3d a37e aabc
00000180: ed06 4f3e 3c1a a13c ac5c 9d3d 8950 b73e
00000190: c478 b83e 747b ccbe 4c51 a33e 4b5c d43e
000001a0: 94cc 813d 8671 98be 1deb cfbd 44c4 aa3d
000001b0: 426e 093e bcf9 693e 663c 073e 97bf 9abe
000001c0: 525c 873e 0c90 a1be ef29 743e 7534 b6be
000001d0: 822b 8b3e 1647 7c3e eb2e d93e 7370 b1be
000001e0: ab0d d63e 267b 7ebe 1564 67be 1d10 40be
000001f0: 6396 d23e 9c06 a9bd 34d5 61bc bfa3 ee3d
00000200: 05cd d7be 7f3a 02bd bee9 f03c 6b23 9ebe
00000210: 6d1f b43c 8f4c 663e 9573 97be 79cb b83d
00000220: e36d 23be b397 87be 8c76 d0bd 16c4 09be
00000230: 4f00 dd3e cb6c b23e aca1 81be 079e c9be
00000240: d697 07bb cd3f a43e 09cd 443e 3d05 583d
00000250: d925 c13e dfa0 97bd f9de 423d c877 4ebe
00000260: 988c ab3e dabe 4f3d b0ed 9e3e a94e 44be
00000270: c0ed a0be 09fd 0f3e 70df 94bd 6fcd 4ebe
00000280: 9c0c 303e 9001 babe fcbd 93bc 44d4 9bbd
00000290: ed6d b7bd 0d47 003e 1d0b 083e d10e b03d
000002a0: 7d6d a0bd 56f7 30be d0c6 0abe e0fc 063d
000002b0: 950f b2be f4c0 dd3e 20e9 aa3e 876b c63c
000002c0: 500f 173d af58 6abe 9c09 bebe 12fc 2ebd
000002d0: edc6 6dbd 6c05 f03d a492 7abe 0d61 bf3e
000002e0: f074 c4bd 4179 7fbe a48d 96be c335 613e
000002f0: 7fa2 503e 6a48 a4be 92eb 323e faf4 e23c
00000300: 656d 2abe 3c40 8c3e c79a b6be 6b97 d83d
00000310: 2083 9c3e 0cc6 533d 5aad 83be 4d38 92be
00000320: 7e80 f1bd dc1d 03bd bc2e 8a3d c26d c53d
00000330: 6741 b9be 288a a33e 3b28 bbbe ae47 183e
00000340: 7740 62be 9456 a63e a852 78be 69d6 8fbe
00000350: c0dc 473e d2eb bdbe 4f5c bc3e c51e 893e
00000360: fb89 6c3e b398 403e dbea 793d 7f96 1e3e
00000370: 5970 64be 60ae bd3e ab10 9e3e 40d1 3b3e
00000380: 3d5e 91be 4a6a 77be 6d28 be3d 2cb5 b0be
00000390: 06fa 19bd 10d5 7ebe b840 1bbe 4e0b 393b
000003a0: 6ec2 723e 9a2c 673e abf0 583d 7483 b4be
000003b0: 11ad 9bbe c1cb c1be e943 853e 755d ae3d
000003c0: a4cc b8be 733d b7be 8391 803e d068 d8bd
000003d0: f69b 12bc 79de 58be ae6a 6c3e 71a5 553c
000003e0: a1b8 cbbd 93e7 acbe 07a5 7fbe 32e0 8b3e
000003f0: 84e5 59bd 6a1c b2be a151 b5be d6c9 3a3e
-0.12887444 0.27141178 0.05637564 0.03026391 -0.05717598 -0.14922716 0.19192964 -0.2597649
0.33053094 -0.37972882 -0.37833947 -0.25568855 0.35166433 -0.27121073 -0.37245533 -0.36802313
-0.31148633 -0.36789617 -0.006313417 0.14382537 -0.19019067 -0.07593873 -0.2574722 -0.18544684
-0.28307998 0.26275346 0.2673054 -0.34874997 0.20523056 -0.4107478 0.25858587 -0.19703273
-0.27596915 -0.18964574 0.2809726 -0.08050629 0.30369616 -0.38402572 -0.1434867 0.36130384
0.25976765 -0.048744857 0.003914375 -0.3434122 0.11833194 0.039353054 0.3542787 0.20580018
-0.09620708 0.064046286 -0.28588057 -0.38162294 -0.074042365 -0.21988392 0.26935792 -0.09968597
-0.41088182 0.18123423 0.38575247 0.40034553 0.18667991 0.008513089 -0.10055736 0.07461387
0.33991948 -0.23768184 -0.30347285 -0.36088064 0.21182881 0.12838984 -0.17216583 -0.02721729
0.28172967 0.36339337 0.26421824 -0.11087404 -0.10284083 0.3847937 0.37637186 -0.2136513
-0.03317294 0.23817775 -0.011758108 0.31224167 -0.1631175 0.33392313 -0.4150011 -0.11527887
-0.10244208 0.16804081 -0.25628844 0.343537 0.11206701 -0.24818584 0.090999536 -0.020812338
0.20217486 0.01966583 0.076836914 0.3580363 0.36029637 -0.39937937 0.31897962 0.41476664
0.06337848 -0.29774112 -0.10152266 0.08338216 0.13420966 0.22849172 0.13206634 -0.30224296
0.26437622 -0.31555212 0.23844121 -0.35586897 0.2718163 0.24636492 0.42418608 -0.34656104
0.41807303 -0.24851665 -0.22596772 -0.18756147 0.4113036 -0.08253214 -0.013783742 0.11652326
-0.42148605 -0.031794067 0.029408332 -0.30886397 0.021987641 0.22490142 -0.2958037 0.09023184
-0.15959887 -0.26482925 -0.10178861 -0.13453707 0.43164298 0.34848627 -0.25318658 -0.39378378
-0.0020689867 0.32079926 0.1921884 0.05273937 0.37724188 -0.074037306 0.047575925 -0.2016288
0.33505702 0.05071912 0.31040716 -0.19170631 -0.3143139 0.14061369 -0.0726918 -0.20195554
0.1719231 -0.36329317 -0.018034928 -0.07608846 -0.089565136 0.12527104 0.1328549 0.08596576
-0.07833383 -0.17281851 -0.13552403 0.032956004 -0.34777513 0.43311274 0.33380985 0.024221195
0.036879838 -0.22885393 -0.37116706 -0.04272086 -0.05805104 0.11719784 -0.24470001 0.3737873
-0.095926166 -0.24948598 -0.29404938 0.21993165 0.20374487 -0.32086498 0.17472675 0.027704705
-0.16643293 0.27392757 -0.3566496 0.10575756 0.3056879 0.051702544 -0.25718194 -0.2855858
-0.11792086 -0.032010898 0.06747195 0.09640075 -0.3618271 0.31941342 -0.3655413 0.14871094
-0.22094904 0.3248793 -0.24250281 -0.2809327 0.19517803 -0.3709398 0.36789176 0.26781288
0.2309951 0.1880825 0.06101499 0.15487097 -0.22308482 0.370471 0.30872092 0.18341541
-0.2839221 -0.2416164 0.09285054 -0.34513223 -0.037591957 -0.24885964 -0.15161407 0.0028235498
0.23706982 0.22575608 0.052963894 -0.3525654 -0.30405477 -0.37850764 0.26028374 0.08513919
-0.36093628 -0.3578907 0.25111017 -0.105668664 -0.008948317 -0.21178617 0.2308757 0.013039933
-0.099473245 -0.33770427 -0.24965297 0.27319485 -0.0531974 -0.34787303 -0.3541384 0.18241057

root f4 [128, 128]
00000000: a383 21be 793b 553d 509f e4bc 30dc a13d
00000010: 9383 38bd e36f 783d f927 d8bc b89a 1e3d
00000020: 79ff d5bc ef70 5fbd 77c9 d03d 1841 8e3d
00000030: e611 49bd 6ce7 0e3d 528b 0b3e ece1 ed3d
00000040: 949e d9bd c20a df3d 2bde 463c c8f5 073d
00000050: fac8 15be 8533 1ebc 69a0 05be 04ec 753d
00000060: 445f 1cbd a546 a1bd 6ff9 61bd bae0 f33d
00000070: 2496 cabc e0ba 11bc ffc3 f03d 244a 15be
00000080: 3992 a9bd 37f6 7ebd 922d 00be 3156 fcbd
00000090: f4f9 ef3d 49f3 01be a9c1 843c 3dd1 cc3d
000000a0: 0acf 153e edf5 6a3d 7207 81bd 8482 8d3c
000000b0: 9406 28be 5fc1 1c3e d7e2 0abd 044b 183e
000000c0: 9d72 f83d 75cc c4bd f490 76bd e214 92bd
000000d0: 33f7 d93d ff53 0c3e daa7 fd3b 0bc3 f43d
000000e0: c7ac 0d3d 4d9f 04be 6dd7 78bc b321 92bd
000000f0: e3e7 c03d b55f 363e d5ea 5a3d 497f 0c3d
00000100: 60d7 bfbc 7c0c 59bd 4f5b 253e b4a7 e7bd
00000110: c822 4fbb 414a 99bd 6b97 8f3b df6a 31bd
00000120: 8140 be3d 5da9 2c3d 89ca 3cbd 1043 d4bd
00000130: 183d 0d3e 266a a73c 5587 b83d 1e56 ef3d
00000140: 2506 643d c1f5 b73d f717 423d 59ed 15be
00000150: 8676 1cbe f0ff 1ebe f37b f13d 00e6 013d
00000160: 485b 93bd 9b94 a7bd 9e58 b5bd e307 983c
00000170: 41a7 183d 706d fcbb d1ff 48bd 9013 113e
00000180: 94bc c03d f05d bcbd 65cb bb3d c036 953d
00000190: a906 333e 16d8 14be 2a5a b73c eec9 d8bd
000001a0: ea09 363d 1aaa 7c3d 8f44 063e 7cdb 853c
000001b0: eec8 f6bd 29ab d53b a64d 9f3d 1f54 963d
000001c0: e081 09be 7652 373d 4b16 0b3c 755a 30bd
000001d0: 446f 0dbe c7f2 1d3d 9e49 09bc 8cd9 9dbd
000001e0: 3c07 153e 43b5 af3d 8feb 3bba ae5c abbd
000001f0: 5b96 ffbd 2a6f a83d c635 c33d fc17 e83d
00000200: 8095 b0bd 41cc adbd 32a1 acbd 1efe 0f3e
00000210: 5152 acbd 6962 f9bd 5573 bdbb ab98 c1bb
00000220: 553b 573d 5737 fc3d 04db b93d b0c1 f8bd
00000230: b368 e5bd ba18 083e fe5e e93c 75d8 f73d
00000240: 2265 4abd b324 793d 5e6e d9bd 80ec 3cba
00000250: d7f3 073e 1fcd 613c 770b 483d 42a5 543c
00000260: 0056 0abe 8b5b e3bc 4395 7abc 88b4 bc3d
00000270: 019f 7e3d ff48 b2bd 4d9a b23d beac 163e
00000280: c901 d1bd e7e2 06bd fabe bfbc beff a53d
00000290: c3bd dcbd ee59 b83d 0f7a d0bd 75a5 763c
000002a0: 3f87 d83c cffe bfbc 2537 8c3d 09fe c739
000002b0: d2a0 94bd 3c26 143e 7ea0 9cbd 974d 8a3c
000002c0: 4828 7d3d ca59 39bd 28e1 babd 34c0 bb3d
000002d0: 588b 0d3e 7684 c4bd b7c2 83bd 7d90 e33c
000002e0: 9e05 673d a6ec 05bd b0d8 d03d 64d4 0c3e
000002f0: 9983 b63d 8468 0bbe 11d6 ff3d 718c cabd
00000300: 61ca 2e3c 0e4d 343d 44cc 593d f6b5 b9bd
00000310: b0d1 103d 871d e4bd 75d4 4fbd 669e 0f3e
00000320: d667 e83d bc0b 14bd ba1c fa3d ffba c83c
00000330: 47c3 973d 5ec3 bfbc 03e7 093e 5140 dcbd
00000340: fa66 51bd 08fd f93d 2e23 56bd 2ab9 963d
00000350: 35e0 84bd f730 e2bd 85dd 13bd 3ee5 74bd
00000360: 1d3e cebd 27a4 1a3e e8fc 1c3d bf28 d93d
00000370: f2f1 893d 2ac7 a43d 88a5 b43d 8fe5 bf3c
00000380: 032d 973d 1e61 a13d de69 323d 1be8 99bd
00000390: ca5b a8bc 6cd7 183e 0b44 dcbd b967 c2bd
000003a0: 2c48 c4bd cc0d 803d e8b0 50bc 87b1 073e
000003b0: fa40 11bd 5f9a ccbd a233 8a3d f842 883d
000003c0: a551 72bd 650e 04be e0d9 afbd c65e 02ba
000003d0: 8604 7d3d e40a ff3d 5b7e bf3d 69a4 d9bd
000003e0: a1dd 0c3e 3f7b 013e 1b34 183e 92fb 823d
000003f0: 11e1 b73d 2283 103d a994 943d 266a a63d
-0.15772872 0.05205867 -0.027907997 0.079033256 -0.045047354 0.06065358 -0.026386248 0.03872177
-0.026122795 -0.05455106 0.10194676 0.069460094 -0.049089335 0.03488867 0.13627365 0.11615357
-0.106259495 0.10890724 0.01213793 0.03319338 -0.14627448 -0.009655838 -0.13049473 0.060039535
-0.03817679 -0.078748025 -0.05516952 0.119080976 -0.024729796 -0.008894652 0.11756133 -0.14579064
-0.08279843 -0.062246528 -0.12517384 -0.12321127 0.11717597 -0.12690462 0.016205626 0.100008465
0.1462976 0.05736344 -0.06300248 0.017274149 -0.1640876 0.1530814 -0.033907738 0.14872366
0.12131236 -0.096093096 -0.06019683 -0.07132889 0.10642853 0.13703917 0.0077409567 0.11951264
0.0345886 -0.12951393 -0.01518808 -0.07135334 0.09419229 0.17809947 0.05344661 0.034301076
-0.023418128 -0.05299042 0.16148113 -0.11311284 -0.0031606425 -0.07484866 0.004382064 -0.04331481
0.09289647 0.042153705 -0.04609159 -0.10364354 0.13792837 0.020436358 0.090101875 0.116863474
0.055669922 0.08982421 0.047386136 -0.14641322 -0.15279588 -0.1552732 0.117912196 0.031713486
-0.07195145 -0.08182641 -0.08854793 0.018558448 0.03726888 -0.0077034757 -0.04907209 0.14167619
0.094109684 -0.09197605 0.09169654 0.07285833 0.1748301 -0.14535555 0.02238186 -0.1058539
0.04444305 0.06168566 0.1311209 0.01634001 -0.12050043 0.006520648 0.07778482 0.073402636
-0.1342845 0.044756375 0.008489202 -0.043055017 -0.13811976 0.03856161 -0.008379368 -0.077075094
0.14553541 0.08579495 -0.0007168585 -0.083672866 -0.1247985 0.08224328 0.09531741 0.113327
-0.08622265 -0.08486224 -0.08429183 0.14061782 -0.08414138 -0.121769734 -0.005781571 -0.005908092
0.052546818 0.12315243 0.09074977 -0.12146318 -0.112016104 0.13290682 0.028487679 0.12101833
-0.049412854 0.060826015 -0.10616754 -0.0007206872 0.13276611 0.013781815 0.04883906 0.012978854
-0.13509369 -0.027753612 -0.015294376 0.09214121 0.062163357 -0.08705329 0.08720837 0.14714333
-0.102054186 -0.032931235 -0.023406494 0.081054196 -0.10778382 0.09001528 -0.10179531 0.0150540965
0.026431678 -0.023436932 0.068464555 0.0003814551 -0.072572365 0.1446771 -0.07647799 0.0168827
0.061805993 -0.045251645 -0.091249764 0.09167519 0.13822687 -0.095955774 -0.06433623 0.027778858
0.05640184 -0.03269639 0.1019758 0.13752896 0.08911819 -0.13614088 0.12492002 -0.09890068
0.010668368 0.044018798 0.05317332 -0.090679094 0.035356224 -0.111384444 -0.050739724 0.14025268
0.1134793 -0.036144003 0.122125104 0.02450323 0.07410293 -0.023408588 0.1346703 -0.10754455
-0.051123597 0.12206465 -0.052279644 0.07359536 -0.064880766 -0.110444956 -0.03609993 -0.059788935
-0.10070441 0.15101682 0.038327128 0.10603475 0.067356005 0.080458 0.08820635 0.023424892
0.07381632 0.07879852 0.043557994 -0.07514974 -0.020551581 0.14925927 -0.10755166 -0.0949244
-0.09584078 0.062526315 -0.01273749 0.13251315 -0.035462357 -0.099903814 0.067481294 0.06653398
-0.059159894 -0.12896116 -0.08586478 -0.0004973229 0.061771892 0.12453249 0.09350272 -0.10627062
0.1375642 0.12644671 0.14863627 0.063956395 0.08978475 0.035281308 0.07254917 0.08125715

bias f4 [128]
00000000: c39e 773a 8dd3 073b 0d05 bdba d68d 773b
00000010: f25e 8eba ab38 723a 4e43 003b 32f6 35bb
00000020: 2d10 91bb 911a d53a 51b7 d13b 244f 573b
00000030: 192d 07bc 0bff 3abb 84d2 813c 7637 2d3b
00000040: 8953 af3b c079 32bb 513c b1ba f95b 72bb
00000050: 44cc 4d3b d2f2 e7ba e133 fb3a acbc 84b8
00000060: bd8e 15bc c141 cc3a f459 2cbb 4dd7 64bb
00000070: ea73 f83b 067f b83b b3c5 a93a 6431 98bb
00000080: a997 83ba 0d81 753b 7fe0 0fbb 5930 deba
00000090: c934 15b9 dd6e 843b 0a53 ac3b d564 283c
000000a0: 93b4 ed3a a2bd 68bb 9de6 283a 11c7 1ebb
000000b0: 25b0 263b b21f ac3b da00 c3b9 7aac 233a
000000c0: 73e3 f23b d895 85bb c187 29bb 697a 85ba
000000d0: 1549 d93b 300a 9bbb 4eac cabb 47af b6bb
000000e0: 9170 a73b 38a7 b2bb 26c8 edba 4b5c 473b
000000f0: b3b8 d2bb dba2 a8bb 1cd4 943b 16fc bb3a
00000100: 290d ac3b 7fb5 59bb 40b2 52bb d9f3 093c
00000110: 17b3 2b39 fafd 74bb 91b3 3f3a a245 8b3b
00000120: 371b b73a 3004 83bb e421 2c3b 701c 11bc
00000130: 8890 91bb 7a39 163b 2aaa 5d3b f2a2 62ba
00000140: 32ce 8abb a1e4 a63b 7628 c0bb a530 2a3c
00000150: 100d e93b 9ab2 bf3b 6e16 04bb 2428 9dbb
00000160: 2366 f13a 539f 59bb dca6 4db9 0c1c 8c3b
00000170: 9c27 853b 0cb9 073b 3e76 5abb 7643 00b8
00000180: fa42 843b 273b 2f3b 8f58 ae3b 0ec1 aaba
00000190: 3b9c 813b 6292 c2bb 91d0 2e3b 125a 833b
000001a0: bae1 aabb 3a22 993b a8d5 09bb a3f9 d5ba
000001b0: 1b8a 4abb 64e5 38bb 5fe7 b6bb 00d4 ca3a
000001c0: 8e2d c93b 7b6d 2eb9 53d0 283b e25d 743a
000001d0: 7e39 27bc 0f93 84b9 2277 d63a 8f30 6aba
000001e0: 96ab 133c db5e 243c 7648 a6ba 4041 29bb
000001f0: 5cfb 0dbb 8186 ea3b d3b8 873b 4df0 9b3b
0.00094459596 0.002072546 -0.0014421061 0.003777375 -0.0010862036 0.00092400116 0.0019571367 -0.0027765152
-0.004426977 0.0016258528 0.006400027 0.0032853568 -0.008250498 -0.0028533365 0.015847452 0.0026430762
0.0053505343 -0.0027233213 -0.0013522004 -0.003698109 0.003140227 -0.0017696267 0.0019165241 -6.329393e-05
-0.00912827 0.0015583561 -0.0026298733 -0.0034918368 0.0075821774 0.0056303767 0.0012952596 -0.0046445597
-0.0010039705 0.0037460953 -0.0021953878 -0.0016951665 -0.00014229411 0.0040415362 0.0052589225 0.0102779465
0.001813548 -0.003551342 0.00064430555 -0.002422754 0.002543458 0.005252802 -0.00037193933 0.00062436576
0.007412368 -0.0040767007 -0.002586827 -0.0010183576 0.0066310265 -0.004731439 -0.006185091 -0.005575094
0.0051098545 -0.005452063 -0.0018141314 0.003042 -0.0064307093 -0.005146367 0.004541887 0.0014342095
0.0052505923 -0.0033219752 -0.0032149702 0.008419954 0.00016374547 -0.0037382827 0.0007312829 0.0042502442
0.0013969903 -0.003998302 0.0026265318 -0.008856878 -0.0044422783 0.0022922442 0.003382335 -0.00086454966
-0.004236006 0.0050931727 -0.0058641983 0.010387574 0.007112153 0.0058501484 -0.002015497 -0.004796045
0.001841728 -0.0033206537 -0.00019612483 0.0042758044 0.0040635597 0.0020709662 -0.0033334638 -3.0580406e-05
0.0040363045 0.0026738138 0.0053206156 -0.0013027505 0.0039553917 -0.0059378603 0.0026674608 0.00400854
-0.005214897 0.0046732696 -0.002103189 -0.0016325008 -0.0030905071 -0.00282129 -0.005581781 0.0015474558
0.0061394637 -0.00016634718 0.0025758937 0.0009321851 -0.010206578 -0.0002528657 0.0016362409 -0.00089336274
0.009013077 0.010032381 -0.001268639 -0.0025826246 -0.0021664714 0.0071571474 0.004141906 0.0047588707
