Contrast/save/redial/3-epoch.pth (torch, 594192 bytes, 4 tensors)

weight f4 [8, 128, 128]
000000 a7 f0 e2 bc 5f 2a 33 3e 8e 6d d0 3d fd ee f5 bc
       -0.027702643 0.17496632 0.10177146 -0.030021185
000010 f4 45 4e be 61 a9 95 bc 4a ed a3 3d f5 38 bd 3d
       -0.20143872 -0.018269243 0.08004244 0.09239379
000020 2d f5 f9 38 d0 48 6b 3d 5e d8 52 3d c9 59 02 be
       0.00011918913 0.057442486 0.051475875 -0.12729563
000030 a0 0f 7e 3d ff d7 c3 3d ed b3 af 3d 9b 1b 15 3d
       0.06202662 0.09562682 0.0857924 0.03640328
000040 ad 6d 4a 3d 20 f1 b9 3d e3 58 ee 3c b8 c7 1c be
       0.049421 0.09079194 0.029095119 -0.15310562
000050 00 11 2d 3e ad 8f fe bd 28 20 fc 3d 49 92 18 bc
       0.16901016 -0.12429748 0.12310821 -0.009312221
000060 23 bb 66 3c 80 9d 04 be c4 c7 42 be cc 0e 19 3e
       0.014082703 -0.12950706 -0.19021517 0.14947051
000070 aa 80 03 be d5 8e 94 bd 1d 78 71 3d 05 35 8f bd
       -0.1284205 -0.072538055 0.05895244 -0.069925345
000080 5e de b0 3d 65 3a cc bd 0d b7 91 3c 32 7e d7 bd
       0.08636163 -0.099720754 0.01778748 -0.10522117
000090 06 22 91 bd 15 26 2b be 73 e0 a1 3d ee 5b 50 3d
       -0.070865676 -0.16713746 0.079041384 0.05086892
0000a0 b7 ec 3b 3b 72 da 01 3e de 3e fd 3d f9 e8 6e 3d
       0.0028675029 0.12680987 0.123655066 0.05832765
0000b0 71 1c 39 bd aa 7c 34 be 46 73 a4 3d 5b 00 e7 3c
       -0.04519314 -0.1762568 0.08029799 0.028198412
0000c0 cf 3e 00 3e c6 aa 1e 3e 37 b5 23 be e5 c9 1a 3e
       0.1252396 0.15494832 -0.15987097 0.15116079
0000d0 95 98 a4 bd 73 0e a8 3d 8e b1 53 bc 21 39 a8 3d
       -0.08036915 0.08205881 -0.01292075 0.082140215
0000e0 ce f1 1d bd a4 6b 71 3c 89 9e 5a 3d e7 95 11 3e
       -0.03856068 0.014735136 0.053373847 0.1421734
0000f0 0c 8b a7 bc 84 d4 23 3e 01 2f b3 3b b3 b3 1b bb
       -0.020452045 0.15999037 0.00546825 -0.0023758232
000100 55 65 1a 3e 78 95 36 3e 6f 50 98 3d 96 a8 7c 3d
       0.15077718 0.17830455 0.074372165 0.061684214
000110 5e 27 40 bd ef 41 d8 bd 33 c5 47 3d 30 2c 50 3d
       -0.046912543 -0.10559451 0.04877205 0.05082339
000120 25 de 30 3c bc 0b 2c be fa b8 06 be d6 0e ae bd
       0.010795151 -0.16801351 -0.131565 -0.084989235
000130 55 10 a7 bc fb b2 92 3c d4 01 2a be ce 47 f4 bc
       -0.02039353 0.01790761 -0.1660226 -0.029819395
000140 9b 63 09 3e 35 b7 1b 3e 62 1d bf 3d 42 a3 c0 bd
       0.13416903 0.15206607 0.09331776 -0.09406139
000150 35 52 29 3e 30 2d ef bc 24 50 4f be f4 57 0d be
       0.16535266 -0.029196352 -0.20245415 -0.13803083
000160 91 f5 c3 3b fa 0a 63 bd f6 96 da bd f2 62 12 be
       0.0059802015 -0.05543039 -0.10673325 -0.14295557
000170 b8 89 e4 bc 26 a8 57 bd eb 9f 33 bd 82 cd 0f be
       -0.0278977 -0.052650593 -0.04385368 -0.14043239
000180 60 d2 78 3c 3a d3 15 be 20 d4 4c 3e e2 66 49 3e
       0.015186876 -0.14631358 0.20002794 0.19668153
000190 1f b3 f7 3d 17 d8 23 3e 49 8c 5a bd 07 f0 13 3e
       0.120947115 0.160004 -0.053356443 0.14447032
0001a0 85 a1 12 bd 98 a9 ba bc 8b a2 b0 bd 19 d9 2f 3e
       -0.03579857 -0.022785947 -0.086247526 0.1717266
0001b0 59 8d 17 3d 38 73 03 be ce 47 93 bd a7 ac 1f 3e
       0.037000034 -0.12836921 -0.0719143 0.15593205
0001c0 62 5c a2 3d 36 a0 5c 3d c1 0c 18 be e1 8e 52 be
       0.07927777 0.053863727 -0.14848615 -0.20562316
0001d0 ee 64 a3 bd 2d a4 32 be 6d 97 0e 3e c8 2f ea bd
       -0.07978235 -0.1744544 0.13924952 -0.11434895
0001e0 50 09 a1 bd 34 c6 2c be 69 9c dc 3c 4f e8 07 3a
       -0.07863104 -0.16872483 0.02693005 0.0005184458
0001f0 5b ff b4 bc 6d fe b4 bd 53 03 dc 3d 50 50 28 bd
       -0.02209442 -0.0883759 0.107428215 -0.041092217
000200 0e 9d 00 3e 01 d3 f0 3d f4 22 94 bc 38 10 af 3c
       0.12559912 0.11758996 -0.018083073 0.021370038
000210 4e c5 f9 bd 13 f5 2c 3e e5 8e 73 3d ed 51 84 3c
       -0.12195836 0.16890363 0.059462447 0.016152347
000220 39 2b 85 bb 1f 68 88 bd de 28 10 3e 33 c5 cc bd
       -0.0040639904 -0.066604845 0.1407809 -0.0999855
000230 ce 66 9e 3d a4 a8 e2 3d 9f 5c 2c 3d 1a 61 20 be
       0.07734452 0.11067322 0.042080518 -0.15662041
000240 97 c4 bd 3d 43 ec 70 3d 5b dd 63 bd 7f 96 a3 bd
       0.09266012 0.058819067 -0.055631023 -0.07987689
000250 19 ec 14 bd 66 d8 9c bc 61 5a ff 3d 19 4c d1 bd
       -0.036357973 -0.019146156 0.1246841 -0.102195926
000260 8d 1e 03 3e 6f 70 51 bc 0f 76 5b 3d ca ee 1d 3c
       0.12804623 -0.012783154 0.053579386 0.009639451
000270 c5 c2 2a bd f1 32 7e 3c 2d e1 62 3a 7b 46 1d 3e
       -0.041689653 0.015515075 0.00086547696 0.15358917
000280 1c bd 1c be 47 3c e4 bd 3e 2f cb 3b ad 4f 55 3b
       -0.15306515 -0.111443095 0.0062007 0.0032548711
000290 74 e5 a5 3d 05 50 c3 3d 8f de 2d bc 75 de ff bc
       0.08100405 0.09536747 -0.010612144 -0.031234005
0002a0 b3 de ea bd 92 71 15 3e dc 35 b2 bc 95 e5 c1 3d
       -0.11468258 0.14594105 -0.021754198 0.094676174
0002b0 3e 08 33 bd e6 20 15 3e 3f 4c 03 be 45 d1 08 be
       -0.043709032 0.14563331 -0.12822054 -0.1336108
0002c0 ff 90 a9 bd 7b 9a b3 3b 12 64 37 bd 3f 5e 1f be
       -0.08279609 0.005481062 -0.04477317 -0.15563296
0002d0 0d 7a c0 3d 78 ae 0c be 3d 7c a7 3d a9 85 0a bb
       0.09398279 -0.1373843 0.081779934 -0.0021136797
0002e0 fd 98 e9 3d c1 98 02 be fe 82 21 be b3 ee db 3d
       0.11406133 -0.12753583 -0.15772626 0.10738888
0002f0 e3 d9 e8 bd 98 5b 58 3a e2 c4 cb 3d b9 1f d5 ba
       -0.113696836 0.00082533946 0.09949662 -0.0016260064
000300 5c a4 9e 3d 89 c9 0e be 9f 86 04 be f8 ae 06 3e
       0.07746193 -0.13944067 -0.12941979 0.13152683
000310 03 1d 0c be 48 18 5a 3c 80 dd 08 bd 93 c5 8c 3d
       -0.13682942 0.013311453 -0.033414364 0.06873622
000320 6a 8c 00 3e 7a d2 eb bc 34 5e 00 bd a8 da 61 bd
       0.12553564 -0.028786886 -0.03133984 -0.055140167
000330 29 1a d3 bd 6a 5f 0e bd 5a a4 06 3e e7 60 2a be
       -0.10307724 -0.034758963 0.13148633 -0.16638528
000340 81 0b 1b be f7 2c dd bd 77 eb af bc 9c d6 36 bd
       -0.15141107 -0.10799592 -0.021474583 -0.04463826
000350 55 6a 0f 3d 4d f6 c5 3b bc b2 dd bd 28 92 90 3d
       0.035013516 0.006041324 -0.108251065 0.07059127
000360 bb 24 38 3e d4 ca 24 bd 33 0a 0a bb da d6 26 3e
       0.17982762 -0.040232494 -0.0021063208 0.16292897
000370 5e 20 ec 3c ba 62 74 bd 92 59 5d 3c 1c fb 91 bd
       0.028824028 -0.059664465 0.013510125 -0.071279734
000380 65 d5 df bc 4f 89 b8 3d e4 76 ac bd b4 7b 37 bd
       -0.027323434 0.090105645 -0.08421114 -0.044795707
000390 ae be c4 b9 14 a3 08 be f1 96 8b bd 76 94 bc 3d
       -0.000375261 -0.1334346 -0.06815899 0.09208004
0003a0 67 f0 94 3d 0e 1f 33 be bf 0c ee bc 27 b5 ca 3c
       0.072724156 -0.17492315 -0.029058812 0.024744583
0003b0 85 c5 51 bd 57 69 25 3e 84 ac dd bd 2b 59 09 be
       -0.05121376 0.16153465 -0.1082392 -0.13412921
0003c0 c6 f8 c5 3c 60 a3 1d be 56 b5 dc bd fb 99 f5 3d
       0.024166476 -0.15394354 -0.107767746 0.1199226
0003d0 db b7 a8 3d b8 cc cb bd c3 e3 84 bd ca 56 20 3c
       0.08238193 -0.099511564 -0.064887546 0.009786317
0003e0 49 f7 0d 3e 49 09 e6 bd 6b 78 b8 3c 9c bd 33 3e
       0.13863863 -0.1123224 0.022518357 0.17552799
0003f0 fc b0 ab 3c 0c 8f e8 bd 5d cb 0a be d5 54 6e bd
       0.020958416 -0.11355409 -0.1355414 -0.05818637

comp f4 [39, 8]
000000 10 c0 00 be bb 56 86 3e ea 93 87 3d 46 0d 27 3d
       -0.12573266 0.26238045 0.06620009 0.040784143
000010 92 2c 84 bd 2b 58 0e be f3 b2 3e 3e 2b c4 7a be
       -0.064538136 -0.13900821 0.18622951 -0.24488895
000020 ff 33 aa 3e 5f e8 c4 be 53 b9 c3 be 30 8f 77 be
       0.33242795 -0.38458535 -0.3822733 -0.24175715
000030 96 9a ae 3e d9 32 88 be 5a 4d c3 be 7f f8 be be
       0.34102315 -0.26601294 -0.38144952 -0.37298962
000040 c1 5e ac be 1b a3 ba be fd 7b 1c 3c 92 21 22 3e
       -0.33666041 -0.36452565 0.0095510455 0.15833119
000050 88 cb 49 be 58 b6 98 bd 2d 19 79 be 6e 3d 32 be
       -0.19706547 -0.07456654 -0.2432601 -0.17406246
000060 31 85 a1 be 4f 3f 91 3e bf 38 8c 3e 2e 34 c0 be
       -0.3154693 0.28368613 0.27387044 -0.3753981
000070 d4 aa 46 3e 4d fa e6 be c9 1a 88 3e d5 78 6a be
       0.19401103 -0.4511284 0.26582935 -0.22897656
000080 51 41 8d be 40 e8 36 be 23 46 91 3e 3e 58 95 bd
       -0.27588895 -0.17862034 0.28373823 -0.072922215
000090 a5 db 9e 3e 67 e8 ca be e7 19 0f be 19 1d c2 3e
       0.3102695 -0.39630434 -0.13974725 0.37912825
0000a0 27 eb 8c 3e 8a 57 63 bd cd 0c 32 3c 3b 94 ba be
       0.27523157 -0.055503406 0.01086731 -0.36441216
0000b0 8e 70 18 3e ed 4d bf 3c f0 90 ca 3e dd 9e 65 3e
       0.14886686 0.023352588 0.39563704 0.22423883
0000c0 15 63 c7 bd db 07 8c 3d 73 50 93 be eb e6 c2 be
       -0.09735695 0.06837436 -0.28772315 -0.380668
0000d0 58 76 1c bd 7f 21 6e be c1 ad 96 3e a1 55 08 be
       -0.0381988 -0.23254965 0.2942944 -0.13313915
0000e0 94 4d e2 be aa 12 48 3e 52 86 d6 3e b8 fb e1 3e
       -0.44199812 0.1953837 0.41899353 0.4413736
0000f0 56 7c 64 3e 3f b8 54 bc 8a c0 06 be 59 45 14 3d
       0.22313055 -0.012983381 -0.13159385 0.036198948
000100 9e 29 a6 3e 16 e5 63 be 2f 19 95 be e6 d3 a8 be
       0.32453626 -0.22255358 -0.29120776 -0.32974166
000110 88 e9 42 3e 4a 50 04 3e 73 e0 2b be cb 04 17 bc
       0.19034398 0.12921253 -0.1678484 -0.009217451
000120 96 44 96 3e 24 de c4 3e f0 9c 86 3e bc ac d8 bd
       0.29349202 0.3845073 0.2629161 -0.105798215
000130 b0 91 b8 bd b6 ba c8 3e 5e 91 c9 3e 55 5e 71 be
       -0.09012163 0.3920495 0.3936872 -0.23571141
000140 a5 c8 0d bd b0 eb 8a 3e 34 9e a3 bc 4d 30 b2 3e
       -0.034615178 0.2713294 -0.019972898 0.34802476
000150 02 6b 32 be 88 f0 b6 3e ef 9a e6 be f1 92 14 be
       -0.17423633 0.35730386 -0.4504008 -0.14509179
000160 19 42 04 be 5e 63 55 3e 09 01 93 be 52 0f c2 3e
       -0.12915839 0.20838687 -0.28711727 0.37902313
000170 75 58 18 3e a0 cf 93 be 37 95 07 3e 53 60 71 bd
       0.14877494 -0.28869343 0.13240515 -0.058929753
000180 68 e4 49 3e b4 d1 57 3c 45 05 8c 3d 52 6c bc 3e
       0.19716036 0.013172556 0.068369426 0.36801392
000190 06 6a ba 3e 81 fc cb be 99 ae a8 3e 19 1d d8 3e
       0.36409014 -0.39841083 0.32945707 0.422097
0001a0 ec fb 91 3d 62 a4 a9 be e5 55 cd bd 51 a1 b0 3d
       0.071281284 -0.33133227 -0.10026149 0.08624519
0001b0 c3 13 25 3e 68 7d 73 3e 96 76 2c 3e 8f f5 b1 be
       0.1612082 0.23778307 0.16842112 -0.3475766
0001c0 04 94 8f 3e 19 70 ae be ab 73 8a 3e 7b 89 c2 be
       0.28042614 -0.340699 0.27041373 -0.37995514
0001d0 30 f8 9a 3e 6b 34 88 3e 4d 9b ee 3e 12 f6 c5 be
       0.30267477 0.26602492 0.4660286 -0.386643
0001e0 ad a4 e8 3e ec 5f 7f be 06 93 70 be 86 90 46 be
       0.45438138 -0.24938935 -0.23493585 -0.19391069
0001f0 22 67 e8 3e c1 78 e7 bd 0d f0 7a 3c 4b 3e ee 3d
       0.45391184 -0.11302329 0.015316022 0.11632975
000200 9e df ea be 8d b9 3b bc 86 d3 d5 3c bf 35 a6 be
       -0.4587373 -0.011457813 0.026101839 -0.3246288
000210 61 49 0a 3d 56 13 72 3e 2d 05 a0 be 7a e7 bf 3d
       0.033761386 0.23640189 -0.3125395 0.093703225
000220 b8 7c 3d be af 2f 92 be 77 56 ce bd 58 d8 12 be
       -0.18504608 -0.28552005 -0.100750856 -0.14340341
000230 dd aa f3 3e ee 44 c2 3e 16 9a 8e be ce 04 e2 be
       0.47591296 0.37943214 -0.27851933 -0.4414429
000240 00 97 00 bc c5 54 ba 3e e7 ba 61 3e 1b 69 87 3d
       -0.007848501 0.363928 0.22043954 0.06611844
000250 12 73 d6 3e bf 6f d4 bd 49 81 9f 3d a2 92 7d be
       0.41884667 -0.103728764 0.07788331 -0.24762967
000260 9a 45 ba 3e 44 b1 95 3d 3f 9f b4 3e e4 d9 4f be
       0.36381227 0.07309201 0.35277745 -0.20297962
000270 7d c9 b1 be 05 64 f1 3d 72 bd 3e bd 5a e6 60 be
       -0.34724036 0.11786655 -0.046567388 -0.21962872
000280 ff 84 3a 3e d6 d6 c1 be c4 b0 93 bc 57 3f 69 bd
       0.18214796 -0.3785922 -0.018028624 -0.05694517
000290 31 02 76 bd c4 5a ef 3d 64 4d 1b 3e 65 d4 8a 3d
       -0.060060684 0.11687234 0.15166241 0.06778792
0002a0 54 54 d4 bd 73 c1 35 be 9a c4 16 be 9d c0 59 3d
       -0.10367647 -0.17749576 -0.14723435 0.053162206
0002b0 ad 50 bc be b2 1c f2 3e bd e6 c0 3e 14 bc ae ba
       -0.367803 0.47287518 0.3767604 -0.0013331198
0002c0 15 20 f7 3c fb 4a 55 be 35 b4 bc be 03 36 fa bc
       0.030166665 -0.20829384 -0.36856237 -0.030543333
0002d0 a3 c9 55 bd 0f 06 f0 3d d2 36 6a be cd 4c cc 3e
       -0.05219425 0.117199056 -0.22872475 0.39902344
0002e0 36 da fb bd f3 18 7a be ae 8e 8c be 76 ff 67 3e
       -0.1229748 -0.2442358 -0.27452606 0.22656044
0002f0 91 e4 3a 3e 1b fd 9d be b8 82 3c 3e 90 26 10 3d
       0.18251254 -0.30857167 0.1840924 0.035193026
000300 61 91 39 be 75 bc 9c 3e f6 2b bf be 21 d9 00 3e
       -0.18121864 0.3061253 -0.37338227 0.12582828
000310 15 d9 a5 3e ef 37 3e 3d c0 7f 88 be 11 71 9f be
       0.32392183 0.04644006 -0.26659966 -0.3114095
000320 87 71 06 be df 3c af bc 8a e6 a1 3d f1 74 c5 3d
       -0.13129245 -0.02139133 0.079053 0.096414454
000330 7c 0d b1 be 2f 8b 9a 3e 33 f2 b5 be 34 91 13 3e
       -0.345806 0.30184314 -0.35536346 0.1441086
000340 e4 9f 4d be a5 86 a0 3e db 93 72 be 39 0d 81 be
       -0.20080525 0.31352726 -0.23689215 -0.252054
000350 cc db 34 3e d4 d0 b2 be ac d2 b0 3e 82 e5 82 3e
       0.17661971 -0.34924948 0.3453573 0.25565726
000360 ad 4f 56 3e a5 e8 4e 3e ad e9 c0 3d 01 b0 45 3e
       0.20928831 0.20205934 0.0941957 0.19305421
000370 b9 2b 50 be d7 82 bb 3e 03 d2 a7 3e 2f 88 25 3e
       -0.20329179 0.3662326 0.32777414 0.16165231
000380 61 bf a3 be 7b c8 64 be b6 7f e7 3d 60 d2 bd be
       -0.31981948 -0.22342102 0.11303656 -0.37074566
000390 93 05 31 bd 45 82 91 be 39 09 1e be 63 70 b8 bc
       -0.043218207 -0.284197 -0.15433206 -0.022514528
0003a0 57 12 7a 3e 53 f9 6a 3e 21 aa 37 3d c7 23 bf be
       0.24421059 0.22946672 0.044839982 -0.37331983
0003b0 7a 8f a5 be 65 09 c7 be 51 93 87 3e 7c 08 a0 3d
       -0.32336026 -0.38874355 0.2647958 0.07814118
0003c0 a3 68 c1 be 7f 1e bd be 11 a5 88 3e 2b 97 ac bd
       -0.37775144 -0.3693733 0.26688436 -0.084272705
0003d0 76 2e b1 3c 96 ef 62 be 64 95 7d 3e f8 6f 40 bc
       0.0216286 -0.22161707 0.24764019 -0.011745445
0003e0 15 4d e8 bd 2c e1 b8 be 36 66 88 be 8b f4 97 3e
       -0.11342827 -0.36109293 -0.2664048 0.2967876
0003f0 00 09 5c bd 13 99 c5 be aa 5f c2 be df a1 31 3e
       -0.05371952 -0.3859335 -0.3796361 0.17346905

root f4 [128, 128]
000000 35 d2 1f be 9b 42 5d 3d cb 4f 3e bd ca 36 a1 3d
       -0.15607531 0.054018598 -0.046462815 0.07871778
000010 d1 71 12 bd a6 07 8f 3d de 9f e2 bc 83 39 33 3d
       -0.035753075 0.06983881 -0.027664121 0.04375602
000020 0f e9 ee bc f5 05 27 bd 7a 2e d1 3d b4 3d 93 3d
       -0.029163865 -0.040777165 0.10213943 0.07189503
000030 f5 c7 36 bd e7 c2 be 3c 7d 0b 0f 3e 6d 87 e9 3d
       -0.044624288 0.023286296 0.13969226 0.114027835
000040 5a 39 e7 bd d2 f0 f0 3d 2d 49 11 3c 0e 3e 1e 3d
       -0.11290236 0.11764683 0.008867544 0.0386334
000050 e1 28 13 be 0c cf 02 bc 2a cf 0b be 86 01 5e 3d
       -0.14371063 -0.007983934 -0.13653246 0.05420067
000060 c4 15 f2 bc 37 0e a0 bd 6e ff 28 bd 58 8e df 3d
       -0.029551394 -0.07815211 -0.04125922 0.10915822
000070 ed 9e 02 bd a6 50 a2 bc cc 89 03 3e 49 99 13 be
       -0.031889845 -0.019813847 0.12845534 -0.14413942
000080 19 a8 ae bd e2 05 4e bd e2 03 14 be ab 73 dd bd
       -0.08528156 -0.05029858 -0.14454606 -0.108130775
000090 c9 ae f5 3d e9 8d 09 be df 47 87 3c 8a b2 a4 3d
       0.11996228 -0.1343304 0.016513763 0.08041866
0000a0 b9 19 0c 3e 33 ad 47 3d 4d 8f 87 bd 69 01 97 3c
       0.13681687 0.04874916 -0.06619129 0.01843329
0000b0 96 a2 21 be e3 8e 1a 3e f8 4d 58 bc 51 3e 18 3e
       -0.15784678 0.1509357 -0.013202183 0.14867522
0000c0 ee 4e d6 3d e4 95 b4 bd 33 84 54 bd f1 95 a8 bd
       0.104642734 -0.08817652 -0.051883887 -0.08231724
0000d0 db 29 d8 3d 30 ac 0c 3e 18 3f ee 3b 74 69 dc 3d
       0.10554858 0.1373756 0.007270705 0.10762301
0000e0 b2 65 c3 3c b7 43 f0 bd 0c a6 c0 bb 77 16 94 bd
       0.023852203 -0.117316656 -0.0058791693 -0.07230847
0000f0 f6 7f c6 3d e5 ce 1d 3e f4 19 63 3d e7 f2 e6 3c
       0.09692375 0.15410955 0.055444673 0.028191997
000100 a8 c3 b7 bc c7 93 5f bd 64 ea 2f 3e fb 04 e2 bd
       -0.022432163 -0.05458429 0.17179257 -0.11036106
000110 af 2f 17 bc 57 cb 75 bd ba 36 c2 3c 62 7f 5c bd
       -0.009227677 -0.060008373 0.023707736 -0.05383242
000120 07 97 b2 3d 0c 19 06 3d 49 67 1d bd 1c 76 c5 bd
       0.087202124 0.03273873 -0.03842858 -0.09641668
000130 48 7b 0b 3e c7 4f 1b 3c ef d3 bf 3d 4c a4 db 3d
       0.13621247 0.00947947 0.09366595 0.107246965
000140 c8 87 52 3d ef 7a a0 3d 3b fc 73 3d 1d bc 08 be
       0.051399022 0.07835948 0.059566718 -0.1335301
000150 c7 29 21 be 1d 21 0d be 6a 84 de 3d 24 a9 ec 3c
       -0.15738593 -0.13782163 0.108651 0.028889246
000160 a6 41 9f bd c0 53 a4 bd 48 af ac bd 26 b4 1b 3d
       -0.07776193 -0.080237865 -0.0843187 0.0380136
000170 9e 5d 4e 3d 44 13 e0 bb bf 0d 7b bd d4 34 0f 3e
       0.05038225 -0.006838234 -0.061292406 0.13984996
000180 21 c1 ba 3d f2 db a8 bd d6 3c b9 3d 92 c8 5a 3d
       0.09118868 -0.08245076 0.09044807 0.053413935
000190 4b 2e 1e 3e f7 ad 1e be f9 3e 7e 3c 6b 0d ff bd
       0.15447347 -0.1549605 0.015517944 -0.12453731
0001a0 b7 22 2a 3d de 41 a5 3d b2 a7 00 3e 98 d1 15 3d
       0.041537013 0.08069204 0.1256397 0.036576837
0001b0 f9 8e ef bd 97 97 25 3c d9 63 b1 3d 85 3d a5 3d
       -0.11697192 0.010106943 0.086616226 0.080683745
0001c0 bc c6 1d be 53 f1 1c 3d c1 de 2b 3c 18 45 83 bd
       -0.15407842 0.038316082 0.01049012 -0.06409663
0001d0 85 fd 0e be 83 27 11 3d 88 13 a1 3b 12 9b 91 bd
       -0.13963898 0.035438072 0.0049156584 -0.071096554
0001e0 17 f8 10 3e fe c5 a5 3d ab 2b 5c 3c 3f d6 7a bd
       0.14157139 0.08094405 0.013438146 -0.061239477
0001f0 2f e4 db bd aa 11 99 3d 5c b3 a8 3d 5f f0 d5 3d
       -0.10736882 0.07474072 0.08237335 0.10446238
000200 6e 4d b5 bd 10 b8 ac bd fb f4 a5 bd 7a 6d 12 3e
       -0.08852659 -0.08433545 -0.08103367 0.14299574
000210 34 65 a7 bd 88 28 fa bd a2 b3 f3 bb bf c7 c6 bb
       -0.081736 -0.12214762 -0.0074371854 -0.006066292
000220 a9 ba 53 3d 82 aa fd 3d ed 93 b6 3d 04 91 f5 bd
       0.051691685 0.123860374 0.08914933 -0.1199055
000230 e0 7f e7 bd a9 1b 09 3e 51 46 da 3c b2 ba f4 3d
       -0.11303687 0.13389458 0.026644858 0.11949672
000240 9d c5 49 bd f3 81 75 3d 97 cc d4 bd 55 8c 34 bb
       -0.049260724 0.059938382 -0.10390585 -0.0027549465
000250 32 bb 04 3e ac ba 3b 3c f6 85 46 3d 68 c8 44 3c
       0.12962034 0.01145808 0.0484676 0.012010671
000260 7b a7 0b be 6a b6 ea bc 56 87 72 bc b2 d3 b9 3d
       -0.13638107 -0.028651435 -0.014802774 0.09073581
000270 89 04 81 3d c8 1d ac bd 01 76 b0 3d 64 c3 18 3e
       0.06299693 -0.08404118 0.086162575 0.14918286
000280 94 b5 d5 bd d9 a7 07 bd 1e 45 a6 bc 66 e9 9a 3d
       -0.10435024 -0.033119056 -0.02029663 0.075640485
000290 0d c5 d9 bd 30 7f b2 3d e4 69 d3 bd 64 ea 78 3c
       -0.106332876 0.08715665 -0.103229314 0.015192602
0002a0 6e d7 c3 3c 0f 65 bd bc 76 81 8a 3d 8a b7 3d 3b
       0.023906436 -0.023119478 0.06762974 0.002894851
0002b0 df 53 99 bd c0 bf 13 3e 2f e2 a0 bd d4 fd 7d 3c
       -0.074867 0.14428616 -0.07855641 0.015502412
0002c0 1a 74 81 3d 12 b1 35 bd 5c 9c c1 bd 8f 39 bc 3d
       0.06320973 -0.04435832 -0.09453651 0.09190666
0002d0 41 b1 0d 3e 82 a6 c6 bd 45 8d 81 bd 76 9b e9 3c
       0.13837148 -0.096997276 -0.06325773 0.028516512
0002e0 d5 b7 6e 3d 39 64 05 bd 2c 96 d1 3d 2e b9 0d 3e
       0.058280785 -0.032566283 0.10233721 0.13840172
0002f0 a2 53 b9 3d dd ac 08 be f0 98 00 3e 6a 55 c6 bd
       0.09049155 -0.13347192 0.12558341 -0.0968426
000300 fc 57 0e 3c f0 d5 36 3d a1 70 5e 3d bf cc ba bd
       0.008687969 0.04463762 0.05430663 -0.091210835
000310 c3 0d 1c 3d 61 cc e5 bd a6 a8 52 bd c6 5c 11 3e
       0.03809906 -0.11220623 -0.051430367 0.14195547
000320 6d ea ec 3d db 07 0d bd 10 e3 f6 3d 39 a8 c4 3c
       0.11568151 -0.03443132 0.120550275 0.024005996
000330 8e 8b 9a 3d ab 0e bb bc ba 0c 0b 3e 81 6d da bd
       0.07546149 -0.022834143 0.13579074 -0.106654175
000340 2f e1 4d bd c0 2f f7 3d 7f 20 55 bd 04 57 94 3d
       -0.05026358 0.120696545 -0.052032944 0.072431594
000350 c6 42 82 bd 4a a5 dc bd 6f 72 1b bd b4 a1 66 bd
       -0.06360392 -0.10773714 -0.03795093 -0.056306556
000360 10 5d cc bd 8f 4d 19 3e d5 da 18 3d c6 26 d5 3d
       -0.09978688 0.14970993 0.03731807 0.10407786
000370 b6 78 85 3d a9 9f a6 3d e5 b0 b6 3d f3 36 c8 3c
       0.065171644 0.081359215 0.08920459 0.024440264
000380 ae df 9b 3d e6 8f 9f 3d 55 b1 1b 3d 9e 2a 9b bd
       0.07611023 0.07791118 0.038010914 -0.07576488
000390 18 ed ba bc b7 0d 17 3e 48 5a d8 bd 50 8a be bd
       -0.022818133 0.14751326 -0.10564095 -0.09303725
0003a0 35 31 bf bd 7d b0 80 3d d2 a9 73 bc 6f 98 06 3e
       -0.09335557 0.062836625 -0.014872031 0.13144086
0003b0 23 cb 0c bd 60 e0 c9 bd 77 94 88 3d 20 1f 86 3d
       -0.034373414 -0.09857249 0.066689424 0.065489054
0003c0 26 39 70 bd c8 71 05 be ad 51 af bd 0f 1a db 39
       -0.05864825 -0.13031685 -0.085605 0.0004179035
0003d0 64 ee 7c 3d 57 73 01 3e 29 35 bd 3d ba 8b d7 bd
       0.061750785 0.12641655 0.09238655 -0.105246976
0003e0 5e 6d 0d 3e 7c d0 00 3e ad 87 15 3e c6 15 7b 3d
       0.13811252 0.1257953 0.14602537 0.06130006
0003f0 dd b2 b5 3d ab 1a 0f 3d 99 ee 99 3d 5b a6 a5 3d
       0.08872006 0.034937542 0.07516212 0.080883704

bias f4 [128]
000000 80 6e 18 3b 68 04 b8 b9 3b 37 3c bb d2 64 11 3b
       0.0023259223 -0.00035098498 -0.0028719443 0.0022185338
000010 89 9d 08 b9 8d 30 60 35 81 9f 4a 3a ba 4a b3 bb
       -0.00013028657 8.3517153e-07 0.00077294564 -0.0054715546
000020 37 7a a9 bb 4c 22 23 3b be 29 08 3c e6 59 53 3a
       -0.00517204 0.0024892269 0.008310733 0.0008062407
000030 fc 38 c4 bb 35 cf 6f bb ab 10 8f 3c 7a 63 ae 3b
       -0.0059882384 -0.003659201 0.017464003 0.005321917
000040 97 9b a4 3b 32 2a 1f ba 26 3c f1 bb d4 e2 89 39
       0.0050234306 -0.0006071656 -0.0073619066 0.00026299676
000050 33 bf ee 3a 07 99 22 3b 42 d6 8a 3a e5 f4 e7 3a
       0.0018214941 0.002481045 0.0010592418 0.0017696886
000060 48 f8 43 bc 94 22 55 ba a2 8f c4 b9 3c 9f 22 bb
       -0.01196105 -0.0008130458 -0.00037491048 -0.002481415
000070 de 78 1f 3c aa 00 b1 3b 01 4d 6e 3b c7 12 ed bb
       0.009733407 0.0054016905 0.0036361816 -0.0072349044
000080 07 ac 8f ba 53 ad f0 3b d9 a6 eb bb d3 ba cf 3a
       -0.0010961302 0.0073448806 -0.0071915206 0.0015848525
000090 0e 29 30 bb 44 43 e1 3b 2a 45 eb 3b 20 98 3a 3c
       -0.002687994 0.0068744738 0.007179876 0.0113888085
0000a0 37 5b a9 3b 17 91 64 bb d3 4a 8d 3b bc f6 a6 bb
       0.0051683444 -0.003487652 0.0043118983 -0.005095331
0000b0 47 07 62 3b f4 3f 9d 3b cc 6e df 3a 24 81 dd 3b
       0.00344892 0.0047988836 0.001704657 0.0067597795
0000c0 6f 77 a1 3b a9 8a 41 bb df dd ac ba 96 0a 56 39
       0.0049275677 -0.002953211 -0.0013188681 0.00020412574
0000d0 02 aa 84 3b bf 38 d6 bb 83 91 d9 bb 2f 55 17 bc
       0.004048587 -0.0065375264 -0.006639661 -0.009236618
0000e0 bd 53 37 3b 23 96 b9 bb f1 be ae bb e3 05 c0 3b
       0.0027973496 -0.0056636496 -0.0053328206 0.0058600768
0000f0 5f 2b e4 bb 7b aa 76 bb 64 bc a8 3b d4 85 e2 ba
       -0.006963178 -0.0037638235 0.005149411 -0.0017282316
000100 a6 ac 08 3c 0d 37 16 bb 23 08 f3 bb 5f bd 36 3c
       0.008341944 -0.0022920996 -0.0074167415 0.011153548
000110 82 69 13 bb d1 2a 59 bb 47 7d 28 3b d3 56 0e 3b
       -0.0022493307 -0.0033137093 0.0025709437 0.0021719232
000120 0d 38 25 3a 1b ba 21 bc 02 3f b3 3b 82 b2 32 bc
       0.00063026027 -0.009871031 0.0054701576 -0.010906817
000130 31 73 e1 bb 58 17 83 3b ad c4 4f 3b 4b a1 5f 3a
       -0.006880187 0.0040005855 0.0031702921 0.00085308094
000140 93 34 07 bc 01 db da 3b 78 db df bb b4 77 34 3c
       -0.008252281 0.0066789393 -0.0068315826 0.011014868
000150 35 fc d7 3b da fa 96 3b f4 c7 48 bb 17 23 2e bc
       0.0065913447 0.0046075406 -0.003063676 -0.010628483
000160 49 9d 51 ba 73 82 68 3a 81 4b f8 37 2c 6f 89 3b
       -0.00079961546 0.0008869536 2.9599063e-05 0.004194161
000170 d6 b2 98 3b e4 6b 29 3b 47 a3 c3 bb 10 08 ca ba
       0.004659991 0.0025851661 -0.005970392 -0.001541378
000180 c2 ff 92 3b 00 6a 9a 3b 0a e9 cd 3b ce db de ba
       0.004486055 0.004712343 0.006283884 -0.0017002763
000190 93 e7 1a 39 f0 e2 bd bb c2 38 ae 3b e3 5d 8e 3a
       0.00014772853 -0.0057948753 0.0053168247 0.0010861721
0001a0 ef 10 f0 bb db db 52 3b 93 c5 0d bb 67 9a 50 bb
       -0.0073262374 0.00321745 -0.0021632656 -0.0031830312
0001b0 e3 f3 a1 bb ae 1d 58 bb f8 24 89 bb 13 79 c6 ba
       -0.0049424036 -0.0032976675 -0.004185315 -0.0015142284
0001c0 4c d5 d1 3b c2 f6 60 3a c4 cf 94 3b c3 d1 34 bb
       0.006403601 0.00085816917 0.004541369 -0.0027590848
0001d0 33 ed f2 bb e4 34 04 bb 6b f9 3b 3b 46 e5 68 3a
       -0.0074135303 -0.0020173127 0.00286826 0.0008884262
0001e0 6e 17 d9 3b 98 88 5a 3c 33 15 00 bb 47 45 a8 ba
       0.0066251075 0.013338231 -0.0019543886 -0.0012838029
0001f0 01 fa 66 ba a0 93 08 3c bd d0 80 3a 52 9f b8 3b
       -0.0008811057 0.008335978 0.0009827834 0.005634227
