Contrast/save/redial/7-epoch.pth (torch, 594192 bytes, 4 tensors)

weight f4 [8, 128, 128]
000000 3e e0 d6 bc 30 b5 2b 3e 4b 84 00 3e 65 27 21 bd
       -0.026229974 0.16768336 0.12550466 -0.03934421
000010 87 75 26 be 71 58 95 bb 11 23 9e 3d d9 a2 ba 3d
       -0.1625577 -0.004557662 0.07721532 0.09113092
000020 7e a5 2d 3c 3b 86 56 3d e0 10 88 3d dc 4c 09 be
       0.010598538 0.052374106 0.06643844 -0.13408226
000030 d2 c4 95 3d f8 b7 cd 3d f2 32 ab 3d ba 72 e6 3c
       0.07312931 0.10044855 0.083593264 0.028130878
000040 b5 c8 5e 3d 3c ce ce 3d 83 28 10 3d c2 8f 2c be
       0.054390628 0.1009793 0.035194885 -0.16851714
000050 7a 07 30 3e 2f fa 06 be 37 87 0e 3e af 88 21 3c
       0.17190352 -0.13181375 0.13918768 0.009859248
000060 52 04 f4 bc 27 07 04 be 67 1b 5c be ab 2f 18 3e
       -0.029787216 -0.12893353 -0.21494828 0.14861934
000070 bc 5b 01 be 6b da 96 bd 0b 03 73 3d f7 c3 44 bd
       -0.1263265 -0.07365879 0.059329074 -0.04803845
000080 3a 01 ad 3d c7 67 c8 bd 10 56 41 3d f5 71 0e be
       0.084474996 -0.09785419 0.047201216 -0.13910659
000090 95 fe 93 bd cc e7 2f be 57 0c 98 3d 63 04 2a 3d
       -0.07226292 -0.17178267 0.07424229 0.04150809
0000a0 e2 73 a7 3c 4c 72 0f 3e 3d 23 04 3e ae 12 50 3d
       0.020441 0.14008445 0.12904067 0.050799064
0000b0 7f bf 2e bd 0a c2 49 be ac 9b ae 3d df c9 13 3d
       -0.042663094 -0.19702926 0.08525786 0.03608119
0000c0 68 ff f8 3d 16 37 1a 3e ed 4d 05 be fd 7a 17 3e
       0.1215809 0.15060076 -0.13018008 0.1479301
0000d0 10 80 ed bd 61 e8 79 3d 6e 3a 01 bc a0 e7 c6 3d
       -0.115966916 0.06101263 -0.007887466 0.09712148
0000e0 ab ea 12 bd ac 92 cd bc 97 1c 21 3d e9 b4 28 3e
       -0.035868328 -0.025094353 0.039333906 0.16475262
0000f0 c0 8f 47 bc 19 83 19 3e 46 0d 3d bd fd ac 4e bc
       -0.012180269 0.14991416 -0.046155237 -0.012614486
000100 3b 30 26 3e 75 07 33 3e e6 77 9c 3d 6b 32 81 3d
       0.16229336 0.17483313 0.07640056 0.063084446
000110 0b 9d 46 bd 6e b9 d9 bd d4 06 a3 3d ea 22 a0 3d
       -0.04848961 -0.10631071 0.07960287 0.07819159
000120 fc f6 0f 3c bb 9b 47 be 0a 02 22 be 4c 0d a5 bd
       0.008786913 -0.19493 -0.1582109 -0.08059177
000130 f6 a5 49 bd f8 6c 5a 3d 52 5b 34 be 8b eb b9 bc
       -0.04923054 0.053326577 -0.17612961 -0.022695323
000140 21 ec 07 3e b9 34 03 3e 80 ba f1 3d a3 87 a7 bd
       0.1327367 0.12813081 0.1180315 -0.081801675
000150 75 f5 33 3e f7 01 ef bc f3 14 33 be 47 27 11 be
       0.17574103 -0.029175742 -0.1748846 -0.1417514
000160 19 97 6b 3b 14 d3 95 bd 72 f1 07 be a6 8f e4 bd
       0.0035948216 -0.073156506 -0.13275698 -0.11160211
000170 2e d3 4e bd 36 6e 9b bd 6b e0 db bc 2a b9 f1 bd
       -0.050494365 -0.075893804 -0.02684041 -0.11802895
000180 5c 33 49 3c 17 1d 08 be 70 8b 34 3e 56 43 4c 3e
       0.012280311 -0.13292347 0.17631316 0.19947562
000190 a0 98 dd 3d 26 df 1c 3e 2b 27 11 bd cf 71 13 3e
       0.108201265 0.153195 -0.035437744 0.14398883
0001a0 3d bd 27 bd 56 f1 2c bd bf 48 8a bd cc 28 12 3e
       -0.040951956 -0.042222343 -0.067521565 0.14273375
0001b0 f4 fc d1 3c 1f 64 e2 bd b5 f8 a6 bd 0c 67 26 3e
       0.025633313 -0.11054253 -0.08152906 0.16250247
0001c0 3e 9b c6 3d 66 35 29 3d 70 2f 07 be f7 53 44 be
       0.09697579 0.04131069 -0.1320169 -0.19172655
0001d0 d8 85 9f bd db c2 2f be 7b f2 13 3e b9 1e d4 bd
       -0.077892005 -0.17164175 0.14447968 -0.103574224
0001e0 7a 09 70 bd ff a6 3b be 6b e5 d6 3c 00 4c 2c 3c
       -0.058602788 -0.18325423 0.026232442 0.010516167
0001f0 a1 43 1c bd 8b a4 cc bd 91 12 dc 3d c0 5d 4b bd
       -0.038150433 -0.099923216 0.10745729 -0.049649954
000200 e9 4b e8 3d 42 50 cc 3d ae af 1e bd d4 36 e3 3c
       0.11342604 0.099762455 -0.03874176 0.027736105
000210 db bf 1d be 92 6a 30 3e 80 01 6f 3d 80 c9 b9 3c
       -0.15405218 0.17228153 0.05835104 0.02267909
000220 d4 ca 39 bb 8a 5b a3 bd d5 6d 1f 3e d4 05 cb bd
       -0.0028349655 -0.07976444 0.15569241 -0.09913221
000230 af da a2 3d f3 e5 e1 3d 57 ba d7 3c 46 92 18 be
       0.07951867 0.110301875 0.026333971 -0.14899549
000240 bc 65 ce 3d b5 98 30 3d a0 b4 8a bd 75 a2 be bd
       0.10077998 0.043114383 -0.06772733 -0.0930833
000250 07 3e 6b bc 78 c8 16 bd fc 64 0a 3e 99 a6 e6 bd
       -0.01435805 -0.036812276 0.13515085 -0.11262245
000260 79 a8 fa 3d fc 72 bf bc c4 1c 7e 3d bb fd ee 3c
       0.12239165 -0.023370259 0.06203915 0.029173722
000270 39 55 0b bd 02 1a b8 3c 75 4f 4f bb 26 5c 21 3e
       -0.03401682 0.022473339 -0.0031633053 0.15757808
000280 f1 f8 1f be 38 74 ba bd eb 24 0e 3c 4e 58 8b bc
       -0.15622307 -0.09104198 0.008675794 -0.01700988
000290 07 e3 d4 3d 77 db ca 3d 29 c4 7d bc 56 93 ba bc
       0.103948645 0.09905141 -0.015488663 -0.022775333
0002a0 08 fb f5 bd d3 5b 1c 3e 5d 4b aa bc 10 e5 d7 3d
       -0.12010771 0.15269403 -0.02078789 0.10541737
0002b0 6d 09 12 bd 9b 18 08 3e 42 82 07 be d3 b4 10 be
       -0.03565352 0.13290636 -0.13233283 -0.14131479
0002c0 13 9e 9d bd 15 3b c2 3c 78 06 55 bd 8b 91 12 be
       -0.07696166 0.023709813 -0.052008122 -0.14313333
0002d0 96 59 bc 3d dd 2b 2f be d8 27 b8 3d 60 bc 96 3c
       0.09196775 -0.17106576 0.089919746 0.018400371
0002e0 15 b5 e9 3d ec 3b 0c be f7 78 28 be 34 54 e1 3d
       0.11411492 -0.13694733 -0.16452394 0.110023886
0002f0 27 45 f1 bd dc 16 13 3c ab 0e d2 3d 7c 86 c0 3a
       -0.11780768 0.008977618 0.10256704 0.0014688517
000300 79 03 a3 3d fe 13 2c be e3 fa f9 bd 1d 3c 17 3e
       0.07959647 -0.16804501 -0.12206056 0.14769025
000310 8c 24 02 be 48 e5 b6 3a 23 4a 03 bd ae 07 91 3d
       -0.12709254 0.0013953829 -0.032053124 0.07081543
000320 c3 be db 3d 8b 04 03 bd 3c ca e1 bc ba 81 4a bd
       0.10729744 -0.031986754 -0.027562253 -0.049440123
000330 81 0d fc bd d7 fc c1 bc f5 fc 29 3e 71 b6 2b be
       -0.12307263 -0.023680134 0.16600402 -0.16768815
000340 ff e4 1d be 96 6f f5 bd 31 60 04 bd 9d e1 91 bd
       -0.15419386 -0.11984174 -0.032318298 -0.071231104
000350 92 48 00 3d e5 c9 05 bb 34 f7 e3 bd 40 07 b8 3d
       0.03131921 -0.0020414528 -0.11131135 0.08985758
000360 bd b7 2d 3e c0 26 0f bd 32 cc 17 bc 73 43 0e 3e
       0.16964622 -0.034949064 -0.009264993 0.13892917
000370 71 89 4e 3a 73 bd 73 bd 06 d0 d0 3c 08 7d 9b bd
       0.0007878757 -0.059506845 0.025489818 -0.07592207
000380 87 6d 2b bd 8a 14 c0 3d 1d fc cb bd 2d e9 43 bd
       -0.0418525 0.093789175 -0.09960196 -0.047829796
000390 f6 15 54 3c d0 ad 0e be 92 07 91 bd 77 77 df 3d
       0.012944689 -0.13933492 -0.07081522 0.10911458
0003a0 e9 b3 86 3d 43 e7 43 be 87 10 07 bd 01 bc 2f 3d
       0.06577284 -0.19131188 -0.032974746 0.042903904
0003b0 38 45 9b bd 45 6a 25 3e 71 fe cd bd fb 75 13 be
       -0.07581562 0.1615382 -0.100582965 -0.14400475
0003c0 b7 f8 07 3d 85 a4 0c be 20 f4 bb bd 62 d3 0b 3e
       0.033196177 -0.13734634 -0.091774225 0.13654855
0003d0 71 bc a1 3d 76 a4 e1 bd c4 b7 5d bd f6 7b 4e 3b
       0.078972705 -0.110176966 -0.05413033 0.0031506992
0003e0 a0 d6 15 3e a5 70 cb bd 95 7f 08 3d 2c c7 2f 3e
       0.14632654 -0.099335946 0.033324797 0.17165822
0003f0 ce e1 56 3c 41 f4 e8 bd 6e 91 16 be 81 93 8a bd
       0.0131153595 -0.11374713 -0.14703915 -0.067664154

comp f4 [39, 8]
000000 d8 41 08 be 77 60 83 3e 46 89 a7 3d ea bd 50 3d
       -0.13306367 0.25659534 0.0818048 0.050962366
000010 12 83 aa bd e6 9e f1 bd 0e 5b 48 3e 9e 3e 5d be
       -0.08325781 -0.117978856 0.19565985 -0.21605918
000020 0e db a5 3e 5e 67 c5 be 00 86 c1 be 3c 84 76 be
       0.32393688 -0.38555425 -0.37797546 -0.24073881
000030 d7 fe 9f 3e 1f 3a 7f be 6e 0e c2 be f2 46 b7 be
       0.31249115 -0.24924515 -0.37901634 -0.35796314
000040 64 53 a2 be b8 16 ba be bc d5 18 3c 0b ac 15 3e
       -0.31704247 -0.36345458 0.009328302 0.1461641
000050 a6 86 40 be 48 ec 96 bd bc 64 6e be fd 30 2e be
       -0.18801364 -0.07369286 -0.23280615 -0.17010875
000060 fd 41 ab be d1 40 8d 3e 82 1b 80 3e 19 14 be be
       -0.33448783 0.27588513 0.25020987 -0.37124708
000070 9a 64 3c 3e bc 1b ed be 9f a5 79 3e 26 de 71 be
       0.18397751 -0.46310222 0.24379586 -0.23619899
000080 49 76 8f be db df 3c be d4 3b 97 3e 85 4f 9e bd
       -0.28019932 -0.18444769 0.29537833 -0.07730011
000090 bb 23 a1 3e 39 f1 d0 be 67 33 14 be ef 5e cb 3e
       0.31472573 -0.40809038 -0.14472733 0.39720866
0000a0 89 ca a7 3e 84 e8 31 bd fa e9 f6 3c c4 a0 d5 be
       0.3277171 -0.043434635 0.030140866 -0.41724217
0000b0 79 8b 1e 3e f0 4e 89 3c f1 b6 f2 3e 7f 61 7a 3e
       0.15482892 0.016761273 0.47405198 0.24451254
0000c0 59 00 c2 bd 70 14 d7 3d 4f 42 98 be e9 3a d8 be
       -0.094727226 0.10501945 -0.2973809 -0.42232445
0000d0 4a be 62 bc 25 e7 91 be dd 39 aa 3e ca 45 5a be
       -0.013839314 -0.28496662 0.3324727 -0.21315685
0000e0 ca 22 dd be cd df 43 3e 5d 17 d7 3e ac aa ee 3e
       -0.43190604 0.19128342 0.42010012 0.46614587
0000f0 1b 93 81 3e dc ab ad bc b1 76 1b be c3 db 8e 3a
       0.25307545 -0.021200113 -0.15181996 0.0010899234
000100 27 a5 97 3e 2f 43 3f be 6e 52 86 be 92 af 93 be
       0.2961819 -0.18677972 -0.26234764 -0.28844887
000110 a0 5e 27 3e 58 6f eb 3d c5 a0 14 be 17 03 b5 3b
       0.1634469 0.114958465 -0.14514454 0.00552405
000120 27 6e 9b 3e b0 b1 d3 3e 92 81 84 3e 49 b1 f4 bd
       0.30357477 0.41346502 0.25880104 -0.11947877
000130 6d fc 94 bd 6c c0 ce 3e 11 11 d0 3e 86 1d 89 be
       -0.07274709 0.4038118 0.4063802 -0.26780337
000140 36 a1 19 bd 6d 66 b2 3e 17 b5 b9 bc dc 88 d3 3e
       -0.03750726 0.3484377 -0.022669358 0.41315353
000150 3b 5f 34 be 32 9c ce 3e 16 36 06 bf fb ef 3a be
       -0.17614453 0.40353543 -0.5242628 -0.18255608
000160 bf 66 36 be 82 10 83 3e cf bf b5 be f2 1f eb 3e
       -0.17812632 0.25598532 -0.354979 0.4592281
000170 a3 aa 3d 3e 3c 41 b8 be 82 13 1b 3e 52 4b a7 bd
       0.18522124 -0.3598727 0.1514416 -0.08168663
000180 68 31 5a 3e a1 80 8c 3c 7b 13 90 3d 91 7a c5 3e
       0.2130791 0.017151179 0.070349656 0.38570073
000190 75 65 c7 3e 4d 5e d2 be 27 a7 b3 3e 02 58 e1 3e
       0.38944593 -0.4108757 0.35088465 0.44012457
0001a0 c9 7b 5e 3d e9 1a cb be c4 d9 fb bd a2 d2 ca 3d
       0.05431727 -0.39668968 -0.12297395 0.09903456
0001b0 67 6f 51 3e 74 d9 8e 3e 2d 0e 4b 3e 02 6c db be
       0.20452653 0.2790028 0.19829626 -0.4285584
0001c0 fd 4b 93 3e 08 a1 c7 be 8b 50 a0 3e 51 8a c9 be
       0.28768912 -0.38990045 0.3131145 -0.3936334
0001d0 4b 89 af 3e 84 40 8c 3e b8 d3 09 3f e2 a7 de be
       0.34284434 0.27392972 0.5383868 -0.4348746
0001e0 2b 0e 01 3f 1e 7d 8e be b6 1d 83 be 98 fd 51 be
       0.50412244 -0.27829832 -0.25608605 -0.20506895
0001f0 51 92 08 3f 6f ab fe bd 81 3c aa 3c e1 aa 2f 3e
       0.5334826 -0.12435042 0.020780804 0.17155029
000200 9a 7f fc be ef 67 b9 3b 35 8d 9c 3c a3 fc b5 be
       -0.49316102 0.005658142 0.019110302 -0.3554431
000210 96 2d 43 3d 6d 34 80 3e 4f e2 ab be 1f bb f0 3d
       0.047650896 0.25039998 -0.33571097 0.117544405
000220 e9 b8 71 be dd f3 9e be 77 89 9d bd 48 03 17 be
       -0.23605694 -0.31045428 -0.07692235 -0.14747345
000230 12 7e 11 3f 7d 15 e3 3e ea 62 9b be 19 60 09 bf
       0.56832993 0.44352332 -0.30348903 -0.5366226
000240 e3 18 18 bd e9 4b ea 3e eb 30 8e 3e 39 01 84 3d
       -0.03713311 0.4576104 0.27771696 0.06445546
000250 ff 0b 01 3f b1 35 17 be 19 8b af 3d 00 54 a5 be
       0.5040893 -0.14766575 0.08571453 -0.3229065
000260 5d 43 d0 3e c0 33 90 3d 6d ea cb 3e d0 70 53 be
       0.40676394 0.070411205 0.3982729 -0.20648503
000270 62 25 c6 be 4b 61 c1 3d cc aa 8c bd 91 21 87 be
       -0.38700396 0.09442385 -0.068685144 -0.26392797
000280 49 50 56 3e 50 1c dc be 57 a8 01 bb bf b2 85 bd
       0.20929064 -0.4299035 -0.0019784176 -0.06528234
000290 30 fb 9b bd d4 e5 00 3e df 00 27 3e d9 05 96 3d
       -0.076162696 0.12587672 0.16308926 0.07325334
0002a0 50 6f 01 be a3 32 42 be 76 f6 1e be 56 5f c8 3d
       -0.12640119 -0.18964629 -0.15523705 0.09783809
0002b0 56 3f e7 be 47 0d 0f 3f c2 f6 eb 3e 83 61 d8 bc
       -0.4516551 0.55879635 0.460867 -0.026413685
0002c0 44 41 fa 3c 2f 37 5b be b8 40 c4 be 5a 04 33 bd
       0.0305487 -0.2140777 -0.38330626 -0.04370532
0002d0 8a 8a 3e bd 56 4e f3 3d cf bb 67 be 7b 4f d3 3e
       -0.04651884 0.11880176 -0.22630237 0.41271576
0002e0 f4 cf ad bd a5 dc 6f be 46 6e 85 be 29 c4 3d 3e
       -0.084869295 -0.23424013 -0.26060694 0.1853186
0002f0 13 50 1b 3e ae 69 85 be 51 53 24 3e 08 10 bc 3c
       0.15167265 -0.2605719 0.16047408 0.022956863
000300 62 e7 50 be 29 3c ba 3e da fa c7 be da b4 01 3e
       -0.20400766 0.36374024 -0.39058572 0.12666646
000310 28 fa a6 3e 10 a0 1e 3d 28 30 85 be 7d d6 a0 be
       0.3261273 0.038726866 -0.26013303 -0.31413642
000320 5e 66 fc bd 7a de ef bc 65 ce 8d 3d bd 72 bb 3d
       -0.123242125 -0.02928089 0.06924132 0.09152744
000330 5b ae a7 be a2 dd 92 3e 92 4e b7 be 53 ea f5 3d
       -0.3275021 0.28684717 -0.35802132 0.120075844
000340 23 01 48 be 1b d9 99 3e b6 b1 6e be 1d 8a 76 be
       -0.19531684 0.3004845 -0.23309979 -0.24076124
000350 f2 1e 2b 3e 13 89 ac be 11 bf a5 3e f4 ff 72 3e
       0.16711023 -0.3369833 0.32372335 0.23730451
000360 07 1b 5d 3e 4b 8c 6a 3e 92 80 cc 3d ef f7 70 3e
       0.21592341 0.2290508 0.0998546 0.23532079
000370 77 e5 26 be f2 62 b1 3e 88 14 ab 3e 2e b0 0f 3e
       -0.16298471 0.34645802 0.33414102 0.14032051
000380 1a d8 c5 be 38 fd 5f be 78 b6 0c 3e a9 15 dc be
       -0.38641435 -0.21873939 0.13741481 -0.42985275
000390 11 92 05 bd 6d fb a9 be cb 1e 0e be 48 b7 89 bd
       -0.032610003 -0.33199635 -0.13878934 -0.06724411
0003a0 01 35 69 3e a1 db 5b 3e 0d e5 a4 3c 59 d4 bd be
       0.22774126 0.214705 0.020128751 -0.3707607
0003b0 9b 95 aa be 43 25 d6 be 2f 00 8c 3e d8 b3 b8 3d
       -0.33317265 -0.41825303 0.2734389 0.090186775
0003c0 35 99 cc be dc 15 c5 be a3 a4 9d 3e b7 ef ba bd
       -0.39960638 -0.3849324 0.3078967 -0.09127753
0003d0 9f 8b 93 3c a0 73 73 be 13 89 7e 3e dc 0a 1f bd
       0.018010912 -0.23774576 0.24856977 -0.038828716
0003e0 67 c4 f0 bd 6c e6 bf be 92 b6 7e be ba 6e 9d 3e
       -0.11756211 -0.37480485 -0.24874333 0.3074854
0003f0 6a d0 f0 bc 83 7b df be 0b 66 cb be 4e 4b 1d 3e
       -0.029396255 -0.4364892 -0.3972629 0.15360758

root f4 [128, 128]
000000 3a 18 06 be 0d d4 0d 3d ea da 96 bd 0c 9b b0 3d
       -0.13095179 0.034626056 -0.07365973 0.08623323
000010 9e 01 eb bc 3b 25 98 3d 56 02 1e bd de f3 9c 3d
       -0.028687295 0.07428976 -0.038576446 0.076637015
000020 50 bb 65 bc d5 ae dd bc 0a 17 96 3d 5c e9 a4 3d
       -0.01402171 -0.027060905 0.07328613 0.08052322
000030 78 e1 83 bd 5a ab 09 3d c6 da 0f 3e af f3 99 3d
       -0.06439489 0.03361068 0.14048299 0.07517182
000040 25 03 f7 bd 6f 7a ea 3d 59 6a f2 3c 22 23 7d 3d
       -0.12061147 0.114491336 0.029591726 0.061801083
000050 2c fd 0e be fd ab dd b9 8e cc 06 be d4 b9 38 3d
       -0.13963765 -0.00042280546 -0.13163969 0.045099095
000060 cd ae 08 bd 2e 55 63 bd 24 27 32 bd fd 8d c7 3d
       -0.033369828 -0.055501156 -0.04349436 0.09743879
000070 3e e7 d3 bc 5d 3f 18 bd 80 dc 12 3e b4 99 07 be
       -0.0258671 -0.037169803 0.14341927 -0.13242227
000080 7e 78 af bd 6f 42 b2 bc 26 e9 15 be 60 6f a9 bd
       -0.08567904 -0.021760194 -0.1463972 -0.08273196
000090 6b 99 e3 3d 27 21 ed bd 95 7f 35 3c 45 61 85 3d
       0.111132465 -0.11578589 0.011077781 0.06512693
0000a0 13 77 f4 3d ad bf 3a 3d ca 82 9c bd c1 58 9e 3c
       0.11936774 0.045592953 -0.076421335 0.01932943
0000b0 e3 89 ff bd 8f 17 0a 3e 67 d9 5c 3c 9a f1 0c 3e
       -0.12477472 0.1348555 0.013479567 0.13764039
0000c0 b0 6e b1 3d 0e 3c bd bd a4 36 96 bd 11 a3 d1 bd
       0.0866369 -0.0923997 -0.073346406 -0.102361806
0000d0 a5 4f cb 3d ca 68 17 3e 35 ed 05 3c a7 fc ba 3d
       0.099273 0.14786068 0.00817423 0.09130221
0000e0 5e 3d 10 3d 06 13 cf bd e9 65 39 bc c1 b4 7c bd
       0.035214774 -0.1011105 -0.011315801 -0.061695818
0000f0 f3 a9 fd 3d c3 85 ff 3d 7b b1 d6 3c 99 43 43 3c
       0.12385931 0.12476685 0.026207676 0.011917972
000100 0c 06 1d bd 46 c7 83 bd 6b 35 34 3e a8 2e cf bd
       -0.038335845 -0.06434493 0.17598502 -0.10116321
000110 21 b2 f1 ba a8 88 68 bd 4b 6e bd 3c 2b f1 0f bd
       -0.0018439927 -0.05677095 0.02312388 -0.035142105
000120 c3 6d bf 3d 0c f1 35 3c 24 99 68 bd 17 d8 c6 bd
       0.09347107 0.011104833 -0.05678667 -0.097091846
000130 37 56 f9 3d c7 4a 1d bb c2 d8 d3 3d 15 64 db 3d
       0.12174647 -0.002400087 0.10344078 0.107124485
000140 06 e0 81 3d e8 7a 36 3d 89 3a 88 3d 75 13 0b be
       0.06341557 0.044550806 0.0665179 -0.13581641
000150 82 0e 21 be ff b9 f9 bd 63 e7 ed 3d 0b 4c 2c 3d
       -0.1572819 -0.12193679 0.11616399 0.042064708
000160 52 d4 23 bd ee b5 7e bd 01 5c 9c bd 46 90 5f 3d
       -0.039997406 -0.06218522 -0.07634736 0.05458095
000170 e8 11 64 3d d4 ca c1 3b 55 df 54 bd 9c 3e 17 3e
       0.05568114 0.0059140716 -0.0519708 0.14769977
000180 cd 8b e2 3d ff 1f 96 bd 11 7a aa 3d f0 cc 6a 3d
       0.11061821 -0.073303215 0.083240636 0.05732435
000190 e4 40 19 3e 46 cf 12 be 73 d9 7b 3c 74 74 1d be
       0.1496616 -0.14336881 0.015371668 -0.15376455
0001a0 52 8d 3e 3d e6 1b c3 3d a7 1d c9 3d 45 8a bf 3c
       0.046521492 0.095268056 0.09820109 0.023381362
0001b0 eb 7f ce bd a5 b3 34 3b 7c 15 cb 3d e8 45 a6 3d
       -0.10082992 0.0027572897 0.09916207 0.08118802
0001c0 68 50 22 be 7c af 16 bb 50 3f 70 3a 05 de 1f bd
       -0.15850985 -0.002299278 0.0009164708 -0.039030094
0001d0 b1 6c ea bd b5 e9 fc 3c 58 5d 6e bb 00 f7 4c bd
       -0.114465125 0.030873159 -0.0036371555 -0.050040245
0001e0 95 c3 1a 3e 25 29 90 3d ea 11 48 3c 3b 4c 84 bd
       0.15113671 0.07039098 0.012211302 -0.06459852
0001f0 6f d4 ca bd 36 44 82 3d 51 7b 26 3d 38 af cb 3d
       -0.099038 0.063606665 0.040644947 0.0994553
000200 64 e1 bb bd a5 0a ab bd e8 a3 a5 bd 5c 59 0e 3e
       -0.09173849 -0.0835164 -0.08087903 0.13901275
000210 68 74 a0 bd 3c 62 f7 bd 72 a3 33 bc cf b1 b8 ba
       -0.07834703 -0.120792836 -0.010964261 -0.0014091077
000220 0d c2 5f 3d b8 2b fa 3d 59 d3 b3 3d 34 24 ef bd
       0.05462842 0.1221537 0.08780546 -0.11676827
000230 52 ab e7 bd d6 b9 09 3e 7f da bf 3c ab 63 ec 3d
       -0.11311974 0.13449797 0.023419617 0.11542448
000240 53 00 47 bd e8 4a 82 3d 5d 83 d7 bd 3b b9 94 bb
       -0.048584294 0.063619435 -0.105231024 -0.0045386828
000250 ad 66 03 3e 4b 4b 05 3c 3d a5 43 3d 5e 82 21 3c
       0.12832136 0.008135627 0.047765005 0.009857742
000260 79 3b 08 be a7 b0 d7 bc a6 ba 89 bc 42 c8 bc 3d
       -0.13303937 -0.026329352 -0.016812634 0.09217884
000270 5f b6 78 3d 6c 02 a7 bd 9e 84 ab 3d 38 57 1d 3e
       0.060720798 -0.08154759 0.08374904 0.15365303
000280 7f e0 d6 bd 96 2c 05 bd eb 07 a2 bc 34 45 99 3d
       -0.10492038 -0.032513224 -0.019779166 0.074839026
000290 02 09 db bd 4e 30 b1 3d a1 14 d6 bd 2c c0 5e 3c
       -0.106950775 0.086517915 -0.104531534 0.013595622
0002a0 8f c7 84 3c c0 7f b9 bc 97 45 84 3d 81 b2 3c 3b
       0.016208438 -0.022643924 0.06458586 0.002879292
0002b0 7b b9 9e bd e8 56 0f 3e 8f 4a a4 bd a4 50 5c 3c
       -0.07750221 0.13997996 -0.080220334 0.013446961
0002c0 cd 9b 82 3d 5e c6 28 bd ef e6 c6 bd a1 c5 b4 3d
       0.06377373 -0.041204803 -0.09712016 0.08826757
0002d0 8b f7 0e 3e f9 35 be bd 16 98 7d bd 80 53 f5 3c
       0.13961618 -0.09287638 -0.06191262 0.029947042
0002e0 93 26 73 3d 9e 3d f3 bc 53 dd d3 3d 5e 6a 09 3e
       0.05936296 -0.029692467 0.103449486 0.13419482
0002f0 66 c0 b8 3d 5c b0 07 be ea f1 fb 3d 7e 32 c8 bd
       0.09021072 -0.1325087 0.12302001 -0.097752556
000300 78 fe 99 3b f6 1b 4c 3d a4 e7 65 3d 32 26 c1 bd
       0.0046995245 0.049831353 0.056129113 -0.09431113
000310 d6 a6 29 3d 09 d9 dd bd ea 85 5f bd 33 6e 13 3e
       0.041418873 -0.10832412 -0.05457107 0.14397506
000320 4b 9e ee 3d 73 fd 00 bd eb 91 e9 3d fb d3 d8 3c
       0.11651286 -0.031491708 0.11404785 0.026468268
000330 85 5b 9c 3d 3f 9d 9a bc 16 47 09 3e 4d ca d5 bd
       0.076346435 -0.018873809 0.13406023 -0.104389764
000340 f3 15 3e bd 80 3e f7 3d 02 bc 4d bd 00 23 8e 3d
       -0.04640765 0.12072468 -0.050228126 0.069402695
000350 72 c5 76 bd a5 8f df bd fd 5d 1d bd 08 46 5a bd
       -0.060246892 -0.1091607 -0.038419712 -0.053289443
000360 25 15 cc bd 96 c4 1a 3e 44 bd fd 3c 5a bd d5 3d
       -0.099649705 0.15114054 0.030974038 0.104365066
000370 28 54 87 3d 0a 3e a4 3d 2a 74 b5 3d 71 0b e4 3c
       0.066078484 0.080196455 0.08860047 0.027837487
000380 73 12 9f 3d d7 68 98 3d 73 78 12 3d 92 cc a0 bd
       0.07767191 0.074418716 0.0357594 -0.07851519
000390 a5 a0 c1 bc b9 4c 18 3e fd 4f df bd d4 9d c0 bd
       -0.023636172 0.14873017 -0.109039284 -0.09405103
0003a0 7d 8f bb bd ec f9 77 3d 4e 9b 93 bc ab 65 04 3e
       -0.091582276 0.06054108 -0.018018391 0.12929408
0003b0 a5 2d 05 bd 04 39 c4 bd da 67 91 3d 31 62 85 3d
       -0.032514233 -0.09581187 0.07099886 0.06512869
0003c0 8e b9 78 bd 9b d2 05 be 2c 5c ac bd 00 25 34 3b
       -0.060723834 -0.13068621 -0.08416018 0.0027487874
0003d0 c2 0b 7f 3d 2e 8f 03 3e 65 c8 bd 3d f6 4e d7 bd
       0.062267072 0.12847587 0.09266738 -0.105131075
0003e0 35 a7 0d 3e 35 6d f5 3d 30 ff 13 3e 60 ba 81 3d
       0.13833316 0.1198372 0.14452815 0.06334376
0003f0 40 e8 b9 3d 5d 0a 02 3d cb c5 97 3d ab 19 a1 3d
       0.09077501 0.031748164 0.07410773 0.07866224

bias f4 [128]
000000 d0 cf 31 3a 80 70 b0 ba 1f 64 35 3a 78 d5 82 3b
       0.00067829806 -0.0013461262 0.0006919521 0.0039927326
000010 6b 63 c1 b9 01 f2 0d bb 22 65 ee ba 84 68 25 bc
       -0.000368859 -0.0021659138 -0.0018188099 -0.010095719
000020 5b 59 05 bc 29 78 40 38 09 1d 1c 3c 26 43 11 39
       -0.00813898 4.5888275e-05 0.009528407 0.00013853292
000030 07 0c d7 ba d7 1f 83 bb 11 67 87 3c c7 09 e0 3b
       -0.0016406783 -0.0040015983 0.016528638 0.006837103
000040 45 64 94 3b a2 ea a7 ba c3 7f 9e bb 5b 7c 68 ba
       0.0045285546 -0.0012811015 -0.0048370077 -0.0008868628
000050 17 f2 cd 3a bf 15 86 ba f4 b7 02 3b 13 34 11 3b
       0.0015712407 -0.001022987 0.001994607 0.0022156283
000060 c3 7c 3f bc 4e 5f 19 ba 3f 40 c9 ba 99 32 b1 bb
       -0.01168746 -0.00058506883 -0.001535423 -0.005407643
000070 7a 80 2c 3c 36 3f bb 3b 43 e1 9f 3b ff 67 20 bc
       0.010528678 0.0057143224 0.004879148 -0.00979042
000080 19 7f 0b ba 5e c6 1f 3c b4 a4 f3 bb f4 8e d1 ba
       -0.0005321368 0.009751884 -0.0074354056 -0.0015988038
000090 ab 63 9b b9 78 10 80 3b e9 bf 9e 3b 09 0d 36 3c
       -0.00029638162 0.003908213 0.004844655 0.011111506
0000a0 7a 3e ac 3b 12 e2 29 bb 4d 73 c9 3b f4 d7 1c bb
       0.005256471 -0.0025922102 0.006147778 -0.002393243
0000b0 2f 4d 25 3b 44 d0 d7 39 60 76 9b 3a bc 82 34 3b
       0.0025223007 0.00041163166 0.001186084 0.0027543744
0000c0 87 5b 9b 3b 40 a4 a9 39 2f 01 21 bb 0e 82 90 3b
       0.0047411355 0.00032356568 -0.0024567356 0.004410035
0000d0 f1 42 0c ba 44 94 13 bc 5a bd b9 bb a6 b5 04 bc
       -0.0005350551 -0.009007517 -0.0056683244 -0.008099949
0000e0 81 0e e5 3a ea 7b e1 bb 08 6f 00 bc 6e 33 09 3c
       0.0017475636 -0.006881227 -0.007838972 0.008374078
0000f0 3a 8d c1 bb bd dc c9 ba 96 7a dc 3b 7e 1f bf ba
       -0.005906728 -0.0015400868 0.0067284806 -0.0014581529
000100 47 8d 0b 3c a6 1e cd ba bc eb 9c bb 54 a0 59 3c
       0.00851757 -0.0015649393 -0.004788844 0.013282854
000110 8e e0 c8 b9 ef 85 86 bb 17 01 9e 3b 4f a2 ca 3a
       -0.0003831428 -0.0041053216 0.0048219073 0.0015459749
000120 64 06 9a 3a 57 c2 0e bc 43 83 a4 3b d3 8f 35 bc
       0.0011751172 -0.008713326 0.0050205304 -0.011081654
000130 24 a2 09 bc 0c 31 df 3a 37 4a c2 3b 1b cd 9e ba
       -0.008400474 0.0017028167 0.0059292573 -0.001211557
000140 71 e1 13 bc 20 27 df 3b cc cd 5d bb 3a c8 52 3c
       -0.009025917 0.006810084 -0.0033844588 0.012865121
000150 fb c9 da 3b c6 1a f4 3b 28 44 59 bb b2 24 3a bc
       0.00667691 0.0074494807 -0.0033152197 -0.011361288
000160 2f 9c 83 bb 29 07 e1 b8 67 6a cd 3a aa 60 6d 3b
       -0.0040164213 -0.0001073017 0.0015671969 0.0036220946
000170 bd c9 b3 3a e4 8f 77 3b e1 32 6a bb 9a 0c ac ba
       0.0013716739 0.0037774974 -0.0035735893 -0.0013126314
000180 85 e3 99 3b 39 5e a8 3b 56 93 95 3b d3 77 5e bb
       0.004696312 0.0051381853 0.004564683 -0.0033945933
000190 04 bf 7d 3a 3c 7b c2 bb 3f b7 a4 3b 4c 2d 8c 3a
       0.00096796476 -0.005935101 0.0050267274 0.0010694652
0001a0 0f d1 53 bb 5a ac 3b 3b 80 63 6d bb 89 4b e2 ba
       -0.0032320654 0.0028636665 -0.0036222637 -0.0017264943
0001b0 1d 11 8f bb cc 21 a2 bb c1 1e 6b bb 39 bb 57 37
       -0.0043660537 -0.0049478766 -0.0035876485 1.285859e-05
0001c0 4e 24 05 3c 06 d0 92 b9 66 24 a6 3b 0f eb 2d 3a
       0.0081263315 -0.0002800228 0.005070257 0.0006634453
0001d0 d1 b3 e4 bb a9 fb 9d ba 72 6c 94 3b cd a5 38 3b
       -0.0069794436 -0.001205315 0.0045295293 0.0028174997
0001e0 df 7c b0 ba fc 9b 7f 3c be e9 ad bb fc 76 2b bb
       -0.0013464949 0.015601154 -0.0053074053 -0.002616345
0001f0 14 c6 89 ba b6 69 09 3c 63 cc 17 3b a6 3a 9e 3b
       -0.0010511302 0.00838702 0.0023162595 0.004828769
